医学影像/EV_GCN/save_models/ev_gcn/fold5.pth (torch, 543861 bytes, 20 tensors)

gconv.0.weight f4 [3, 2000, 16]
0.010853453 -0.08704164 -0.01293466 -0.056816127 -0.085462816 -0.021825522 0.045718327 -0.039416056
0.048429307 0.07931111 -0.084604695 -0.0023699803 -0.005801692 -0.07331674 0.08771935 0.058274157
-0.008410307 -0.052943107 0.05715274 -0.09708898 -0.010010862 0.011397656 0.036289327 0.023068093
0.041900642 0.0471286 -0.07944061 -0.033489607 0.084162295 -0.076770894 0.0933726 -0.13789949
-0.0134695545 -0.04573421 -0.040888548 -0.040411234 -0.054998077 -0.041419785 0.013439309 0.054674476
-0.021969188 -0.011657663 -0.07537976 0.041244052 0.04834038 -0.128553 0.12604512 -0.04581273
0.32806188 -0.00764589 -0.025379444 -0.022672018 -0.09050114 0.1100455 0.08163886 0.0049290485
0.019570965 0.040984083 -0.0555589 -0.029811231 0.19090128 -0.040624764 -0.20828848 -0.42894465
-0.13833824 -0.04383963 0.060657557 -0.049306326 -0.038020223 -0.06843139 -0.03367172 0.048102517
0.014678018 -0.0062509915 -0.07232906 -0.00034846572 -0.05117421 -0.07056622 0.16364619 0.28169006
-0.040873684 -0.052209374 0.002354168 -0.057459135 -0.10781572 -0.052299 0.028222162 0.020810474
-0.02335719 0.06837159 -0.02016542 -0.027545659 0.118370175 -0.06383351 0.1042945 -0.11496841
0.062242985 -0.082302704 0.06611748 -0.0452818 -0.07993407 -0.045763597 0.034308836 0.02882761
0.013202576 0.07644775 -0.013486561 -0.0019655908 -0.027430762 -0.07344173 -0.20030975 0.013949154
0.10794212 -0.092489414 0.10817922 -0.010174081 -0.023826307 -0.036014285 0.08663411 -0.03113779
0.020819515 0.09394924 -0.05018282 -0.0331624 0.042608056 -0.1300606 -0.1316564 -0.15197778
0.17599961 -0.10023048 0.121845506 -0.04123944 -0.03992602 -0.024545422 0.04665814 0.023345323
-0.030960675 0.04643684 -0.041786425 -0.00067576085 0.07465635 -0.00011703291 -0.113795236 -0.14302164
0.054489784 -0.034241937 0.011170294 -0.0834761 -0.05441277 -0.04397864 0.007107195 0.029094376
-0.016134495 0.048251376 -0.046427302 6.46129e-05 0.0018100638 -0.031813826 0.04675596 -0.05648326
0.13899876 -0.0751917 0.08979876 -0.017429389 -0.056868277 -0.10102729 -0.0022674282 0.029654594
0.009372522 0.0057667824 -0.0049449415 0.0015412729 -0.008009453 -0.041026894 0.003826651 -0.06396414
0.31920096 -0.09045174 0.17635709 -0.05274945 -0.05883066 -0.05271764 0.10184737 0.02513921
-0.01567503 0.018217841 -0.011516054 0.00039709985 0.15996811 -0.036874954 -0.21763062 -0.40936258
0.25765917 -0.098509245 0.1451739 -0.086059704 -0.010047842 -0.06101127 0.07688359 0.0011164922
-0.05448462 0.089627706 -0.0057397163 -0.0005459468 0.07937813 -0.028512271 -0.10743053 -0.28124988
-0.3204646 -0.10243422 -0.10667176 -0.0729325 -0.05934498 -0.046626534 -0.03202716 -0.014737364
0.007188864 0.06092477 -0.060201306 -0.012446523 -0.013248494 -0.010594266 0.33362627 0.11758585
-0.115618184 -0.04460454 -0.070502825 -0.09974844 -0.08397924 0.010457673 -0.016770348 0.05868974
-0.02364913 -0.0128889615 -0.07701732 -0.0019498905 -0.066131555 -0.0021930514 0.2677323 0.18396197
0.013852307 -0.07467407 -0.005881091 -0.09292256 -0.042030875 -0.074923344 0.03683776 -0.0608568
-0.022486916 0.012050443 -0.03219356 -7.2598064e-05 0.068617746 -0.05858898 0.06788804 -0.14335567
00000000: aed2 313c e342 b2bd e5eb 53bc 07b8 68bd
00000010: 2107 afbd 70cb b2bc 2443 3b3d bb72 21bd
00000020: cf5d 463d dd6d a23d 3a45 adbd ac51 1bbb
00000030: 1f1c bebb 1627 96bd 34a6 b33d e2b0 6e3d
00000040: 62cb 09bc dfda 58bd fe18 6a3d 96d6 c6bd
00000050: 9904 24bc 3cbd 3a3c 1ea4 143d 4cf9 bc3c
00000060: 02a0 2b3d eb09 413d c2b1 a2bd 662c 09bd
00000070: 485d ac3d 0f3a 9dbd 223a bf3d 8635 0dbe
00000080: 68af 5cbc cc53 3bbd c07a 27bd 4086 25bd
00000090: aa45 61bd cba7 29bd 8c30 5c3c 58f2 5f3d
000000a0: baf8 b3bc c8ff 3ebc b460 9abd 86ef 283d
000000b0: 9000 463d 66a3 03be f911 013e 21a6 3bbd
000000c0: baf7 a73e 608a fabb 8de8 cfbc abba b9bc
000000d0: a958 b9bd 895f e13d 4632 a73d db83 a13b
000000e0: 4a53 a03c edde 273d bb91 63bd af36 f4bc
000000f0: a07b 433e 2766 26bd 9349 55be a29e dbbe
00000100: 8aa8 0dbe 2f91 33bd 0f74 783d 6ef5 49bd
00000110: 18bb 1bbd c225 8cbd 5ceb 09bd 2507 453d
00000120: 127c 703c 1ed5 ccbb 4221 94bd 47b2 b6b9
00000130: 0c9c 51bd 0685 90bd de92 273e ae39 903e
00000140: 2a6b 27bd 7fd9 55bd 6348 1a3b 455a 6bbd
00000150: 7dce dcbd 7a37 56bd 2a32 e73c ba7a aa3c
00000160: 9457 bfbc 6706 8c3d f331 a5bc 6fa7 e1bc
00000170: 106c f23d 25bb 82bd 5b98 d53d 8f74 ebbd
00000180: 80f2 7e3d 528e a8bd 9a68 873d 6979 39bd
00000190: 79b4 a3bd 9c72 3bbd 6c87 0c3d e127 ec3c
000001a0: 9e4f 583c a390 9c3d bdf6 5cbc 24d1 00bb
000001b0: 7ab6 e0bc 9e68 96bd 001e 4dbe fe8a 643c
000001c0: c210 dd3d 176b bdbd 118d dd3d 30b1 26bc
000001d0: 632f c3bc b783 13bd 396d b13d ae14 ffbc
000001e0: b08d aa3c 7668 c03d 808c 4dbd 4cd5 07bd
000001f0: c985 2e3d 9b2e 05be efd0 06be 10a0 1bbe
00000200: 3e39 343e a345 cdbd 238a f93d b0ea 28bd
00000210: 7789 23bd 7b13 c9bc 9b1c 3f3d b13e bf3c
00000220: 3ea1 fdbc 8e34 3e3d 3e28 2bbd 8b25 31ba
00000230: 6ee5 983d 916f f5b8 7a0d e9bd 4474 12be
00000240: ae30 5f3d 4641 0cbd 9c03 373c 84f5 aabd
00000250: eddf 5ebd f222 34bd 79e3 e83b 5457 ee3c
00000260: 7d2c 84bc 3ca3 453d 8e2a 3ebd c980 8738
00000270: aa3f ed3a 374f 02bd 2d83 3f3d fe5a 67bd
00000280: b155 0e3e 1bfe 99bd 6ae8 b73d 14c8 8ebc
00000290: b6ee 68bd 65e7 cebd 2299 14bb 31ee f23c
000002a0: 358f 193c 47f7 bc3b 2d09 a2bb 8904 ca3a
000002b0: 153a 03bc d10b 28bd 8dc8 7a3b a2ff 82bd
000002c0: 4f6e a33e c33e b9bd f496 343e cf0f 58bd
000002d0: 6bf8 70bd 74ee 57bd 5b95 d03d bff0 cd3c
000002e0: ec68 80bc 953d 953c d5ad 3cbc d731 d039
000002f0: aece 233e 310a 17bd 90da 5ebe f997 d1be
00000300: e7eb 833e 37bf c9bd 78a8 143e 1240 b0bd
00000310: b49f 24bc f4e6 79bd 2575 9d3d 4357 923a
00000320: 442b 5fbd bb8e b73d 3b14 bcbb df1d 0fba
00000330: 0091 a23d 9192 e9bc 8a04 dcbd fcff 8fbe
00000340: f013 a4be 08c9 d1bd b976 dabd a25d 95bd
00000350: b913 73bd 77fb 3ebd e92e 03bd fc74 71bc
00000360: 9090 eb3b 408c 793d a595 76bd 80ec 4bbc
00000370: 3610 59bc 9293 2dbc 10d1 aa3e dad0 f03d
00000380: 3ac9 ecbd 40b3 36bd c963 90bd e948 ccbd
00000390: 4ffd abbd a956 2b3c f861 89bc a764 703d
000003a0: d2bb c1bc 392c 53bc 42bb 9dbd 7893 ffba
000003b0: fb6f 87bd 4cb9 0fbb 3514 893e 8760 3c3e
000003c0: c9f4 623c b8ee 98bd 2bb6 c0bb 2f4e bebd
000003d0: 9128 2cbd 6971 99bd 31e3 163d fb44 79bd
000003e0: 7b36 b8bc 396f 453c 65dd 03bd ca3f 98b8
000003f0: 7687 8c3d 00fb 6fbd e208 8b3d d4cb 12be

gconv.1.weight f4 [3, 16, 16]
-0.21509367 0.07706735 -0.09531759 -0.6323752 0.28413373 -0.5235819 0.24772327 -0.033837453
0.5261069 -0.08539484 -0.10541665 -0.2201155 -0.18674044 -0.32079738 -0.24417119 0.13342978
-0.44692358 0.06885496 0.31049594 0.31038955 -0.17027125 0.052928727 0.20643504 -0.34211594
-0.06880231 -0.075355984 0.2612054 -0.24910517 0.013438983 0.093507215 0.15332457 -0.2670226
0.024116263 0.26164404 0.14340484 -0.09720025 -0.4730006 -0.03502998 -0.1258249 -0.07253665
0.21180005 0.15118146 -0.04446105 0.11082716 -0.36819342 0.14931995 -0.19441314 -0.36401048
0.3887982 -0.14615238 0.27751002 0.36744905 -0.37613037 -0.06243229 0.057224132 0.17915101
0.13350493 -0.38995126 0.19071198 -0.16119699 -0.21344614 -0.14966065 -0.028057002 -0.490686
0.173134 0.27122745 0.11137464 0.15254898 0.22736044 -0.34658805 0.05002655 -0.250103
-0.20627241 0.072091974 0.15177526 -0.051396143 0.16265103 -0.0004774433 -0.08347439 0.21373773
0.09822383 -0.15904316 0.10921573 0.25494057 -0.0327914 -0.009290809 0.0685264 0.38144234
-0.16269368 -0.44138435 0.005365152 -0.35119265 -0.25649717 -0.051202152 -0.25413465 -0.24546173
0.039896272 -0.31660554 -0.4915798 -0.16544995 -0.34549993 -0.07327829 -0.29353097 -0.3653409
-0.19264369 -0.3588519 0.005332672 0.037120454 -0.26205564 -0.04293453 -0.39038044 0.05957857
-0.37233016 -0.34097034 -0.3772591 -0.50647324 0.1113747 -0.22438341 -0.12569395 -0.34973267
-0.28762227 0.18408257 -0.2304742 -0.037303787 -0.23766989 -0.12667413 0.2881488 -0.3287332
0.27129617 0.104392625 0.0481025 0.18072113 0.16560104 0.2125459 -0.06745745 0.20196152
-0.23294821 0.3658668 0.19464688 0.063172735 0.007780377 -0.23827265 0.21958776 0.22453842
-0.24227081 -0.049405504 0.12533824 -0.4149708 -0.07072359 -0.45853248 -0.2197342 -0.3399432
-0.19601902 0.19329868 -0.31175554 -0.27702928 -0.33347616 -0.3733668 -0.19068569 -0.06352092
0.19354926 0.09305724 0.24866965 -0.1489625 -0.085927315 0.1189576 0.28987458 0.01242106
-0.16075358 -0.13548677 0.31583914 0.46954113 0.32948583 0.0417297 0.22792889 -0.2533796
-0.35598114 0.209984 0.2368608 0.03608487 0.24480611 -0.25272098 0.09888064 -0.06846948
0.093683995 -0.26867062 0.19903599 0.2264455 -0.121277004 0.31163183 0.45710835 -0.32323778
-0.12812772 -0.15331389 0.0045364494 -0.4037508 -0.2269426 0.16482756 -0.21267717 -0.4748565
-0.3876288 0.19136474 -0.6575051 -0.3362144 -0.0059392694 0.040824413 -0.40386254 0.16853236
-0.064902194 -0.44164187 -0.3771086 -0.20368288 -0.12146048 -0.31476265 0.22351637 -0.36394814
0.16492283 -0.21688275 0.04500092 0.16084051 -0.037905447 0.010866236 -0.07933748 -0.4626218
0.14362344 -0.022015875 0.17530346 0.008745294 -0.34901163 -0.1283349 0.2622408 0.3764157
-0.0048870556 0.14446639 0.07104998 0.1913713 -0.1287953 0.022917284 -0.23071894 0.24991335
-0.15128426 -0.17800862 0.45438126 -0.035867568 0.24165496 0.1734812 0.22783802 0.39585236
-0.31248426 0.21334068 -0.047951773 -0.44547218 0.36786976 -0.40388203 -0.05431023 0.019774888
00000000: 8441 5cbe 7dd5 9d3d de35 c3bd 57e3 21bf
00000010: fa79 913e 7709 06bf 2bab 7d3e 2499 0abd
00000020: f1ae 063f 7de3 aebd afe4 d7bd f565 61be
00000030: e338 3fbe 8e3f a4be 0308 7abe d1a1 083e
00000040: 2bd3 e4be d403 8d3d 53f9 9e3e 61eb 9e3e
00000050: 965b 2ebe cbcb 583d b563 533e d229 afbe
00000060: 3ae8 8cbd 3d54 9abd b7bc 853e 6d15 7fbe
00000070: 2e2f 5c3c b680 bf3d 1e01 1d3e 30b7 88be
00000080: 788f c53c 35f6 853e b8d8 123e ed10 c7bd
00000090: 222d f2be 997b 0fbd 3ed8 00be 188e 94bd
000000a0: 1de2 583e 50cf 1a3e ca1c 36bd 5af9 e23d
000000b0: d983 bcbe 54e7 183e 3d14 47be 955f babe
000000c0: 8f10 c73e f8a8 15be cb15 8e3e 4822 bc3e
000000d0: 2994 c0be 00b9 7fbd da63 6a3d 5d73 373e
000000e0: 84b5 083e b1a7 c7be 004a 433e d310 25be
000000f0: a091 5abe a440 19be ccd7 e5bc 323b fbbe
00000100: 0a4a 313e 53de 8a3e 6318 e43d cd35 1c3e
00000110: 2dd1 683e fd73 b1be a4e8 4c3d 800d 80be
00000120: 1339 53be f5a4 933d f96a 1b3e c384 52bd
00000130: fe8d 263e 5b51 fab9 9ff4 aabd 10de 5a3e
00000140: 9329 c93d 36dc 22be 7fac df3d 9287 823e
00000150: 4650 06bd 7a38 18bc 9257 8c3d 694c c33e
00000160: 2c99 26be 21fd e1be 28ce af3b 86cf b3be
00000170: 9953 83be 59b9 51bd f01d 82be 525a 7bbe
00000180: 466a 233d 1f1a a2be 59b0 fbbe b66b 29be
00000190: 5ee5 b0be ee12 96bd b149 96be f60d bbbe
000001a0: 6344 45be 70bb b7be b2bd ae3b 9e0b 183d
000001b0: 282c 86be 1edc 2fbd f2df c7be a908 743d
000001c0: 0fa2 bebe aa93 aebe 1b28 c1be 3ba8 01bf
000001d0: 6b18 e43d c4c4 65be eab5 00be 2910 b3be
000001e0: 3a43 93be 2480 3c3e 6e01 6cbe dbcb 18bd
000001f0: bc5f 73be ddb6 01be 3d88 933e b84f a8be
00000200: 55e7 8a3e cdcb d53d 2107 453d f60e 393e
00000210: 5293 293e a2a5 593e 2227 8abd 00cf 4e3e
00000220: fa89 6ebe e552 bb3e 8351 473e b560 813d
00000230: 88f2 fe3b bffd 73be 9ddb 603e 66ed 653e
00000240: d715 78be 6d5d 4abd ab58 003e 0d77 d4be
00000250: 88d7 90bd c5c4 eabe 0102 61be 090d aebe
00000260: 36b9 48be 17f0 453e 6c9e 9fbe c8d6 8dbe
00000270: 63bd aabe ef29 bfbe 1c43 43be 4217 82bd
00000280: c731 463e cb94 be3d 42a3 7e3e a089 18be
00000290: a9fa afbd 0ba0 f33d 716a 943e b481 4b3c
000002a0: 969c 24be 0bbd 0abe abb5 a13e b267 f03e
000002b0: 5eb2 a83e c3ec 2a3d 3166 693e f9ba 81be
000002c0: 2943 b6be 0c06 573e a38b 723e bbcd 133d
000002d0: 74ae 7a3e a564 81be ef81 ca3d ba39 8cbd
000002e0: 65dd bf3d 328f 89be 17d0 4b3e 54e1 673e
000002f0: 1460 f8bd 358e 9f3e 1b0a ea3e 6c7f a5be
00000300: ea33 03be 51fe 1cbe 7fa6 943b 6db8 cebe
00000310: a463 68be 8ec8 283e 0bc8 59be 6420 f3be
00000320: 4877 c6be 1ef5 433e 4152 28bf 4b24 acbe
00000330: 349e c2bb 8037 273d 12c7 cebe bf93 2c3e
00000340: 71eb 84bd e21e e2be 6114 c1be 3f92 50be
00000350: 46c0 f8bd 9228 a1be 7ae1 643e 6957 babe
00000360: 88e1 283e 8316 5ebe e252 383d 60b3 243e
00000370: be42 1bbd 4c08 323c b07b a2bd c4dc ecbe
00000380: 0612 133e a35a b4bc c082 333e 6c48 0f3c
00000390: a7b1 b2be 396a 03be 6d44 863e 8fb9 c03e
000003a0: 9823 a0bb ffee 133e a782 913d d7f6 433e
000003b0: eae2 03be 07bd bb3c 9641 6cbe 49e9 7f3e
000003c0: 43ea 1abe e447 36be a9a4 e83e dfe9 12bd
000003d0: 6674 773e 0ea5 313e 5f4e 693e 29ad ca3e
000003e0: f0fd 9fbe fb75 5a3e 1469 44bd ee14 e4be
000003f0: 6d59 bc3e a0c9 cebe 6774 5ebd f2fe a13c

gconv.2.weight f4 [3, 16, 16]
0.3610965 -0.13881488 -0.27162725 0.5978807 -0.08054358 0.35340783 0.07967351 -0.111478865
0.18601644 0.064086795 0.20085058 0.45456547 0.0055371015 -0.31367224 -0.11943224 0.22033712
-0.08733402 0.057467546 0.24141164 0.07955248 0.17750938 0.094124466 0.10236959 -0.30599082
-0.059648782 -0.051056784 -0.043735027 0.38793698 0.27058652 0.084876634 -0.2850311 -0.07986093
-0.20689611 -0.0140235815 -0.029412229 0.040288568 -0.20185484 -0.029759558 -0.3378182 0.013270785
-0.08221486 -0.24623378 0.11712601 0.3792135 0.19631167 -0.39678556 0.13446452 -0.33032775
-0.26704776 0.29032865 0.06719585 -0.19746111 -0.23688427 0.07752691 -0.20200619 -0.038447976
0.32552534 0.15305056 0.08583012 0.3354845 0.02140057 0.13032418 -0.034937784 0.34629697
0.23000532 0.3356676 -0.29545078 0.23439106 0.028849758 -0.342542 -0.0513467 0.22052613
0.14050509 0.04214558 0.009406976 -0.07849913 -0.37302107 -0.14223775 0.30790222 0.076528475
-0.4388511 -0.035098225 -0.3621844 -0.15870729 -0.2797026 0.3813628 -0.10470637 -0.08669944
0.33398837 0.18567754 -0.41271284 0.061728347 0.1581115 -0.028935796 0.15626405 -0.18611382
0.20800617 -0.29918167 0.010218242 0.097069755 -0.06105193 0.055051424 -0.27474114 -0.04301198
-0.09409926 -0.3007003 0.34047154 0.18191813 0.21398474 -0.6813378 -0.2845225 -0.07794137
0.44837448 -0.090934224 0.14402927 -0.26816562 0.2097589 0.3059365 0.33431268 -0.0029300407
-0.038434166 -0.18387102 0.27033103 0.42678356 0.18878993 -0.26110488 0.050634522 -0.32611334
0.170157 -0.17693834 -0.08555431 -0.1940241 0.005340487 -0.22909538 -0.06044191 -0.2394682
-0.23777898 -0.35114667 -0.3298481 -0.20715113 -0.25848857 0.21045507 -0.0849335 0.12167582
0.3626402 -0.06760811 -0.4538424 -0.27959314 0.39292488 0.09340228 0.09426789 -0.45684415
-0.29872796 -0.17473376 0.11398269 0.54008514 -0.02278273 0.17101078 0.09436584 -0.10275233
0.26578456 -0.23303075 -0.32343218 0.012229358 0.609556 0.07170371 -0.050092895 0.14986831
-0.37831762 0.28527227 0.20713359 0.20357914 0.34208173 -0.0055648554 0.26366472 -0.43984926
-0.2138864 0.104660094 -0.1800166 0.19472104 0.33432272 0.022695165 -0.061133295 -0.50419915
0.28080076 0.17135987 -0.2906697 -0.016818525 0.1198315 0.29581296 0.4559728 -0.074382186
0.12739763 -0.30790114 0.15149203 -0.19208741 -0.21734458 -0.14175452 0.060120657 -0.4031487
-0.08051476 0.33985007 0.1100308 0.107689604 0.260054 0.15477067 -0.079653144 -0.09948462
0.06371897 -0.27712107 0.27574363 -0.31403187 0.28962204 0.08283315 0.082807235 -0.37300244
0.08264878 0.43168235 0.0031045086 0.29822963 -0.05951765 0.36754945 -0.1755963 0.06876935
0.43313795 -0.41508457 -0.4523957 -0.16396943 0.33627287 -0.19348362 0.33183601 -0.1794539
-0.21125211 0.06779822 -0.34670746 0.469757 -0.07926473 -0.1603581 -0.053111885 0.053007573
-0.07233389 0.13981344 0.073154025 -0.10663387 0.18046391 -0.011771906 0.40555614 0.041981936
-0.15001355 0.20656347 0.0937049 0.38740903 -0.15432143 0.18906237 0.14806473 0.13711013
00000000: a4e1 b83e 7d25 0ebe ba12 8bbe b60e 193f
00000010: 08f4 a4bd dff1 b43e dd2b a33d 084f e4bd
00000020: 187b 3e3e f03f 833d c6ab 4d3e cebc e83e
00000030: 9370 b53b a699 a0be e498 f4bd 0ea0 613e
00000040: 2edc b2bd 1763 6b3d 9d34 773e 69ec a23d
00000050: 05c5 353e 54c4 c03d 26a7 d13d d4aa 9cbe
00000060: 4852 74bd eb20 51bd 8023 33bd ad9f c63e
00000070: 518a 8a3e cdd3 ad3d 99ef 91be 218e a3bd
00000080: 93dc 53be 2ac3 65bc eaf1 f0bc a005 253d
00000090: 09b3 4ebe 51ca f3bc 82f6 acbe b56d 593c
000000a0: 4460 a8bd b524 7cbe c3df ef3d 4628 c23e
000000b0: ed05 493e 7a27 cbbe 11b1 093e b820 a9be
000000c0: 7cba 88be f5a5 943e fa9d 893d 3f33 4abe
000000d0: ca91 72be 6ec6 9e3d b6da 4ebe a07b 1dbd
000000e0: 42ab a63e 49b9 1c3e b4c7 af3d a0c4 ab3e
000000f0: 4050 af3c b473 053e ec1a 0fbd d64d b13e
00000100: 8486 6b3e a0dc ab3e 5345 97be 3604 703e
00000110: 5456 ec3c aa61 afbe eb50 52bd 9ad1 613e
00000120: 91e0 0f3e d8a0 2c3d b81f 1a3c 27c4 a0bd
00000130: 9efc bebe c6a6 11be 5ca5 9d3e f6ba 9c3d
00000140: 17b1 e0be 28c3 0fbd 3c70 b9be 2a84 22be
00000150: 2e35 8fbe fc41 c33e 4b70 d6bd 7a8f b1bd
00000160: 8600 ab3e 4122 3e3e 194f d3be ddd6 7c3d
00000170: fbe7 213e c30a edbc af03 203e 9f94 3ebe
00000180: 92ff 543e 572e 99be 6a6a 273c 82cc c63d
00000190: 9711 7abd 9a7d 613d dfaa 8cbe 542d 30bd
000001a0: 1db7 c0bd 64f5 99be 4952 ae3e bf48 3a3e
000001b0: d11e 5b3e 276c 2ebf efac 91be ba9f 9fbd
000001c0: 5791 e53e b93b babd 697c 133e 014d 89be
000001d0: 09cb 563e b5a3 9c3e 082b ab3e ed05 40bb
000001e0: 256d 1dbd af48 3cbe d468 8a3e 6083 da3e
000001f0: 2652 413e 8aaf 85be 2566 4f3d 54f8 a6be
00000200: a33d 2e3e 532f 35be 1937 afbd 41ae 46be
00000210: 41ff ae3b fb97 6abe f091 77bd 2737 75be
00000220: 557c 73be 7fc9 b3be dae1 a8be 6d1f 54be
00000230: 9d58 84be 8981 573e 9df1 adbd 2c31 f93d
00000240: faab b93e 1f76 8abd 085e e8be d526 8fbe
00000250: 732d c93e b249 bf3d 860f c13d 7ae7 e9be
00000260: dff2 98be 68ed 32be c26f e93d 0543 0a3f
00000270: d9a2 babc 731d 2f3e e142 c13d d06f d2bd
00000280: ea14 883e 9d9f 6ebe e798 a5be a55d 483c
00000290: dd0b 1c3f 65d9 923d 352e 4dbd 1477 193e
000002a0: d9b2 c1be 350f 923e d41a 543e 0d77 503e
000002b0: 5625 af3e 6459 b6bb 10ff 863e ec33 e1be
000002c0: 0905 5bbe 0858 d63d 4656 38be f464 473e
000002d0: 592c ab3e 36eb b93c e866 7abd 3213 01bf
000002e0: 1ec5 8f3e f678 2f3e a9d2 94be 01c7 89bc
000002f0: 386a f53d cc74 973e 4475 e93e b055 98bd
00000300: 8674 023e 38a5 9dbe ba20 1b3e 90b2 44be
00000310: 948f 5ebe 1928 11be 1441 763d 8269 cebe
00000320: ece4 a4bd d400 ae3e d457 e13d 5e8c dc3d
00000330: cc25 853e 347c 1e3e 3021 a3bd 98be cbbd
00000340: 177f 823d d0e2 8dbe 452e 8d3e c9c8 a0be
00000350: 5749 943e 6da4 a93d d796 a93d 2dfa bebe
00000360: c343 a93d 7805 dd3e 0375 4b3b 8eb1 983e
00000370: c8c8 73bd 712f bc3e 84cf 33be f2d6 8c3d
00000380: 42c4 dd3e f785 d4be 69a0 e7be 9ae7 27be
00000390: f52b ac3e 9220 46be 69e6 a93e c3c2 37be
000003a0: 7952 58be cbd9 8a3d a483 b1be fd83 f03e
000003b0: 8c55 a2bd ea34 24be d98b 59bd 781e 593d
000003c0: ca23 94bd 412b 0f3e c7d1 953d dc62 dabd
000003d0: 88cb 383e f4de 40bc 0ea5 cf3e 40f5 2b3d
000003e0: 279d 19be 6085 533e 5be8 bf3d 7a5a c63e
000003f0: 7006 1ebe 9199 413e 489e 173e 9966 0c3e

gconv.3.weight f4 [3, 16, 16]
0.27690846 0.53868073 0.12358623 0.45043343 0.41074795 -0.39763907 0.36366287 -0.31550297
-0.21039951 0.22930118 0.17219466 -0.09769106 -0.10952041 0.08279023 0.2592883 -0.060898673
0.1406368 0.34159532 -0.27133906 -0.32759222 -0.042072244 0.14569962 0.11200364 0.012175334
-0.44959825 0.33644855 0.13178152 -0.26107052 -0.10055209 0.3251178 -0.22140023 0.25903836
0.25769833 -0.22792457 -0.16925447 -0.2862476 -0.08816186 -0.07061893 -0.10392892 -0.10668683
-0.52996045 -0.16959485 -0.2069527 0.028297812 0.18271913 -0.39399418 -0.29488325 0.16119657
0.081942454 -0.2693483 0.30320936 -0.14775686 0.45118007 0.11225651 0.26527014 -0.1709
-0.11225181 0.07341602 -0.20510733 0.15204857 -0.03605017 -0.09093102 -0.26743433 0.16372995
0.03474621 0.36170906 0.12969156 0.31557438 -0.03922888 -0.30061227 0.20535298 0.21054164
0.07528524 0.078221425 -0.26515102 0.25991654 -0.037934653 0.36051524 -0.44929236 0.2434823
0.30338094 0.24149993 0.10449702 -0.09288275 -0.041782137 -0.11092911 0.24925296 0.16753046
-0.14030094 0.17962444 0.39255616 0.31322348 0.09063906 -0.1716668 -0.2229161 -0.03672071
-0.19722483 0.22306931 -0.101283245 -0.28857747 0.39796343 0.4863542 0.15394145 0.21601754
0.26290053 -0.22783767 -0.4411445 0.08985722 0.34816542 -0.20704508 -0.07196847 0.5288895
-0.3411776 0.1372202 0.18136397 0.297517 -0.090271 -0.329465 0.13647899 0.23708983
0.17633519 -0.34461856 -0.3522656 -0.064116135 -0.08868982 -0.29453364 0.34632543 0.18743138
0.40334752 -0.054547403 0.20295256 0.095152624 0.015628986 -0.5354523 0.33483395 -0.15216188
0.17629111 -0.39822227 -0.26642966 -0.21729636 -0.21274863 -0.25992644 -0.3213273 -0.20729584
0.1272724 0.52610946 0.31911737 -0.4013547 -0.3263067 0.20381759 0.5536112 -0.35242197
0.17563453 -0.39479288 -0.60307074 0.33720514 0.10043094 0.30322972 -0.28950554 -0.030589776
-0.29524145 -0.061875906 -0.15584178 0.3967033 -0.033284187 -0.16034633 -0.26517034 0.29108602
-0.33998367 -0.35007167 0.27724314 -0.35214746 0.107865445 -0.119026005 -0.114723034 0.31746408
0.28759387 -0.045925967 0.24924015 0.16274965 0.15919533 -0.3182812 -0.15551913 -0.24280882
0.058805693 -0.27867323 0.35338613 0.05758368 -0.21949874 -0.08503509 0.2663568 0.3020024
-0.21679631 0.36204907 0.35548082 -0.17697628 -0.17941421 -0.11549093 -0.15877469 -0.33851472
0.084004745 0.23086454 -0.37221932 -0.044838823 0.38947773 -0.10414577 0.21070816 -0.09751435
-0.30361053 -0.2333362 -0.027726203 -0.34875655 0.1782854 -0.3824711 0.25817943 0.21345216
0.12679121 0.09331965 -0.07809215 0.12738766 0.23998657 0.39307523 -0.17568947 0.17100129
0.4003714 0.0870422 -0.17829125 0.13788667 -0.026482696 0.031576138 0.38227332 -0.05574827
0.43588954 -0.400838 0.32487935 0.023374364 -0.107361116 -0.2169093 -0.13112849 0.27373287
-0.10888975 0.19919565 0.071279116 0.25457296 -0.226331 -0.3220949 -0.109383225 0.071794145
0.018048009 -0.23363626 -0.23031645 0.2903128 -0.15320171 -0.22709702 -0.28086427 -0.07159653
00000000: f2c6 8d3e fbe6 093f c71a fd3d 369f e63e
00000010: 8e4d d23e 5997 cbbe 0532 ba3e 9b89 a1be
00000020: f872 57be eecd 6a3e cc53 303e 4012 c8bd
00000030: 3d4c e0bd ed8d a93d 70c1 843e e370 79bd
00000040: 1803 103e 95e5 ae3e f4ec 8abe 2bba a7be
00000050: f253 2cbd 4832 153e 2a62 e53d 0d7b 473c
00000060: be31 e6be fc42 ac3e bcf1 063e 09ab 85be
00000070: 41ee cdbd d775 a63e beb6 62be ada0 843e
00000080: 09f1 833e 0f65 69be 0b51 2dbe 0c8f 92be
00000090: 358e b4bd a8a0 90bd b0d8 d4bd a07e dabd
000000a0: 7dab 07bf 46aa 2dbe 69eb 53be d0d0 e73c
000000b0: b91a 3b3e 9bb9 c9be f0fa 96be b710 253e
000000c0: 72d1 a73d 05e8 89be 423e 9b3e 934d 17be
000000d0: 1301 e73e bee6 e53d 7dd1 873e 6900 2fbe
000000e0: 47e4 e5bd 235b 963d a807 52be 9fb2 1b3e
000000f0: 58a9 13bd 0b3a babd 27ed 88be d3a8 273e
00000100: 0b52 0e3d ee31 b93e ddcd 043e f792 a13e
00000110: 76ae 20bd dae9 99be 0d48 523e 3a98 573e
00000120: 262f 9a3d 8e32 a03d e0c1 87be c813 853e
00000130: 5e61 1bbd 7495 b83e a609 e6be 6d53 793e
00000140: bf54 9b3e c24b 773e 8902 d63d 5039 bebd
00000150: bf23 2bbd cd2e e3bd 2b3c 7f3e 1b8d 2b3e
00000160: 0dab 0fbe 78ef 373e 1ffd c83e d45e a03e
00000170: f9a0 b93d 6cc9 2fbe 1e44 64be 7568 16bd
00000180: 4ef5 49be 486c 643e 976d cfbd 6dc0 93be
00000190: ddc1 cb3e 6b03 f93e d4a2 1d3e b433 5d3e
000001a0: e69a 863e 474e 69be b1dd e1be 1007 b83d
000001b0: bd42 b23e a003 54be 3564 93bd 4d65 073f
000001c0: d5ae aebe 7483 0c3e 7ab7 393e 2654 983e
000001d0: 01e0 b8bd a3af a8be 26c1 0b3e adc7 723e
000001e0: 3691 343e d871 b0be 285c b4be 524f 83bd
000001f0: 02a3 b5bd 1dcd 96be 9151 b13e 03ee 3f3e
00000200: 9183 ce3e 196d 5fbd ccd2 4f3e 61df c23d
00000210: 5c08 803c 6713 09bf 5b6f ab3e 53d0 1bbe
00000220: a885 343e cae3 cbbe 7869 88be f082 5ebe
00000230: c7da 59be 1415 85be 0385 a4be 5c45 54be
00000240: b253 023e 1caf 063f 5a63 a33e 5d7e cdbe
00000250: ac11 a7be 8fb5 503e 77b9 0d3f a770 b4be
00000260: 8ad9 333e 4b22 cabe d862 1abf 27a6 ac3e
00000270: bdae cd3d ed40 9b3e 123a 94be 6997 fabc
00000280: e329 97be 9771 7dbd fd94 1fbe b21c cb3e
00000290: 0055 08bd d431 24be 68c4 87be 3a09 953e
000002a0: 5712 aebe 983c b3be d0f2 8d3e ac4c b4be
000002b0: 8fe8 dc3d e8c3 f3bd e9f3 eabd a78a a23e
000002c0: 813f 933e de1c 3cbd cf38 7f3e d8a7 263e
000002d0: 1a04 233e c1f5 a2be 6840 1fbe e0a2 78be
000002e0: 3dde 703d 42ae 8ebe 07ef b43e dddc 6b3d
000002f0: 47c4 60be e126 aebd eb5f 883e 0fa0 9a3e
00000300: daff 5dbe 7f5e b93e 9501 b63e 4539 35be
00000310: 5cb8 37be 8286 ecbd d595 22be cd51 adbe
00000320: ae0a ac3d c167 6c3e 8893 bebe eaa8 37bd
00000330: a069 c73e 614a d5bd e1c3 573e 9bb5 c7bd
00000340: d772 9bbe afef 6ebe 1022 e3bc 3890 b2be
00000350: 7390 363e 41d3 c3be 1830 843e 3493 5a3e
00000360: 8ed5 013e 5f1e bf3d c7ee 9fbd e971 023e
00000370: 0abf 753e 2841 c93e f1e7 33be f61a 2f3e
00000380: 7bfd cc3e 2e43 b23d fb91 36be 2a32 0d3e
00000390: 3df2 d8bc fb55 013d 54b9 c33e 4c58 64bd
000003a0: ea2c df3e a33a cdbe 9656 a63e 987b bf3c
000003b0: 25e0 dbbd 791d 5ebe 8c46 06be b726 8c3e
000003c0: 9701 dfbd f2f9 4b3e c9fa 913d 6357 823e
000003d0: 50c3 67be 9fe9 a4be 5004 e0bd cf08 933d
000003e0: 6bd9 933c 583e 6fbe 13d8 6bbe e1a3 943e
000003f0: e9e0 1cbe 1f8c 68be 71cd 8fbe 34a1 92bd

cls.0.weight f4 [256, 64]
0.021453945 -0.10326956 0.068839744 -0.100289315 -0.30792126 -0.17265984 0.109474406 0.22137249
0.0070363437 -0.04297807 -0.0131069785 -0.011855735 0.1106356 0.066504255 0.28785282 -0.11044402
0.03493444 0.0019084085 0.07415223 0.11650433 0.04231952 0.17112558 -0.17849727 -0.17357443
-0.00828493 -0.22163007 0.035626322 -0.18335782 -0.0059365914 -0.028263437 -0.04328268 -0.15040307
0.35745504 0.21030526 0.055153098 -0.16206278 0.19552249 -0.07546441 0.11101784 -0.15615427
0.08202094 -0.039356682 -0.13473529 -0.07995456 0.085307166 0.19159524 -0.15090393 0.08281364
0.18308298 0.31185263 -0.27428412 0.015692128 0.013316273 0.23200577 0.08348631 -0.08568237
0.009202552 0.27176675 -0.17507388 -0.0316944 0.22140382 0.3152611 -0.19708812 0.025568482
1.7647701e-06 -0.18702663 -0.30103898 -0.004157325 -0.10437982 -0.085815705 -0.23011525 -0.15332903
-0.035868138 -3.066112e-05 -0.06307199 -0.025760042 -0.33046558 -0.049179286 -0.121260665 0.019406801
-0.20868775 -0.0040795226 -0.07055804 -0.0947832 0.03171894 -0.051127855 8.855024e-06 0.0192755
4.735011e-05 -0.17256822 -0.007385468 -0.097693644 -0.02883615 -0.13958032 -0.3407599 0.048172515
0.043376725 -0.15821128 0.025717014 -0.1033055 -0.09002766 -0.015207824 -0.1722956 -0.058803394
0.0050382568 0.05771544 -0.32957673 -0.33695185 0.10504932 0.16949132 -0.3146596 -0.02536514
-0.1437651 0.09735538 -0.1542775 -0.23542102 0.03126756 0.11849955 0.01424944 -0.06315518
-0.0581435 -0.0055635013 -1.23745485e-05 -0.09124714 -0.01957958 0.23075156 -0.066134915 0.07195673
0.013657053 0.006900134 0.026940767 0.01803327 0.017440813 -0.025330719 -0.008010577 -0.03822215
-0.0056553353 5.5507604e-05 -0.029470803 0.004208046 -0.011410624 0.028631499 -0.08219723 -0.0036802639
0.10012746 -0.0005798632 -0.046410795 0.08936281 -0.020615276 -0.04456358 7.177216e-05 0.030658118
6.728128e-07 0.089214064 0.033607844 0.13934162 0.05224446 -0.018591024 -0.10785642 0.09476806
0.17880765 0.14924486 -0.0049159196 0.09589869 0.12947819 0.07114918 0.15286991 0.030180272
0.09953808 0.033386186 0.038498934 0.024074284 -0.011719386 -0.1383952 0.02101668 -1.3946454e-05
0.06631869 0.1320053 -0.055824533 0.11161446 0.06570094 -0.004360127 0.036369316 0.05945233
0.30880153 0.05866028 0.112583674 0.018353522 -0.0023076863 0.21069768 0.081250265 0.04262805
-0.17615688 0.18948789 0.28844196 -0.15104227 0.08827668 0.20929642 0.059518106 -0.04744599
-0.008786423 -0.12567295 0.30488425 0.11133526 -0.08693787 -0.08629861 0.14069487 0.031372547
-0.13627629 0.010097056 0.19465333 -0.12624283 0.04948447 0.16676697 -0.05479899 0.2475289
-0.14594568 -0.023119247 0.043917604 -0.21847473 0.11123256 0.07186168 -0.1491786 0.117490724
0.19080976 0.11032452 -0.018210845 -0.007014942 -0.2077044 0.15246062 0.1788381 0.06309578
-0.27775615 -0.24385552 -0.011169412 0.2550771 -0.35401496 -0.16314231 0.31747434 -0.0016059723
-0.13908002 0.16061483 0.22271036 0.093894154 0.2519889 -0.18663296 -0.072940774 -0.33653575
0.16403665 -0.42159712 0.11206557 0.22353974 -0.050440945 0.15721062 0.1936744 -0.042569965
00000000: 2fc0 af3c fe7e d3bd dafb 8c3d 7c64 cdbd
00000010: dba7 9dbe becd 30be 1e34 e03d 78af 623e
00000020: 2191 e63b c609 30bd a7be 56bc 8f3e 42bc
00000030: eb94 e23d 6233 883d 7261 933e 7930 e2bd
00000040: 6a17 0f3d 9023 fa3a 20dd 973d d299 ee3d
00000050: 3c57 2d3d 8b3b 2f3e fdc7 36be 7fbd 31be
00000060: 84bd 07bc fef2 62be e8ec 113d 27c2 3bbe
00000070: bd87 c2bb b988 e7bc 2e49 31bd 4303 1abe
00000080: 5904 b73e 435a 573e 37e8 613d c9f3 25be
00000090: 0c37 483e 168d 9abd 525d e33d e8e6 1fbe
000000a0: 98fa a73d 7934 21bd 0cf8 09be 37bf a3bd
000000b0: 86b5 ae3d 8b31 443e 8f86 1abe 339a a93d
000000c0: 1b7a 3b3e 26ab 9f3e f86e 8cbe c78c 803c
000000d0: 7f2c 5a3c ec92 6d3e dffa aa3d 3d7a afbd
000000e0: 4dc6 163c 0325 8b3e 9146 33be fdd1 01bd
000000f0: afb7 623e e769 a13e 78d1 49be fe74 d13c
00000100: 0add ec35 e983 3fbe c821 9abe 2b3a 88bb
00000110: 16c5 d5bd 25c0 afbd 55a3 6bbe 4902 1dbe
00000120: 78ea 12bd 209a 00b8 e32b 81bd b906 d3bc
00000130: c932 a9be 3870 49bd 8357 f8bd 03fb 9e3c
00000140: 3eb2 55be 84ad 85bb bc80 90bd b21d c2bd
00000150: b8eb 013d 716b 51bd 0a90 1437 a7e7 9d3c
00000160: cb99 4638 b9b5 30be cc01 f2bb 9b13 c8bd
00000170: ca39 ecbc 25ee 0ebe 1578 aebe 8b50 453d
00000180: cbab 313d 2302 22be 7dac d23c d591 d3bd
00000190: 6c60 b8bd 3d2a 79bc 426e 30be d4db 70bd
000001a0: f617 a53b 0667 6c3d 48be a8be f484 acbe
000001b0: 1924 d73d 228f 2d3e 101b a1be 8eca cfbc
000001c0: 2937 13be 4262 c73d ecfa 1dbe 3512 71be
000001d0: 6a12 003d e4af f23d 7c76 693c 8157 81bd
000001e0: e127 6ebd 084e b6bb 489c 4fb7 c8df babd
000001f0: 5b65 a0bc 234a 6c3e be71 87bd 0d5e 933d
00000200: d5c1 5f3c 851a e23b e2b2 dc3c 82ba 933c
00000210: 09e0 8e3c 5e82 cfbc cc3e 03bc d48e 1cbd
00000220: 6450 b9bb d6d0 6838 c16c f1bc a6e3 893b
00000230: a0f3 3abc 9b8c ea3c 0557 a8bd 9530 71bb
00000240: a00f cd3d f601 18ba 3f19 3ebd d903 b73d
00000250: 5ee1 a8bc 4d88 36bd 6384 9638 bc26 fb3c
00000260: 589b 3435 ddb5 b63d 61a8 093d 92af 0e3e
00000270: 49fe 553d 344c 98bc d4e3 dcbd c215 c23d
00000280: 5a19 373e a5d3 183e b915 a1bb 8866 c43d
00000290: ee95 043e a9b6 913d ee89 1c3e 9e3c f73c
000002a0: 9fda cb3d f4bf 083d 0fb1 1d3d 6f37 c53c
000002b0: ab02 40bc 79b7 0dbe 2c2b ac3c 90fb 69b7
000002c0: 18d2 873d 662c 073e 44a8 64bd 1f96 e43d
000002d0: 378e 863d 65df 8ebb fef7 143d 4984 733d
000002e0: 3c1b 9e3e c345 703d 4592 e63d 205a 963c
000002f0: 8d3c 17bb 22c1 573e 8a66 a63d c09a 2e3d
00000300: 7862 34be 1d09 423e aaae 933e d3aa 1abe
00000310: 67ca b43d cd51 563e 42c9 733d ba56 42bd
00000320: eef4 0fbc 69b0 00be ca19 9c3e be03 e43d
00000330: 7b0c b2bd 53bd b0bd 5112 103e 8080 003d
00000340: 038c 0bbe 1f6e 253c 3453 473e cd45 01be
00000350: 3ab0 4a3d f6c4 2a3e e874 60bd 3778 7d3e
00000360: c972 15be 9364 bdbc f2e2 333d d7b7 5fbe
00000370: e5cd e33d 372c 933d 46c2 18be fa9e f03d
00000380: a263 433e d2f1 e13d e92e 95bc 99dd e5bb
00000390: 76b0 54be a31e 1c3e 5621 373e 5c38 813d
000003a0: 0e36 8ebe 43b5 79be e9ff 36bc 7799 823e
000003b0: 7341 b5be c70e 27be ff8b a23e 7d7f d2ba
000003c0: fe6a 0ebe 3778 243e 2f0e 643e 944b c03d
000003d0: b004 813e b61c 3fbe f961 95bd 6a4e acbe
000003e0: 39f9 273e 94db d7be a282 e53d 9ae7 643e
000003f0: 2a9b 4ebd d2fb 203e 9552 463e d85d 2ebd

cls.0.bias f4 [256]
-0.046287246 -0.06287714 -0.076744705 0.050936647 0.052614078 -0.00063839 -0.04428382 -0.06298131
-0.08443258 -0.059978444 0.06030582 -0.042777587 0.117632054 0.027042624 -0.06918606 0.055005755
-0.060932312 0.058311783 -0.06174838 -0.067187354 -0.056715284 0.0053438186 -0.056059435 0.058713533
-0.06147593 0.07269026 -0.05906146 -0.026750248 -0.060030892 0.056443725 0.051988762 -0.05686881
-0.06089861 -0.058079958 -0.06579999 -0.09144732 -0.060727667 -0.059209444 -0.057923127 -0.06554456
-0.064547755 0.05207731 0.058927234 -0.060253784 0.033821825 -0.055920426 -0.071527466 -0.06791673
-0.07584816 -0.059578877 -0.00545454 -0.01386475 -0.057700645 0.060218755 -0.061525878 -0.06073522
-0.016750159 -0.061065704 -0.038480185 0.05035479 0.055288583 -0.05951858 0.048455738 -0.06322332
-0.064546145 -0.068155006 -0.0600669 -0.084316306 0.046020456 -0.06486579 -0.061099865 -0.0778973
0.0058647967 -0.061554052 -0.059443463 -0.05833477 -0.0860617 -0.06110218 -0.061409492 -0.07320083
-0.06002164 0.057735257 0.0048998785 -0.051682822 -0.08108847 0.049811184 0.04857139 -0.057494465
-0.06499957 0.036864486 0.058976017 -0.05605125 0.013079781 -0.059519835 0.05399718 0.014447811
0.061106674 -0.061014462 -0.05794137 0.0495072 0.06527744 -0.05705634 0.059548907 0.057487886
0.07171127 -0.058690492 -0.06019284 0.054558832 0.035977736 -0.048690334 -0.055227082 0.0462326
-0.06266503 0.04839856 -0.0567052 0.05219191 0.059870083 -0.02933157 0.052614532 -0.059706338
-0.06887527 0.06669419 -0.05977175 -0.06777052 0.050229434 0.051972937 0.04774274 0.059933186
-0.06315916 0.05969985 0.060079847 0.05213254 -0.051841427 0.060080957 -0.05949849 -0.03896603
-0.058191225 -0.062590726 -0.058699794 -0.06037641 0.056818042 0.059738174 0.053695165 0.06369595
-0.055434808 0.072075196 -0.059823506 0.05905099 -0.053664014 0.058539115 -0.06421186 -0.059320226
-0.052172553 0.048317656 -0.09860215 -0.02847772 0.059151914 0.04323463 0.058747225 0.047514606
-0.05511628 -0.05855823 -0.062459424 -0.059309613 -0.05714419 0.041499063 0.021658728 0.027470442
-0.027937183 -0.056560416 -0.058058057 -0.074301615 0.0100789 -0.060329378 -0.06662523 -0.060595274
0.056610126 -0.058387395 -0.057595752 -0.054636765 -0.077245995 -0.059855316 0.060030278 -0.04928629
-0.06354913 0.059602235 0.04760867 0.045681566 -0.043600775 0.06026658 0.024148252 -0.041146163
0.062036283 0.058333255 -0.04716784 -0.058787964 0.059483588 0.060802963 -0.059797145 -0.05972707
-0.06131519 -0.061099548 0.060882393 0.053608473 -0.07661596 0.057161514 0.058946274 -0.057134353
-0.05595268 -0.056761295 0.06646446 0.058537833 -0.05662871 0.01748528 0.061336454 -0.059874248
-0.05954561 -0.027197098 -0.059984114 0.060628146 -0.053761706 -0.05966992 0.059398796 0.051120263
-0.086264014 0.057506002 -0.059376504 -0.060848888 -0.06761831 -0.059091885 0.05941505 -0.06799265
-0.057459686 -0.060490347 -0.06024271 0.058455735 -0.062415257 0.05382959 -0.04060424 0.06203956
0.02091544 -0.068096206 0.013538653 0.047664527 -0.05375091 0.037327133 -0.032487538 -0.057068884
0.060098633 -0.05395299 0.023473259 -0.058932226 0.056871288 0.05754439 -0.060472045 0.023668975
00000000: b297 3dbd bbc5 80bd 542c 9dbd f2a2 503d
00000010: dc81 573d a159 27ba f362 35bd 58fc 80bd
00000020: fdea acbd f5ab 75bd 3c03 773d 8d37 2fbd
00000030: 13e9 f03d 7e88 dd3c 6cb1 8dbd b74d 613d
00000040: 2994 79bd 56d8 6e3d dfeb 7cbd 8699 89bd
00000050: 494e 68bd 331b af3b 949e 65bd 9a7d 703d
00000060: 2fce 7bbd a2de 943d 6eea 71bd 5623 dbbc
00000070: f4e2 75bd 8931 673d 2bf2 543d 45ef 68bd
00000080: d270 79bd 40e5 6dbd 25c2 86bd bc48 bbbd
00000090: 93bd 78bd 9a85 72bd cd40 6dbd 3a3c 86bd
000000a0: 9d31 84bd 044f 553d af5d 713d accc 76bd
000000b0: c188 0a3d d10c 65bd fe7c 92bd ed17 8bbd
000000c0: 4856 9bbd fb08 74bd ffbb b2bb fa28 63bc
000000d0: 8357 6cbd f1a7 763d 8f02 7cbd 7ec5 78bd
000000e0: a137 89bc 0820 7abd 669d 1dbd d340 4e3d
000000f0: 4876 623d c1c9 73bd 8679 463d 3a7b 81bd
00000100: c530 84bd da94 8bbd b608 76bd 07ae acbd
00000110: f27f 3c3d 5bd8 84bd da43 7abd 9f88 9fbd
00000120: 7b2d c03b 1a20 7cbd fd7a 73bd 71f0 6ebd
00000130: 1e41 b0bd 4846 7abd 8588 7bbd 51ea 95bd
00000140: 40d9 75bd ce7b 6c3d 298f a03b 5eb1 53bd
00000150: b611 a6bd d006 4c3d cbf2 463d 517f 6bbd
00000160: 7f1e 85bd 37ff 163d d690 713d ff95 65bd
00000170: 944c 563c 12cb 73bd 262c 5d3d 83b6 6c3c
00000180: fe4a 7a3d 4dea 79bd ee53 6dbd 10c8 4a3d
00000190: 2eb0 853d e9b3 69bd 8ee9 733d 6b78 6b3d
000001a0: 5cdd 923d 7165 70bd c48c 76bd 1579 5f3d
000001b0: 645d 133d 846f 47bd cb35 62bd 655e 3d3d
000001c0: 8656 80bd 923d 463d b643 68bd 2fc7 553d
000001d0: 553a 753d c348 f0bc 5682 573d a28e 74bd
000001e0: 7a0e 8dbd f796 883d 39d3 74bd 45cb 8abd
000001f0: 61bd 4d3d 93e1 543d e48d 433d 807c 753d
00000200: 9759 81bd d487 743d 4916 763d ee88 553d
00000210: ad57 54bd 7317 763d b0b4 73bd d89a 1fbd
00000220: ec59 6ebd 912f 80bd 326f 70bd 414d 77bd
00000230: 09ba 683d 04b0 743d 76ef 5b3d 0673 823d
00000240: 9c0f 63bd 299c 933d 7e09 75bd 73df 713d
00000250: ccce 5bbd b6c6 6f3d 8281 83bd c4f9 72bd
00000260: e3b2 55bd bce8 453d edef c9bd 1c4a e9bc
00000270: 4749 723d cc16 313d eea0 703d ad9e 423d
00000280: 9cc1 61bd c1da 6fbd 74d5 7fbd a3ee 72bd
00000290: 0710 6abd ecfa 293d a56d b13c b109 e13c
000002a0: 85dc e4bc e5ab 67bd 49ce 6dbd 722b 98bd
000002b0: f821 253c f01b 77bd cf72 88bd c032 78bd
000002c0: 05e0 673d 9f27 6fbd 86e9 6bbd cdca 5fbd
000002d0: 2633 9ebd d92a 75bd 4fe2 753d 6ce0 49bd
000002e0: 0c26 82bd 7921 743d 4f01 433d 981c 3b3d
000002f0: ba96 32bd 17da 763d 8ed2 c53c e188 28bd
00000300: c219 7e3d daee 6e3d 1133 41bd a6cb 70bd
00000310: 10a5 733d 870c 793d daed 74bd 5fa4 74bd
00000320: a325 7bbd 8543 7abd d15f 793d 8f94 5b3d
00000330: d4e8 9cbd 3122 6a3d a671 713d b605 6abd
00000340: a32e 65bd 887e 68bd 851e 883d 5ec5 6f3d
00000350: 82f3 67bd 4a3d 8f3c ef3b 7b3d b33e 75bd
00000360: 19e6 73bd 73cc debc e7b1 75bd 3855 783d
00000370: 3c35 5cbd 7268 74bd 274c 733d 7b63 513d
00000380: 30ab b0bd 6a8b 6b3d c734 73bd af3c 79bd
00000390: 787b 8abd 550a 72bd 325d 733d bb3f 8bbd
000003a0: d95a 6bbd bac4 77bd 0fc1 76bd 486f 6f3d
000003b0: 24a7 7fbd 6b7c 5c3d a250 26bd 321d 7e3d
000003c0: db56 ab3c 0676 8bbd 3ad1 5d3c e13b 433d
000003d0: ea29 5cbd 56e4 183d a711 05bd 10c1 69bd
000003e0: fc29 763d cffd 5cbd fe4a c03c eb62 71bd
000003f0: def1 683d abb3 6b3d 89b1 77bd 70e5 c13c

cls.2.weight f4 [256]
0.9001065 0.80301595 0.83856076 1.0232958 0.9134755 1.3104376 0.6813971 0.08878876
0.5715981 0.30240992 0.7141002 0.58306336 0.5858899 1.1509945 0.7064646 0.8952449
0.7758035 0.8937477 0.84255725 0.7073745 0.21645044 1.3902014 0.003433403 0.90558875
0.9053836 0.8391656 0.80173314 0.8236488 0.15052532 0.9088747 1.8479695 0.91996443
0.45713183 0.53068537 0.7132579 0.7443236 0.88908607 0.5119226 0.2799699 0.83716136
0.31141216 0.9031436 0.88451725 0.7930165 0.7525742 0.33339158 0.58934814 0.70726836
0.8276364 0.9186769 0.6090659 0.53086936 0.9327958 0.8808192 0.8457586 0.9308722
0.7810187 0.7028972 0.92244506 0.85583633 0.8349725 0.84849983 0.90293556 0.75729513
0.8719184 0.8330439 0.84758854 0.7889322 0.7830054 0.92565006 0.8937759 0.6642325
1.0758141 0.81482995 0.82778513 0.50555754 0.5305441 0.55316514 0.76471645 0.8043553
0.6593519 0.6395911 0.8262307 0.87342936 0.4843409 0.9132431 0.73911154 0.88699186
0.84057945 0.85617113 0.5594827 0.8169451 0.74697834 0.89713705 0.81823766 1.2720728
0.78928393 0.7275299 0.85111046 0.9612197 0.8583592 0.9320982 0.5271143 0.9394415
0.79497206 0.64127105 0.66367203 0.8697982 0.8286473 0.79226655 0.647502 1.2710229
0.6948731 0.77929765 0.7544076 0.84672624 0.8833811 0.76574516 0.8055817 0.74667305
0.8700664 0.8270425 0.64716935 0.80375105 0.91349477 0.37107044 0.98983485 0.9309023
0.7184699 0.89710003 0.32454553 0.77951133 0.7436635 0.9039827 0.8571407 0.84777147
0.8304476 0.8228284 0.6293415 0.86616844 0.9134929 0.9713134 0.85691184 0.8437144
0.7024195 0.87693816 0.7859027 0.7375284 0.7716234 0.9447762 0.9145923 0.70841515
0.91149837 0.8894404 0.83874774 0.9248009 0.8994694 0.94783825 0.8543332 0.85175794
0.9654788 0.5151877 0.76343304 0.8569421 0.6504262 0.85384583 1.5071069 0.9128684
0.6257267 0.855759 0.6864324 0.67136544 0.79661345 0.6543087 0.8184696 0.89036286
0.8629016 0.84012103 0.8381307 0.9133394 0.86415917 0.86204886 0.86295205 0.8534486
0.81142676 0.93749535 1.0334678 0.8499602 0.5468611 0.8942415 0.91028744 0.8801895
0.7741811 0.8726584 0.41886503 0.61641246 0.94922704 0.92888814 0.37559065 0.7655338
0.80887526 0.7647873 0.87215716 0.7251828 0.92395043 0.777525 0.8839908 0.8908425
0.8926168 0.78430784 0.8009171 0.8330822 0.5301663 1.5488713 0.7773434 0.90325826
0.8845906 0.8213692 0.7177271 0.9249267 0.9441052 0.6079031 0.93653476 0.82565355
0.8529741 0.91868764 0.81278867 0.49757895 0.28744987 0.86365014 0.95282406 0.5044888
0.41320404 0.7272092 0.7668176 0.87993515 0.88996524 0.57190096 0.6522176 0.74983174
0.79079723 0.6988439 1.4458096 0.80101883 0.7613405 0.7557713 0.6519253 0.64847594
0.93501353 0.60994816 1.5894932 0.68803096 0.86300665 0.92567974 0.6269374 1.4037793
00000000: 616d 663f 7492 4d3f ebab 563f 5bfb 823f
00000010: 88d9 693f 6bbc a73f 0a70 2e3f e2d6 b53d
00000020: 4154 123f 79d5 9a3e 45cf 363f a443 153f
00000030: e1fc 153f ca53 933f ddda 343f c52e 653f
00000040: 0f9b 463f a6cc 643f d5b1 573f 7f16 353f
00000050: 2fa5 5d3e 1ff2 b13f f202 613b aad4 673f
00000060: 38c7 673f 8fd3 563f 623e 4d3f a6da 523f
00000070: 4f23 1a3e 03ac 683f 448a ec3f ca82 6b3f
00000080: 2f0d ea3e ffda 073f 1298 363f fe8b 3e3f
00000090: 259b 633f 5c0d 033f 3758 8f3e 3550 563f
000000a0: 6a71 9f3e 6b34 673f b96f 623f 2103 4b3f
000000b0: b4a8 403f 4db2 aa3e 85df 163f 8a0f 353f
000000c0: fbdf 533f 692e 6b3f beeb 1b3f 0ee7 073f
000000d0: b5cb 6e3f 5e7d 613f a383 583f a44d 6e3f
000000e0: d7f0 473f 12f1 333f 5c25 6c3f 1718 5b3f
000000f0: c2c0 553f 4937 593f c926 673f 18de 413f
00000100: 0b36 5f3f 5d42 553f 90fb 583f 76f7 493f
00000110: 0b73 483f 67f7 6c3f 7fce 643f 240b 2a3f
00000120: 47b4 893f b298 503f bae9 533f 386c 013f
00000130: bdd1 073f 3b9c 0d3f 75c4 433f 3bea 4d3f
00000140: 49cb 283f 3ebc 233f db83 533f 1199 5f3f
00000150: 88fb f73e 4dca 693f 6a36 3d3f e611 633f
00000160: 3730 573f 082e 5b3f 423a 0f3f 5023 513f
00000170: f939 3f3f c6aa 653f 0678 513f 48d3 a23f
00000180: 830e 4a3f 663f 3a3f 60e2 593f 7f12 763f
00000190: 6ebd 5b3f fd9d 6e3f f6f0 063f 3d7f 703f
000001a0: 4a83 4b3f 572a 243f 69e6 293f 18ab 5e3f
000001b0: 3b22 543f fbd1 4a3f b1c2 253f e1b0 a23f
000001c0: 34e3 313f 0d80 473f db20 413f 0dc3 583f
000001d0: 4425 623f e007 443f 9a3a 4e3f f725 3f3f
000001e0: acbc 5e3f 0fb9 533f e4ac 253f a1c2 4d3f
000001f0: cbda 693f f2fc bd3e d165 7d3f 9d4f 6e3f
00000200: a5ed 373f 59a8 653f d52a a63e 0e8e 473f
00000210: bb60 3e3f 696b 673f 936d 5b3f 8d07 593f
00000220: 3798 543f e2a4 523f 861c 213f 37bd 5d3f
00000230: acda 693f ffa7 783f 935e 5b3f abfd 573f
00000240: c4d1 333f 057f 603f eb30 493f a9ce 3c3f
00000250: 1c89 453f dadc 713f b922 6a3f b25a 353f
00000260: f557 693f 5eb2 633f 2cb8 563f c0bf 6c3f
00000270: a043 663f 87a5 723f 95b5 5a3f cf0c 5a3f
00000280: 9e29 773f 57e3 033f 5970 433f 8f60 5b3f
00000290: 5582 263f a495 5a3f e1e8 c03f beb1 693f
000002a0: a02f 203f 0613 5b3f 09ba 2f3f 9bde 2b3f
000002b0: dcee 4b3f c680 273f 3987 513f d2ee 633f
000002c0: 1fe7 5c3f 2c12 573f bc8f 563f 9cd0 693f
000002d0: 8939 5d3f 3caf 5c3f 6dea 5c3f 9c7b 5a3f
000002e0: aab9 4f3f b2ff 6f3f ac48 843f fe96 593f
000002f0: 17ff 0b3f 03ed 643f 9908 693f 1954 613f
00000300: bc30 463f 8a66 5f3f 7a75 d63e 35cd 1d3f
00000310: 8b00 733f 9dcb 6d3f 6b4d c03e 06fa 433f
00000320: 7312 4f3f 1ac9 433f b145 5f3f 94a5 393f
00000330: 0488 6c3f e10b 473f 394d 623f 410e 643f
00000340: 8982 643f 66c8 483f e708 4d3f e044 553f
00000350: fbb8 073f 6a41 c63f faff 463f ef3b 673f
00000360: 8874 623f 4045 523f f7bc 373f ffc7 6c3f
00000370: e1b0 713f 8a9f 1b3f bec0 6f3f 085e 533f
00000380: 835c 5a3f 1d2f 6b3f eb12 503f abc2 fe3e
00000390: a12c 933e 2d18 5d3f 47ec 733f 2e26 013f
000003a0: 7b8f d33e 622a 3a3f 294e 443f 6e43 613f
000003b0: c3d4 633f 1a68 123f bcf7 263f f9f4 3f3f
000003c0: b071 4a3f 6fe7 323f 4a10 b93f 920f 4d3f
000003d0: 36e7 423f 3a7a 413f 94e4 263f 8502 263f
000003e0: 0c5d 6f3f 9025 1c3f 8374 cb3f cc22 303f
000003f0: 01ee 5c3f 59f9 6c3f f87e 203f 0aaf b33f

cls.2.bias f4 [256]
0.020021657 -0.027046306 -0.01662538 0.016140528 -0.01819887 -0.028194062 0.037314657 0.009225648
0.02042271 0.012780463 -0.07365939 0.010498849 -0.017355692 -0.024741115 -0.035241254 0.02357163
0.014295167 0.022503894 0.026457222 -0.013223217 0.014368916 0.022313377 0.005151954 -0.018950498
0.024156822 0.0027468628 0.0175484 0.03380484 0.020267041 0.023779502 0.03617562 0.027807213
-0.055851743 0.021730632 0.038288895 -0.021093609 0.02264754 0.05203724 -0.060824756 0.02444937
0.047302358 0.017787317 -0.018561078 -0.023114305 0.03008755 -0.029426383 -0.013070384 0.04782164
-0.01771247 0.023245309 -0.022707114 0.065448746 0.024423946 0.0161762 0.023819115 0.022339802
0.022804936 -0.01483076 -0.018693736 -0.0021818841 0.030879406 -0.01595782 0.025436627 -0.008677299
0.019195113 -0.014864495 0.0058776997 -0.034727022 0.026057467 -0.019778017 -0.016013177 -0.024460718
0.029789835 0.022936683 0.028996265 -0.040942345 -0.0051082447 0.017070914 0.024799388 -0.015430783
0.08205625 0.0023372232 -0.033842016 0.02116733 -0.018088356 -0.012942303 0.0038748565 0.021636603
-0.01919147 0.017937522 0.010235174 0.04503795 0.0060964767 0.029309973 0.022740586 0.022814104
0.035301134 0.06756489 0.018558105 0.0057825516 -0.015557927 0.025861787 0.026659252 0.021654602
-0.037556678 0.04193343 0.09308974 -0.016942436 -0.039457325 0.027665142 0.0059046554 -0.045961544
-0.058378477 0.015326583 0.016440112 0.018660137 0.018999724 -0.02666803 -0.018430008 -0.05052398
-0.016122406 0.010275071 0.023780605 0.023796244 -0.01548355 0.023815399 0.012983844 -0.002494573
-0.036996573 -0.010727023 0.0036170245 0.00043998906 -0.03661562 0.017990265 -0.020608759 -0.017947065
-0.017348906 0.023267463 -0.024928674 -0.03489966 0.024386311 -0.010683925 0.023531493 0.010330931
-0.026766991 -0.014836727 -0.054773808 0.0077395607 -0.0010627337 -0.014521857 -0.022395382 -0.040175952
0.030096158 -0.019410657 -0.021531172 0.024948835 0.02940994 0.016902436 0.017990876 -0.025711888
0.010975161 -0.015932258 0.0330943 -0.023072818 -0.0790335 0.01730604 -0.0016642106 -0.0045737787
-0.024266135 -0.023108425 0.018678755 0.03884929 0.02897262 0.012493028 0.0223173 0.028321397
0.024001924 -0.021116817 0.015275392 0.02488191 0.04554301 -0.02727745 0.021587301 0.024173116
-0.00962039 -0.008743664 -0.01603984 -0.01981403 -0.0077756764 0.015888864 0.02177817 0.01564755
-0.011294998 0.016311606 0.01482061 0.029059026 -0.059828486 -0.0014251192 -0.028866775 0.03812191
-0.009454947 -0.026264744 0.02700514 0.033252228 -0.01677021 0.017422792 -0.013845768 0.033111867
0.02958548 -0.028252812 0.032665886 0.019991467 -0.0192752 -0.028357334 -0.012680507 -0.019335331
0.026249545 -0.059094757 0.022130528 0.019142248 0.023153687 0.037251573 -0.014151515 -0.007950748
-0.018720802 -0.006498183 -0.0134954015 -0.031071907 0.03299287 -0.015557724 -0.0026816716 0.017733814
-0.007908798 -0.025510602 -0.03004314 -0.017359382 -0.023247661 -0.018429874 -0.0030121875 0.016129129
-0.05177341 0.00043137165 -0.027253496 -0.014181807 0.037042923 -0.059403174 0.003322372 2.1216574e-05
0.020919401 0.035341848 -0.06142424 -0.0120342905 0.01639495 -0.014291766 0.069232516 -0.01032408
00000000: 7504 a43c 3790 ddbc f331 88bc 2439 843c
00000010: cc15 95bc 3cf7 e6bc 41d7 183d 2c27 173c
00000020: 874d a73c 2665 513c bcda 96bd 5d03 2c3c
00000030: 862d 8ebc e1ad cabc 2259 10bd 4a19 c13c
00000040: 4736 6a3c 165a b83c d1bc d83c 31a6 58bc
00000050: 9a6b 6b3c 8bca b63c b9d1 a83b 133e 9bbc
00000060: 87e4 c53c b604 343b aac1 8f3c f276 0a3d
00000070: 1107 a63c 3bcd c23c e32c 143d f4cb e33c
00000080: ccc4 64bd 7004 b23c d1d4 1c3d 81cc acbc
00000090: 5587 b93c 0025 553d 6123 79bd 0c4a c83c
000000a0: 1ec0 413d b5b6 913c 670d 98bc 365a bdbc
000000b0: 2a7a f63c 990f f1bc 2a25 56bc a0e0 433d
000000c0: be19 91bc f26c be3c 4504 babc fe09 863d
000000d0: ba14 c83c f383 843c 4e20 c33c f601 b73c
000000e0: 6bd1 ba3c b7fc 72bc 9b23 99bc f1fd 0ebb
000000f0: cff6 fc3c f9b9 82bc 7960 d03c 3b2b 0ebc
00000100: 123f 9d3c 368a 73bc b899 c03b ec3d 0ebd
00000110: 7876 d53c 8205 a2bc 112e 83bc d861 c8bc
00000120: d009 f43c b6e5 bb3c 9389 ed3c 29b3 27bd
00000130: 1063 a7bb 4dd8 8b3c 1628 cb3c 65d1 7cbc
00000140: 1b0d a83d 192c 193b ed9d 0abd 1c67 ad3c
00000150: 082e 94bc f40b 54bc 4ef1 7d3b 3f3f b13c
00000160: 6e37 9dbc b6f1 923c 6eb1 273c b779 383d
00000170: f4c4 c73b 781b f03c 774a ba3c a5e4 ba3c
00000180: ec97 103d 765f 8a3d 2b07 983c 8f7b bd3b
00000190: ade6 7ebc 19dc d33c 8164 da3c fe64 b13c
000001a0: 08d5 19bd 63c2 2b3d d5a5 be3d ddca 8abc
000001b0: 019e 21bd 02a2 e23c d77b c13b 2c42 3cbd
000001c0: 451e 6fbd 591c 7b3c 6aad 863c 25dd 983c
000001d0: 4fa5 9b3c ea76 dabc 87fa 96bc 3cf2 4ebd
000001e0: 2313 84bc c558 283c 8bcf c23c 57f0 c23c
000001f0: b7ae 7dbc 8318 c33c 30ba 543c fd7b 23bb
00000200: b889 17bd 65c0 2fbc 9a0b 6d3b 55ae e639
00000210: 43fa 15bd 5260 933c b3d3 a8bc b905 93bc
00000220: 4b1f 8ebc 689b be3c 3837 ccbc f2f2 0ebd
00000230: cdc5 c73c a10b 2fbc 1ec5 c03c 1143 293c
00000240: 7346 dbbc be15 73bc 805a 60bd 249c fd3b
00000250: 6d4b 8bba 15ed 6dbc 8576 b7bc 8a8f 24bd
00000260: 388c f63c 1903 9fbc 2462 b0bc 8061 cc3c
00000270: 1ded f03c fa76 8a3c 9a61 933c bda1 d2bc
00000280: 29d1 333c 5e84 82bc e48d 073d 3503 bdbc
00000290: 51dc a1bd 65c5 8d3c a421 daba a3df 95bb
000002a0: c6c9 c6bc e14d bdbc 3004 993c 6f20 1f3d
000002b0: fd57 ed3c 8faf 4c3c c5d2 b63c 4602 e83c
000002c0: af9f c43c 2dfd acbc a345 7a3c 26d5 cb3c
000002d0: 4f8b 3a3d f574 dfbc dad7 b03c b306 c63c
000002e0: d79e 1dbc 9641 0fbc fc65 83bc 0851 a2bc
000002f0: 1acb febb 5d29 823c 2268 b23c 4a2f 803c
00000300: a80e 39bc eb9f 853c 25d2 723c 320d ee3c
00000310: b70e 75bd 11cb baba 047a ecbc b825 1c3d
00000320: ece8 1abc 2929 d7bc e239 dd3c 7d33 083d
00000330: ae61 89bc 3eba 8e3c 5cd9 62bc 4fa0 073d
00000340: 405d f23c 7172 e7bc aacc 053d 25c5 a33c
00000350: 06e7 9dbc a44d e8bc e7c1 4fbc 2165 9ebc
00000360: 4909 d73c 580d 72bd 154b b53c 34d0 9c3c
00000370: cdac bd3c 1b95 183d c2db 67bc db43 02bc
00000380: 5e5c 99bc b6ee d4bb d11b 5dbc 838a febc
00000390: 8823 073d d3e5 7ebc fcbe 2fbb 8146 913c
000003a0: e793 01bc 9cfb d0bc 081d f6bc 4335 8ebc
000003b0: e171 bebc 3ffa 96bc 1f68 45bb 3c21 843c
000003c0: 5b10 54bd b929 e239 b942 dfbc cf5a 68bc
000003d0: 52ba 173d be50 73bd 27bc 593b 3ffa b137
000003e0: 2a5f ab3c 9dc2 103d fc97 7bbd 792b 45bc
000003f0: b44e 863c 0328 6abc c7c9 8d3d 5426 29bc
