医学影像/EV_GCN/save_models/ev_gcn/fold3.pth (torch, 543861 bytes, 20 tensors)

gconv.0.weight f4 [3, 2000, 16]
0	0xbe27916d	-0.1636407
1	0x38a98884	8.083976e-05
2	0xbcd0e432	-0.025499437
3	0xba975ee2	-0.0011548663
4	0x3e083fa4	0.13305527
5	0x3dd30310	0.103033185
6	0x3da57f8e	0.0808097
7	0x3d8f10f4	0.069856554
8	0x3da14364	0.07874182
9	0xbcce413b	-0.025177589
10	0xbdd644b0	-0.1046232
11	0xbd60cc1f	-0.054882165
12	0xbd23d94b	-0.04000215
13	0xbde0177d	-0.1094198
14	0xbd7b2216	-0.061311804
15	0x3c3d86bd	0.011567769
16	0x3b923c9e	0.0044627925
17	0xbdf12de2	-0.117763296
18	0xbd975f0f	-0.07391178
19	0x3ca4ba86	0.020108473
20	0xbd52128e	-0.051287226
21	0x3cc786dd	0.0243563
22	0x3cf86167	0.030319883
23	0x3d85a15d	0.06524918
24	0x3d9f2f4f	0.07772695
25	0xbdd6fad0	-0.104970574
26	0xbd9de1a2	-0.07709052
27	0x3b5d3b36	0.0033757216
28	0x3cf01b79	0.029309975
29	0xbd497d13	-0.049191546
30	0xbdaf5880	-0.08561802
31	0xbc86cb71	-0.01645443
32	0x3c9db206	0.019249927
33	0x3ceea58b	0.029131671
34	0xbda8453e	-0.08216332
35	0x3c6707de	0.014100997
36	0x3c3aa3aa	0.01139156
37	0x3dd617a5	0.104537286
38	0xbc4e151d	-0.012578276
39	0x3d3e3582	0.046437748
40	0x3d6e7898	0.058220476
41	0xbc55ee3c	-0.013057288
42	0xbd97d967	-0.07414513
43	0xbdf90df1	-0.12160862
44	0xbc132b7d	-0.008982536
45	0xbe1dc7fe	-0.15408322
46	0xbdaedf92	-0.085387364
47	0xbccb372f	-0.024806587
48	0x3e8401c8	0.2578261
49	0x3e086da6	0.13323078
50	0xbcdcf7b6	-0.026973587
51	0xbe6e37d6	-0.23263487
52	0xbe00610f	-0.12537025
53	0xbcf7ff2a	-0.030273039
54	0x3da7e90a	0.081987455
55	0x3d11b6a8	0.035574585
56	0x3ce2b2f6	0.027673226
57	0xbd33f85b	-0.043938022
58	0xbd07462c	-0.033025905
59	0x3eae897c	0.34089267
60	0x3da46e97	0.08028906
61	0x3c132e0c	0.008983146
62	0xbd6ba72a	-0.057532467
63	0xbd86dc60	-0.06585002
64	0xbd87e6b7	-0.06635802
65	0x3c1ccc7b	0.009570236
66	0xbdceea37	-0.10103267
67	0x3dd7b4fb	0.10532566
68	0x3cdc8f37	0.026923759
69	0x3d9d7e1d	0.0769007
70	0x3c7123af	0.01471798
71	0x3d765235	0.060136992
72	0x3cc0f577	0.023554547
73	0xbd83862c	-0.06422076
74	0xbd6cacc0	-0.057781935
75	0xbd30cc60	-0.043163657
76	0xbc79661a	-0.015222097
77	0xbdcfbb74	-0.10143176
78	0xbdc6812f	-0.096926086
79	0xbdaed5e9	-0.08536894
80	0xbd8bf8e0	-0.068345785
81	0x3d08925a	0.033342697
82	0xbcf6ee9e	-0.030143078
83	0xbcc3fbbf	-0.023923753
84	0x3d3c7276	0.046007596
85	0x3ce239fc	0.02761554
86	0x3d59fe18	0.05322084
87	0x3cf82a58	0.030293629
88	0x3d16234c	0.036654755
89	0xbd1d477c	-0.03839825
90	0xbdda9848	-0.106735766
91	0x3cb8dbfb	0.022565832
92	0x3d1e9ac2	0.038721807
93	0xbd92edad	-0.07174239
94	0xbd1bf4e0	-0.038075328
95	0x3b9b7a15	0.004744778
96	0xbd7d91b3	-0.061906528
97	0xbbcf20ad	-0.006321034
98	0xbcab9243	-0.020943766
99	0x3da15054	0.078766495
100	0x3e0602c2	0.1308699
101	0x3c88bbb4	0.016691066
102	0x3d9a5fff	0.07537841
103	0xb8607496	-5.351434e-05
104	0x3d071ea7	0.032988217
105	0xbd1d323f	-0.038377997
106	0xbd870d25	-0.06594304
107	0xbe2d91c2	-0.16950133
108	0xbd47d492	-0.048786707
109	0xbd5610c7	-0.052262094
110	0xbd50c64f	-0.05097037
111	0x3c8275af	0.015925257
112	0x3da6ee8a	0.081509665
113	0x3de4e385	0.111762084
114	0xbdabec09	-0.083946295
115	0xbe4cbe44	-0.19994456
116	0xbbed62f1	-0.0072444608
117	0x3d254813	0.04035194
118	0x3cafb5a4	0.021448918
119	0x3da03d5a	0.07824202
120	0x397a041b	0.00023843387
121	0xbd4c9667	-0.049948122
122	0xbd81c097	-0.06335562
123	0x3d407fe5	0.04699697
124	0x3d3c789f	0.04601347
125	0xbd54d612	-0.051961966
126	0xbcf37495	-0.029718677
127	0xbdb67ce4	-0.0891054
128	0x3e1bacc8	0.1520263
129	0x3e051690	0.12996888
130	0xbcd6950c	-0.026194118
131	0x3dad8730	0.084730506
132	0xbd68fe0e	-0.05688291
133	0xbde523c4	-0.111884624
134	0x3dc8876a	0.09791453
135	0xbe0b91e9	-0.13629879
136	0x3c0ddc4f	0.008658483
137	0xbd3b6f91	-0.045760695
138	0xbc9d9310	-0.019235164
139	0x3be90f28	0.0071124025
140	0x3d7fe003	0.062469494
141	0xbd74605d	-0.05966221
142	0xbcc11ed9	-0.02357428
143	0xbc247886	-0.010038501
144	0x3eba8576	0.36429948
145	0x3d50a38c	0.05093722
146	0xbda1b581	-0.07895947
147	0xbe8bb53f	-0.27286717
148	0xbe167ac6	-0.14695272
149	0x3c66e8f6	0.014093628
150	0x3da922d6	0.082585976
151	0xbca831be	-0.020531531
152	0x3cf9e1f1	0.030503245
153	0xbd779f78	-0.060454816
154	0xbd3b7ea3	-0.045775067
155	0x3e3c14d9	0.18367328
156	0x3e0ddcbe	0.13853738
157	0xbc06d58a	-0.008229623
158	0xbd9f7f37	-0.07787936
159	0xbd66a260	-0.056307197
160	0x3c4b8189	0.01242102
161	0xbd70b5ee	-0.05876725
162	0xbd14064b	-0.036138814
163	0x3d56de6e	0.05245822
164	0x3d1a647a	0.03769348
165	0xba176218	-0.000577481
166	0x3da318f4	0.07963744
167	0xbd004e49	-0.03132466
168	0x3dcb2f9e	0.09921192
169	0xbd6669da	-0.05625329
170	0xbd08c7c8	-0.03339365
171	0xbd1f5846	-0.038902543
172	0x3cbd6fff	0.023124693
173	0xbd75ab09	-0.059977565
174	0xbdc8b4f5	-0.0980014
175	0xbdd1604e	-0.10223447
176	0x3dc8ca48	0.09804207
177	0x3e011b20	0.12608004
178	0xbd70dbe5	-0.058803458
179	0xbe6eabb7	-0.23307692
180	0x3d28342b	0.041065376
181	0x3d785d5e	0.060635917
182	0x3dbc2e60	0.09188533
183	0x3d1e8883	0.038704406
184	0x3bb3d707	0.0054882797
185	0xbd8a18c6	-0.067430064
186	0xbdb15cf7	-0.0866031
187	0x3cbed795	0.023296157
188	0xbc60a44e	-0.013711048
189	0xbc9d005a	-0.019165207
190	0xbc9d97c7	-0.019237412
191	0xbd9e9846	-0.077438876
192	0x3df620fc	0.1201801
193	0x3e5c6339	0.21522225
194	0xbcc45885	-0.02396799
195	0xbd758f00	-0.05995083
196	0xbceb916c	-0.028755866
197	0xbd1fc9aa	-0.03901068
198	0x3d894c07	0.06703954
199	0xbe2cd466	-0.16877899
200	0x3d301b62	0.042994864
201	0xbd635acb	-0.05550651
202	0xbdd5bba9	-0.10436184
203	0x3bcff293	0.006346056
204	0x3dd43507	0.10361677
205	0xbca52ce5	-0.020163009
206	0xbce34571	-0.027743073
207	0xbd7f2708	-0.062293082
208	0x3ea841bb	0.32862648
209	0x3e1c825c	0.15284103
210	0xbcf64458	-0.030061886
211	0xbe91e25c	-0.2849301
212	0xbe38bf4d	-0.18041725
213	0xbd3de1cc	-0.046357915
214	0x3cce70d1	0.02520028
215	0xbdc13529	-0.094339676
216	0x3b3784fa	0.0028002844
217	0xbd02329f	-0.031786557
218	0xbcb09bd7	-0.021558685
219	0x3e37fe03	0.17967992
220	0x3da2a437	0.07941478
221	0xbc27d31a	-0.010243202
222	0xbdb04af7	-0.086080484
223	0xbd9e55a1	-0.07731176
224	0x3ebb65c3	0.36601076
225	0x3e2584db	0.16163962
226	0xbd42ef4b	-0.04759149
227	0xbe8f3cf4	-0.2797619
228	0xbc49a1a3	-0.012306604
229	0xbd7f46f0	-0.06232351
230	0x3d3ea4bc	0.04654382
231	0xbdd5939a	-0.104285434
232	0x3dc4ece3	0.09615495
233	0xbccdb229	-0.025109367
234	0xbd0f7140	-0.035020113
235	0x3de0e93f	0.10981988
236	0x3d8500f0	0.064943194
237	0x3bf57d15	0.0074917176
238	0xbd51c0c8	-0.05120924
239	0xbd992225	-0.07477216
240	0xbeda47c4	-0.42632878
241	0xbe0f3e37	-0.13988577
242	0xbd6a554f	-0.057210263
243	0xbcbe2cc8	-0.023214713
244	0x3e2537d5	0.1613458
245	0x3e208446	0.15675458
246	0x3d84ca2b	0.06483873
247	0x3e3f7e4d	0.18700524
248	0x3a57c006	0.0008230213
249	0xbbde871d	-0.006791009
250	0xbd058188	-0.032594234
251	0xbed6ab85	-0.41927734
252	0xbd986c55	-0.07442538
253	0xbccb188b	-0.024791976
254	0xbc8be627	-0.017077519
255	0xbd438066	-0.047729872

gconv.1.weight f4 [3, 16, 16]
0	0x3d9689d8	0.0735051
1	0x3e0b08c2	0.1357756
2	0xbe8014f2	-0.2501598
3	0x3d551722	0.052024014
4	0xbe849d0c	-0.25901067
5	0x3da543f9	0.080696054
6	0x3dd01678	0.101605356
7	0x3ea03cbc	0.31296337
8	0xbeede3af	-0.4646277
9	0x3efa4fe3	0.48889074
10	0xbe8809d6	-0.26570004
11	0xbe85d466	-0.2613861
12	0x3e9f069d	0.31059733
13	0x3dc4732b	0.09592279
14	0xbecf4ca1	-0.4048815
15	0xbef424f3	-0.4768444
16	0xbf1a8d6d	-0.6037205
17	0x3e983361	0.297267
18	0xbec3de82	-0.38255697
19	0xbca6acbe	-0.020346042
20	0xbed66808	-0.41876245
21	0xbe32908d	-0.17437954
22	0x3e400291	0.18750979
23	0x3e055449	0.13020433
24	0xbf22a9d3	-0.6354038
25	0x3e765474	0.24055654
26	0x3db73671	0.08945931
27	0xbd3fc871	-0.046822015
28	0x3d86f2c5	0.06589273
29	0x3ef9f75b	0.4882153
30	0xbf019e4d	-0.5063217
31	0xbe0b77f1	-0.13619973
32	0xbef13d1b	-0.47116932
33	0x3e1d23a1	0.15345623
34	0x3e8d8b7f	0.2764549
35	0x3e40cab3	0.18827324
36	0x3e850bae	0.25985473
37	0xbe19a850	-0.15005612
38	0x3cdc94f1	0.02692649
39	0xbdf2d3da	-0.11856814
40	0x3e630b76	0.22172341
41	0xbecf0449	-0.40432957
42	0xbe175cfb	-0.14781563
43	0xbcdb8321	-0.026795926
44	0xbda7a9c5	-0.08186678
45	0xbdf4090e	-0.119157895
46	0x3e75776e	0.2397134
47	0x3dcf6462	0.101265684
48	0xbd4c7c58	-0.04992327
49	0xbdd3d745	-0.10343794
50	0xbe517f6f	-0.20458768
51	0x3d704e4d	0.058668423
52	0x3dc7a1bd	0.09747646
53	0xbe538aa1	-0.20658351
54	0xbd45ef69	-0.048324022
55	0xbe3df0ec	-0.18548936
56	0xbd9b6718	-0.07588023
57	0xbf010493	-0.50397605
58	0x3f1b4649	0.6065412
59	0x3dbf479e	0.09339832
60	0xbe4cd929	-0.20004715
61	0x3e39af6c	0.18133324
62	0xbe7e6c68	-0.24846041
63	0xbdb1db51	-0.086844094
64	0xbeb05e26	-0.3444683
65	0x3e963547	0.29337522
66	0xbeae9d3a	-0.3410433
67	0xbe675ebf	-0.22594737
68	0x3e7cdb83	0.24693112
69	0x3d101030	0.035171688
70	0x3d2313c1	0.03981376
71	0x3d3bfbe8	0.045894533
72	0xbe8a97e3	-0.27069005
73	0xbc52758a	-0.012845406
74	0x3e0f3d6e	0.13988277
75	0x3e1940fe	0.14966199
76	0x3dcb220f	0.099186055
77	0x3e0c37a2	0.13693097
78	0x3e0487df	0.12942456
79	0xbe4f175b	-0.20223753
80	0x3d44c3e6	0.048038386
81	0xbc9258bc	-0.017864577
82	0xbdde871e	-0.10865615
83	0x3e28920e	0.16461965
84	0xbd4e309b	-0.050339323
85	0xbe1e2f33	-0.15447693
86	0x3df0a440	0.11750078
87	0x3d377a80	0.04479456
88	0x3d13712f	0.035996612
89	0xbebaff49	-0.36522892
90	0xbe8fc43f	-0.2807941
91	0xbecbefbb	-0.39831337
92	0x3e814b16	0.252526
93	0x3e78aa17	0.24283634
94	0x3d57eacc	0.052714154
95	0xbebe0d9a	-0.37119752
96	0xbe7d1182	-0.2471371
97	0xbec6c80f	-0.38824508
98	0xbe2f2bc0	-0.17106533
99	0x3e1f1b39	0.15537728
100	0xbf03fc0d	-0.51556474
101	0x3e937eb1	0.28807595
102	0xbea7007e	-0.32617563
103	0xbe0cf830	-0.13766551
104	0xbec7bf26	-0.39013022
105	0xbd4b3510	-0.04961115
106	0xbee392a9	-0.4444783
107	0xbe289e71	-0.1646669
108	0x3e7cc7e2	0.24685624
109	0xbe59bdf7	-0.21263872
110	0xbd9e44fa	-0.07728
111	0xbdd55b48	-0.10417801
112	0x3e676882	0.2259846
113	0xbec56307	-0.38552114
114	0xbda5e690	-0.08100617
115	0xbe9890bb	-0.2979792
116	0xbe9dfa25	-0.30854908
117	0xbe2d891a	-0.16946831
118	0x3dd82977	0.10554784
119	0xbed8052e	-0.42191452
120	0x3e72ad25	0.23698862
121	0xbe6d8720	-0.23196077
122	0x3d7dd25c	0.061968192
123	0xbea4ad93	-0.32163677
124	0xbdc9fb3f	-0.098623745
125	0xbda25cff	-0.07927894
126	0x3c91bdb7	0.017790658
127	0x3e4c989c	0.19980091
128	0xbee1adf3	-0.44078025
129	0xbe773f6e	-0.2414529
130	0xbec2c08e	-0.38037533
131	0xbefca510	-0.49344683
132	0x3e1811eb	0.14850585
133	0x3df7850f	0.12085926
134	0x3dc097d4	0.09403959
135	0xbec0d4aa	-0.3766225
136	0xbdfebf7b	-0.12438866
137	0x3e0961c7	0.13416205
138	0xbd9f534c	-0.077795595
139	0xbda56341	-0.08075572
140	0xbea339db	-0.31880078
141	0xbd36f351	-0.04466564
142	0xbe78fd35	-0.24315341
143	0xbef0bc8b	-0.47018847
144	0xbd6d6b45	-0.05796363
145	0xbe93185a	-0.28729516
146	0x3df6d0e9	0.12051565
147	0xbeb628a4	-0.3557788
148	0x3e183206	0.14862832
149	0xbec2a3ce	-0.38015598
150	0x3eaed576	0.34147233
151	0x3deceb97	0.11568373
152	0xbec11548	-0.3771155
153	0xbe96be43	-0.29442033
154	0xb8057387	-3.1817264e-05
155	0xbd0b0267	-0.033937838
156	0xbdf0e290	-0.11761963
157	0xbe1f9ae5	-0.15586431
158	0x3d6348dd	0.05548941
159	0xbe46c4b2	-0.19410971
160	0xbe8b2581	-0.2717705
161	0x3c9652ee	0.01835009
162	0x3d202f3d	0.03910755
163	0xbea6c80a	-0.32574493
164	0x3b9c952b	0.0047785244
165	0xbda16c3c	-0.07881972
166	0xbe026f98	-0.12737882
167	0x3cd1f190	0.025627881
168	0xbeb968e8	-0.3621285
169	0x3e2f21cb	0.17102735
170	0xbe2288f6	-0.15872559
171	0x3d1f64d4	0.038914517
172	0xbeae5120	-0.34046268
173	0x3da64c61	0.08120037
174	0x3e4ffc94	0.20311195
175	0x3e687138	0.2269944
176	0xbe0f0294	-0.13965827
177	0x3df916ee	0.121625766
178	0xbdafb70b	-0.085798346
179	0x3e594e60	0.21221304
180	0x3e831258	0.25599933
181	0x3e6d1ed1	0.23156287
182	0xbd327920	-0.043572545
183	0xbecccd4b	-0.40000376
184	0x3ccd50ec	0.025063
185	0x3d9525c3	0.07282593
186	0x3e0d5154	0.13800555
187	0x3eeadda4	0.45872223
188	0x3dd58e31	0.104275115
189	0xbdae2aa0	-0.08504224
190	0xbe6d6537	-0.23183142
191	0x3df7dbfa	0.12102504
192	0xbebfca15	-0.37458864
193	0x3df00a24	0.11720684
194	0xbe881ae0	-0.26583004
195	0xbe8fa634	-0.2805649
196	0xbea2a451	-0.31765988
197	0xbd48ca04	-0.049020782
198	0x3d512770	0.051063
199	0xbe814bb0	-0.25253057
200	0xbdcd424f	-0.10022413
201	0x3e48c1c8	0.19605172
202	0x3db5f163	0.088839315
203	0xbd63fe82	-0.05566264
204	0xbe42ca85	-0.19022568
205	0x3d92fd83	0.0717726
206	0xbd1b7f40	-0.037963152
207	0xbe2382d6	-0.15967879
208	0xbe2cba0e	-0.16867849
209	0x3dca636e	0.09882246
210	0xbc55cf39	-0.013049894
211	0x3cc4f723	0.024043625
212	0x3e43e7f9	0.1913146
213	0xbec5830e	-0.3857655
214	0xbeadc1fc	-0.3393706
215	0x3e4e6c80	0.20158577
216	0xbe47ed71	-0.1952417
217	0x3eb2eb4a	0.34945136
218	0xbe526816	-0.20547518
219	0x3e597f85	0.21240051
220	0xbd6d9869	-0.058006678
221	0x3de9a8b7	0.11409133
222	0x3d2e1926	0.042504452
223	0x3dfa597d	0.122241
224	0x3ee9a211	0.4563146
225	0x3ecbb2cc	0.3978485
226	0xbe52ded3	-0.20592813
227	0xbdd34702	-0.10316278
228	0xbe178688	-0.14797413
229	0xbd293428	-0.041309506
230	0xbe800ddb	-0.2501057
231	0x3ea59618	0.32341075
232	0x3dd40065	0.10351638
233	0xbef63c95	-0.48093095
234	0x3da684cb	0.08130797
235	0x3de43d9f	0.11144566
236	0x3e82b141	0.2552586
237	0x3ef22d2e	0.47300094
238	0x3e125e70	0.14293838
239	0xbd35f702	-0.044425018
240	0xbe892ba4	-0.26791108
241	0xbe24e0b3	-0.16101341
242	0xbeadfc30	-0.33981466
243	0x3d7dc1aa	0.06195227
244	0xbe115de2	-0.1419597
245	0xbd855716	-0.06510751
246	0xbcf52288	-0.029923692
247	0xbd4ccf93	-0.050002646
248	0xbe25b0d0	-0.1618073
249	0xbe01aa1f	-0.12662552
250	0x3ee952cd	0.45570984
251	0x3ea41c01	0.32052615
252	0x3eb10418	0.34573436
253	0x3cfa7c5c	0.030576877
254	0x3eaa3074	0.33240092
255	0xbe16789f	-0.14694451

gconv.2.weight f4 [3, 16, 16]
0	0x3d4b7270	0.049669683
1	0x3e5328ed	0.2062108
2	0xbcd7a8fc	-0.026325695
3	0xbd8ec4cb	-0.06971129
4	0xbe053f25	-0.13012369
5	0xbe517c04	-0.20457464
6	0x3e87d851	0.26532224
7	0xbd60576d	-0.054770876
8	0x3e85ad5f	0.26108834
9	0x3df453c3	0.11930039
10	0x3e3017a3	0.17196517
11	0xbef2405c	-0.47314727
12	0x3e0ac075	0.13549979
13	0x3dc20db8	0.09475273
14	0x3ea43773	0.32073554
15	0xbe281490	-0.16414094
16	0xbe42cf10	-0.190243
17	0xbdde09dc	-0.10841724
18	0x3e09d931	0.13461758
19	0xbf01bd5a	-0.5067955
20	0xbe9b62ec	-0.3034891
21	0xbee2db9f	-0.44308183
22	0xbd8daa65	-0.06917266
23	0x3c243122	0.01002148
24	0x3e242cb1	0.16032673
25	0xbd8ed089	-0.06973369
26	0x3e595a42	0.21225837
27	0x3d8a4029	0.06750519
28	0x3daa381f	0.083114855
29	0xbd517684	-0.051138416
30	0xbe86d716	-0.26335973
31	0x3ded6b62	0.11592747
32	0xbd988afa	-0.07448383
33	0x3ea2c84a	0.31793433
34	0x3e1fbc5a	0.15599194
35	0x3e6f70be	0.23382851
36	0xbec2c0c9	-0.38037708
37	0xbe9f4120	-0.31104374
38	0x3d87fb84	0.0663977
39	0xbe63f52c	-0.22261494
40	0xbe22a09a	-0.15881577
41	0x3daf813c	0.085695714
42	0x3eb2a405	0.34890762
43	0x3dd48bf7	0.10378259
44	0x3e9f2bc7	0.31088087
45	0x3e4ef8ed	0.20212145
46	0x3e65945c	0.22419876
47	0x3e9ea58a	0.3098567
48	0x3dc33f01	0.095335014
49	0x3d8240ab	0.06359991
50	0x3e3621aa	0.1778628
51	0xbe3a53ef	-0.1819608
52	0x3e0cb17c	0.1373958
53	0xbea18163	-0.31544027
54	0x3cf2f141	0.029656054
55	0x3b7872dc	0.0037910258
56	0xbe868acc	-0.2627777
57	0x3e26db5c	0.16294616
58	0x3e8c2ee1	0.27379516
59	0xbe825233	-0.25453338
60	0x3c4cb1bc	0.012493547
61	0xbd14e459	-0.03635058
62	0x3ddb7bc1	0.107169636
63	0xbda3d7c6	-0.0800014
64	0x3dcc4482	0.09974004
65	0x3eaaf6f6	0.3339154
66	0xbe30048a	-0.17189232
67	0xbeec89a7	-0.4619877
68	0x3dcee94a	0.1010309
69	0xbe87c6af	-0.2651877
70	0x3d6e27b3	0.05814333
71	0xbe6ad535	-0.22932895
72	0xbe63e822	-0.2225652
73	0xbeba2148	-0.36353517
74	0x3f00a1f2	0.5024711
75	0xbe3ea1d6	-0.18616423
76	0xbbe93860	-0.007117316
77	0x3ec4cc30	0.38437033
78	0x3eb10448	0.3457358
79	0x3e6203ad	0.22071715
80	0x3bd1175e	0.0063809594
81	0xbd68697c	-0.056741223
82	0xbea2e802	-0.31817633
83	0xbe071409	-0.13191237
84	0x3e8f9810	0.28045702
85	0xbde59eab	-0.11211904
86	0x3d9cc31e	0.07654403
87	0x3e9a4d60	0.30137157
88	0x3e793c1f	0.2433934
89	0x3d52a516	0.05142697
90	0x3e75e11e	0.24011657
91	0xbeb39961	-0.35077956
92	0xbd64c780	-0.05585432
93	0x3dca206a	0.09869464
94	0xbe20845a	-0.15675488
95	0xbc7f0900	-0.015566111
96	0xbe80c1bd	-0.2514781
97	0xbe344ea1	-0.1760812
98	0xbd3cce11	-0.046094958
99	0xbe208212	-0.15674618
100	0xbeb5feec	-0.35546052
101	0xbea6ac85	-0.32553497
102	0x3e8b4dfb	0.27207932
103	0xbeafd8b0	-0.34345007
104	0xbe7d6528	-0.2474562
105	0xbd6f0ae0	-0.05835998
106	0x3e0f4ea2	0.1399484
107	0x3e9aebcd	0.30258027
108	0xbccd4f4e	-0.02506223
109	0x3e17095b	0.14749663
110	0xbeb5f463	-0.35538015
111	0x3e9784ca	0.29593498
112	0x3e8a8505	0.2705461
113	0x3e964574	0.29349864
114	0x3deaca6f	0.114643924
115	0xbd0ac98d	-0.03388362
116	0xbd370807	-0.04468539
117	0xbde5f9c4	-0.1122928
118	0x3cd286b3	0.025698995
119	0x3d87faaf	0.06639611
120	0x3e88140e	0.265778
121	0x3e1b4e92	0.15166691
122	0xbe094dfb	-0.13408653
123	0xbe2480bf	-0.16064738
124	0x3e746bb3	0.23869209
125	0x3e9aef01	0.3026047
126	0x3e21355b	0.1574301
127	0xbd77b68f	-0.060476836
128	0x3d041fe8	0.03225699
129	0x3d04c88f	0.03241783
130	0x3e938ee9	0.2881997
131	0x3d925938	0.071459234
132	0x3ea1bda0	0.31589985
133	0x3e3b8232	0.18311384
134	0xbe59ae88	-0.21257985
135	0x3e567255	0.20942052
136	0xbe946619	-0.28984144
137	0xbe8962a4	-0.2683307
138	0x3e055edb	0.13024466
139	0x3e4696f5	0.19393523
140	0xbdf2feea	-0.11865027
141	0x3ecc2eea	0.39879543
142	0xbe430310	-0.19044137
143	0xbd8ecc93	-0.06972613
144	0x3d8817e4	0.06645182
145	0x3d852476	0.06501095
146	0xbec2be86	-0.38035983
147	0xbe9a69cd	-0.30158845
148	0xbe32a6a2	-0.17446378
149	0xbe708d5a	-0.23491421
150	0xbdb49290	-0.08817017
151	0xbe0c7349	-0.13715853
152	0xbe2ad908	-0.16684353
153	0xbee85c77	-0.45383045
154	0x3d8cdfbe	0.06878613
155	0x3e617675	0.22017844
156	0xbeb10e11	-0.34581044
157	0x3eb34823	0.35015973
158	0x3e8a01ef	0.269546
159	0xbe55f914	-0.20895797
160	0x3e974d08	0.29550958
161	0xbe32a918	-0.17447317
162	0xbeaa3ac7	-0.3324797
163	0xbe8be6d3	-0.27324542
164	0xbd58c2b7	-0.05292007
165	0x3df645fd	0.12025068
166	0xbeb1b8f5	-0.34711424
167	0xbdc91541	-0.09818507
168	0xbe92363a	-0.28556997
169	0x3e0ff6d3	0.14059
170	0xbee3c2ea	-0.44484645
171	0x3e119fb9	0.14221086
172	0xbecf5f3e	-0.40502352
173	0xbe7b079e	-0.24514624
174	0xbebd8493	-0.3701521
175	0xbe5c7c80	-0.21531868
176	0xbddee1a0	-0.10882878
177	0xbe9eba7a	-0.31001645
178	0x3e9a26e2	0.3010779
179	0xbdccef2a	-0.100065544
180	0xbd958e1f	-0.07302498
181	0x3d1493a2	0.036273606
182	0xbe2a9cb7	-0.16661344
183	0xbf07dd7b	-0.5307233
184	0x3dc26f25	0.094938554
185	0x3e27cad9	0.16385974
186	0xbec6a6b7	-0.38799068
187	0xbe89a3cd	-0.26882783
188	0x3b6f2472	0.003649023
189	0xbe3cb50e	-0.18428442
190	0x3dbbdd2e	0.09173046
191	0xbec17e7b	-0.3779181
192	0x3e4df8b7	0.20114408
193	0xbed7e0df	-0.4216375
194	0xbe806677	-0.25078174
195	0x3d77d267	0.06050339
196	0xbebc12c9	-0.36733082
197	0x3e39284b	0.18081777
198	0xbea21790	-0.31658602
199	0xbe96e11d	-0.29468623
200	0xbe007f26	-0.12548503
201	0x3db1ec8f	0.08687698
202	0xbf067558	-0.525228
203	0x3d4f069e	0.05054342
204	0xbdde7d99	-0.108637996
205	0xbec764b8	-0.3894403
206	0x3e9e6e65	0.309436
207	0xbed7f24f	-0.42177054
208	0xbeb982ac	-0.36232507
209	0xbd150b10	-0.036387503
210	0xbdc10360	-0.09424472
211	0xbca38d93	-0.019964969
212	0xbd997ddb	-0.07494708
213	0xbe27f71a	-0.16402856
214	0xbd8c43de	-0.06848882
215	0x3d833dc4	0.06408265
216	0xbd8eb09c	-0.06967279
217	0xbe9b5bab	-0.30343375
218	0xbe62c1b5	-0.22144206
219	0xbe3585b9	-0.17726792
220	0xbe8cc2ef	-0.27492473
221	0xbe6c05d7	-0.23049103
222	0x3e12cbf5	0.14335616
223	0x3ddacfc4	0.106841594
224	0xbe88decb	-0.26732478
225	0x3e869978	0.26288962
226	0xbeb3cbaf	-0.35116336
227	0x3d01365f	0.031545993
228	0x3e0f29fa	0.13980857
229	0x3d9e12c1	0.07718421
230	0xbc13a589	-0.009011635
231	0xbe35b85a	-0.17746106
232	0xbd60387e	-0.054741375
233	0xbebcca58	-0.36873126
234	0x3ebf74f5	0.3739392
235	0xbe55a2d5	-0.20862897
236	0xbe5f4688	-0.2180425
237	0x3e8ae6b6	0.27129143
238	0xbcd46fac	-0.025932156
239	0x3d339d32	0.043851085
240	0x3d987770	0.07444656
241	0x3cb2f747	0.021846427
242	0xbe0568b2	-0.1302822
243	0x3db6ceb6	0.08926146
244	0x3da941e9	0.082645245
245	0x3de30af9	0.11086077
246	0xbe151389	-0.14558233
247	0x3e510c59	0.20414867
248	0x3e02ac1e	0.1276097
249	0xbd040547	-0.032231595
250	0xbe8e9c53	-0.2785364
251	0xbec8eeb8	-0.39244628
252	0xbea5a6ba	-0.32353765
253	0x3e736286	0.23768052
254	0xbe13c236	-0.14429554
255	0xbe7ad85c	-0.24496597

gconv.3.weight f4 [3, 16, 16]
0	0xbe8a7d00	-0.27048492
1	0x3e01a52c	0.12660664
2	0x3df9f6f6	0.12205307
3	0x3e96ca7d	0.2945136
4	0x3cfc469d	0.03079539
5	0x3e6fb887	0.23410235
6	0x3e660219	0.22461738
7	0x3de71207	0.11282735
8	0xbe39ed20	-0.18156862
9	0xbe4642c9	-0.19361414
10	0xbe9c152c	-0.30484903
11	0x3e005ab6	0.12534603
12	0xbec938b0	-0.39301062
13	0x3e5320b6	0.20617947
14	0xbdb0394b	-0.08604678
15	0x3e8b9f3e	0.2726993
16	0x3e0cb196	0.13739619
17	0x3ead3ed7	0.33837005
18	0xbe55288f	-0.20816253
19	0xbe0cc5ff	-0.13747405
20	0xbea20fa7	-0.31652567
21	0xbe896c2f	-0.2684035
22	0x3ef588e9	0.47956017
23	0x3dfae9a5	0.122515954
24	0xbdfb7e3f	-0.12279939
25	0x3aa7092e	0.0012743825
26	0xbe2a15c6	-0.16609868
27	0xbe4d3933	-0.20041351
28	0x3c3f9420	0.011693031
29	0x3e3a64dc	0.18202537
30	0xbdd29120	-0.10281587
31	0x3ee90387	0.45510504
32	0x3dc264e5	0.094919
33	0x3db537d2	0.088485375
34	0xbac31cfa	-0.0014885955
35	0x3e84703d	0.2586688
36	0x3e4f09bd	0.20218559
37	0xbe2b48ce	-0.16726992
38	0x3e2e7408	0.1703645
39	0x3cd981f1	0.026551219
40	0xbc505279	-0.0127149755
41	0xbe679626	-0.22615871
42	0xbdcec1ca	-0.10095556
43	0x3b7af2a2	0.0038291593
44	0x3e92a9d2	0.28645188
45	0xbdf936ec	-0.12168679
46	0x3e784dfd	0.242485
47	0xbc34dad0	-0.011038497
48	0x3ddbc318	0.107305706
49	0xbe6b2e6d	-0.22966929
50	0xbe5c3810	-0.21505761
51	0xbda19a3e	-0.078907475
52	0x3e5b4604	0.21413428
53	0xbe9c2da0	-0.3050356
54	0x3e46c836	0.19412312
55	0xbd6285f8	-0.055303544
56	0x3e41fcc5	0.1894408
57	0x3da313a3	0.0796273
58	0xbd214d43	-0.039380323
59	0x3de03ee8	0.109494984
60	0xbede37b3	-0.4340187
61	0x3d83c0d0	0.064332604
62	0x3e5ab1a4	0.21356827
63	0xbe30cb51	-0.17265059
64	0x3ebfc943	0.37458238
65	0x3d1a129e	0.03761541
66	0xbe261cbc	-0.16221899
67	0x3e80a038	0.25122237
68	0xbde21b22	-0.110403314
69	0x3d74edfe	0.05979728
70	0xbe5651b3	-0.20929603
71	0x3e93f4db	0.28897747
72	0xbdccec42	-0.10006
73	0xbc319cca	-0.010840604
74	0xbdf80997	-0.12111204
75	0xbecaaebe	-0.39586443
76	0x3f148743	0.58018893
77	0x3dffcae1	0.12489868
78	0x3cd2ccee	0.025732484
79	0x3ebc64ce	0.36795658
80	0x3e775b51	0.24155928
81	0xbe93b5ec	-0.28849733
82	0xbe9d96fe	-0.3077926
83	0xbd94b05f	-0.072602026
84	0x3d9efb0d	0.07762728
85	0x3e1d5406	0.15364084
86	0x3e81b126	0.25330466
87	0xbe8f5a35	-0.2799851
88	0xbe22c490	-0.15895295
89	0x3e902c58	0.28158832
90	0x3d308272	0.043093152
91	0xbec404ba	-0.38284856
92	0x3e0cc654	0.13747531
93	0xbeabc02d	-0.33545056
94	0xbec9e57f	-0.39432904
95	0x3eb7fb21	0.35933784
96	0xbd5c1a67	-0.053736117
97	0x3e240af9	0.1601981
98	0x3ea00f11	0.31261495
99	0x3e3032c8	0.17206872
100	0x3d4edb10	0.050501883
101	0x3eeaffe4	0.45898354
102	0xbe879c66	-0.2648651
103	0x3e837807	0.2567751
104	0xbe83c3f6	-0.25735444
105	0xbea978a3	-0.3309985
106	0xbee96776	-0.45586747
107	0x3eb98d6b	0.36240706
108	0xbe1ff022	-0.15618947
109	0x3e504cad	0.2034175
110	0xbe6a9c4e	-0.22911188
111	0xbe42da50	-0.19028592
112	0x3e0e4174	0.13892156
113	0x3c4ffb9a	0.012694264
114	0xbe87cf64	-0.26525414
115	0x3ea954e1	0.3307257
116	0x3d28ee78	0.041243047
117	0xbd2106dd	-0.039313186
118	0x3e25b06c	0.16180581
119	0xbdb15525	-0.08658818
120	0x3e3bb94b	0.18332402
121	0xbee19547	-0.44059202
122	0xbdce36c7	-0.10069042
123	0xbe168c9f	-0.1470208
124	0x3f0cbfef	0.5498037
125	0x3ebfb16e	0.37440056
126	0xbd88b456	-0.06675021
127	0xbd1c5e60	-0.03817594
128	0x3dd54b98	0.10414809
129	0xbeb57c3f	-0.35446355
130	0x3e30744c	0.17231864
131	0xbe8ef9f9	-0.2792509
132	0x3dd90710	0.1059705
133	0x3ec8579f	0.3912935
134	0x3e9581c2	0.2920056
135	0x3d84d39c	0.06485674
136	0xbdc7c97c	-0.09755227
137	0x3e8c88a2	0.27447993
138	0x3eb462e7	0.35231707
139	0x3e872d2d	0.26401654
140	0x3ebf30b2	0.3734184
141	0x3e194864	0.14969021
142	0xbe65a77f	-0.22427176
143	0x3d956c03	0.07295992
144	0xbb3eb28a	-0.0029098117
145	0x3d63be81	0.0556016
146	0x3e685de0	0.2269206
147	0x3bdff6a7	0.006834823
148	0xbd8435f6	-0.06455605
149	0x3eb46e02	0.3524018
150	0x3e20fd10	0.15721536
151	0x3e8043a1	0.25051597
152	0xbd5c56d5	-0.053793747
153	0xbd385b98	-0.045009226
154	0x3e563e8e	0.209223
155	0x3ea6a946	0.3255102
156	0x3ed04ce5	0.40683666
157	0x3e2989f2	0.16556528
158	0x3e482888	0.19546711
159	0xbe591703	-0.21200185
160	0xbbb8f2ef	-0.0056441943
161	0xbd7cf6e4	-0.06175889
162	0xbe2cc5b5	-0.16872294
163	0x3ec1ffd9	0.3789051
164	0xbd713609	-0.058889423
165	0x3d713f22	0.0588981
166	0xbe898ac0	-0.2686367
167	0xbd9e5658	-0.077313125
168	0xbdda8863	-0.10670545
169	0xbe0a6926	-0.13516673
170	0x3eb739e8	0.35786366
171	0xbeaf6d5c	-0.34263122
172	0xbd412086	-0.047150157
173	0x3e16044b	0.14650075
174	0x3e4d3fdf	0.20043896
175	0x3e7dc414	0.24781829
176	0x3d605d19	0.054776285
177	0x3e227380	0.15864372
178	0xbd362155	-0.04446538
179	0xbea17c20	-0.31540012
180	0xbea8fe22	-0.33006388
181	0x3e2c9e06	0.16857156
182	0x3e43b715	0.19112809
183	0xbec7d248	-0.3902762
184	0xbed467f9	-0.41485575
185	0x3b41b76d	0.0029558793
186	0xbe7bc5ab	-0.24587123
187	0xbe9f503e	-0.31115907
188	0x3edc0a96	0.42976826
189	0x3e38460e	0.17995474
190	0xbeb3e804	-0.3513795
191	0x3e7ef8c3	0.24899583
192	0x3e92eb48	0.2869513
193	0xbda553b4	-0.08072606
194	0x3e8c4d9c	0.2740296
195	0xbca49569	-0.020090776
196	0x3e2a8bbd	0.16654868
197	0x3e2cdae3	0.16880374
198	0x3eb1e384	0.34743893
199	0xbdc671bd	-0.096896626
200	0xbeb232c1	-0.34804347
201	0x3dc73b8d	0.09728155
202	0x3e9b628d	0.30348626
203	0x3e52cbf9	0.20585622
204	0xbec9d9c7	-0.39423963
205	0x3e8d2e3e	0.27574342
206	0x3d58cb8b	0.05292849
207	0x3ea6286b	0.3245271
208	0x3eb87103	0.3602372
209	0x3d968e30	0.07351339
210	0x3ed4a87a	0.41534787
211	0x3e7ba184	0.24573332
212	0x3e2105d9	0.15724887
213	0xbecac146	-0.3960058
214	0x3dc05d73	0.09392824
215	0x3d980876	0.07423489
216	0x3d1ae3e4	0.03781499
217	0xbec0e728	-0.37676358
218	0xbe801e2a	-0.25023013
219	0xbde550df	-0.111970656
220	0xbe07ad06	-0.13249597
221	0x3ea20af1	0.31648973
222	0xbe42fa08	-0.19040692
223	0x3eaa0da9	0.33213547
224	0xbeb7e8c7	-0.35919783
225	0xbe6da28c	-0.23206538
226	0xbe904733	-0.2817932
227	0xbe5bffe3	-0.21484332
228	0x3d102ab0	0.03519696
229	0xbe892962	-0.26789385
230	0x3e31385f	0.1730666
231	0xbd807bb9	-0.06273598
232	0xbd0f7489	-0.035023246
233	0xbee7b00c	-0.452515
234	0xbe8d2986	-0.27570742
235	0x3d475520	0.048665166
236	0xbeae2faa	-0.3402074
237	0x3e7caae2	0.24674562
238	0xbe502a92	-0.2032874
239	0xbe8778fe	-0.26459497
240	0xbe2a382a	-0.16622987
241	0x3d5edbe0	0.054408908
242	0x3d2d5f12	0.042326994
243	0xbdd80fb4	-0.1054987
244	0xbd67cff0	-0.05659479
245	0x3e413b37	0.18870245
246	0x3e5b0f62	0.21392587
247	0xbedc3f73	-0.43017158
248	0x3e07f3ef	0.13276647
249	0x3e41124c	0.18854636
250	0x3e89f7a4	0.26946747
251	0x3dba572f	0.0909866
252	0xbc6171d9	-0.013760054
253	0xbdc73012	-0.097259656
254	0x3e4acde3	0.19805102
255	0x3e97562a	0.29557925

cls.0.weight f4 [256, 64]
0	0xbeb59e72	-0.35472447
1	0xbf03b7f9	-0.51452595
2	0xbe1fb883	-0.1559773
3	0x3e7f1674	0.24910909
4	0x3e02c092	0.12768772
5	0xbdee9286	-0.11649041
6	0x3d50dbe7	0.050990965
7	0x3e91326a	0.28358775
8	0x3e4a0578	0.19728649
9	0xbe2c3e62	-0.16820672
10	0xbe8788bc	-0.26471508
11	0x3c12e46e	0.008965595
12	0x3e61576c	0.22006005
13	0xbdf8f6e0	-0.12156463
14	0xbebe2cb8	-0.37143493
15	0xbe4101e8	-0.18848383
16	0xbde6fd0e	-0.11278735
17	0xbe2af71b	-0.16695826
18	0xbe62cbc0	-0.22148037
19	0xbd8ebd8b	-0.06969746
20	0xbeceda07	-0.40400717
21	0xbd94f214	-0.07272735
22	0xbdb3baed	-0.08775888
23	0xbce4e74d	-0.027942324
24	0xbe64bfa8	-0.22338736
25	0x3d4055be	0.04695677
26	0x3e5bb071	0.21454026
27	0x3d00de14	0.03146179
28	0xbc0270ab	-0.007961432
29	0xbe6aa6a2	-0.22915128
30	0xbe88666d	-0.26640645
31	0xbe0a0fe3	-0.13482623
32	0xbd9afc7b	-0.07567688
33	0xbe872ef3	-0.26403007
34	0x3dd1f57f	0.10251903
35	0x3e92fcf3	0.2870861
36	0xbd561698	-0.05226764
37	0x3e4a2292	0.1973975
38	0x3d6c5375	0.05769678
39	0x3d568462	0.052372344
40	0xbb79fbe8	-0.0038144533
41	0x3d798dbb	0.06092618
42	0x3e77afd6	0.2418817
43	0x3e8062b7	0.25075313
44	0xbe6c54a5	-0.23079164
45	0xbacac09f	-0.0015468783
46	0x3d0a92fd	0.033831585
47	0xbd54fc2c	-0.051998302
48	0xbe46dcb5	-0.1942013
49	0xbe0d09e5	-0.13773306
50	0xbe8d6226	-0.27613944
51	0x3e4ff394	0.20307761
52	0xbd9ef914	-0.07762352
53	0xbd965384	-0.07340148
54	0xbea2addc	-0.3177327
55	0x3e3a3faf	0.18188356
56	0xbbb4f879	-0.0055227843
57	0x3d982d16	0.074304745
58	0xbc77d1fa	-0.015125746
59	0x3e3d45a3	0.18483596
60	0xbdb011b1	-0.08597124
61	0xbe300d4a	-0.1719257
62	0xbe689e98	-0.22716749
63	0xbcf4cfe2	-0.029884282
64	0x3db8ae8d	0.09017668
65	0x3c8ef025	0.017448494
66	0xbda73edc	-0.08166286
67	0xbd2551b6	-0.04036113
68	0xbb458a15	-0.0030142118
69	0xbe118a0d	-0.14212818
70	0x3e19bf06	0.15014276
71	0x3de4ba0c	0.11168298
72	0x3dcda4c9	0.10041196
73	0x3c7b0964	0.015322063
74	0x3d8df5ac	0.06931624
75	0x3dd0f497	0.10202902
76	0x3da69980	0.081347466
77	0x3c1b4c4f	0.009478643
78	0xbd6a03af	-0.05713242
79	0x3d8afbc7	0.06786304
80	0xbe05453d	-0.13014694
81	0xbd1acd01	-0.037793163
82	0x3cfd7b7d	0.030942673
83	0x3d90960f	0.070598714
84	0xbbe00f75	-0.00683778
85	0xbcbf117f	-0.023323772
86	0xbe211f95	-0.15734704
87	0x3ad8da7b	0.0016544604
88	0xbd060854	-0.032722786
89	0xbc910e29	-0.017706947
90	0x3d82e3ba	0.06391092
91	0x3e2670f9	0.16254033
92	0xbb1fec4f	-0.0024402326
93	0x3d6b42ff	0.05743694
94	0xbe4accd1	-0.19804694
95	0x3e206b02	0.1566582
96	0x3e843ea3	0.25829038
97	0x3e3f4b1f	0.18681
98	0x3d9940c5	0.07483057
99	0xbd1c6fba	-0.03819249
100	0xbdbf5e89	-0.09344203
101	0xbda3df18	-0.08001536
102	0x3e6210c9	0.22076716
103	0xbecb8774	-0.3975178
104	0xbd6ae38f	-0.057345923
105	0x3d2712cb	0.040789407
106	0x3e04b38f	0.12959121
107	0xbcb253e0	-0.02176851
108	0x3dd4fed6	0.104001686
109	0xbe4a7751	-0.19772078
110	0x3e510e88	0.204157
111	0x3cb0b957	0.021572752
112	0xbf1073b9	-0.5642658
113	0xbe88dfc5	-0.26733223
114	0x3b94e9b6	0.004544462
115	0xbe4b6c01	-0.19865419
116	0x3d899e16	0.067196056
117	0xbddcd57a	-0.10782905
118	0x3dbf4079	0.09338469
119	0x3e32c3ce	0.17457506
120	0x3ba758be	0.0051070144
121	0x3bb4dc89	0.005519454
122	0xbd96e01b	-0.073669635
123	0xbe22224b	-0.15833394
124	0x3e862d9c	0.26206672
125	0xbcf90ffc	-0.03040313
126	0xbc181c1e	-0.009284047
127	0xbca2f40e	-0.019891765
128	0xbda482fc	-0.08032796
129	0xb9d20e12	-0.00040064804
130	0xbe50c1af	-0.20386384
131	0xb31b8639	-3.6210825e-08
132	0xbddcd95f	-0.10783648
133	0x3cfbf58b	0.030756732
134	0xbd9da13c	-0.07696769
135	0x3e8b011a	0.27149278
136	0xbe10849e	-0.1411309
137	0xbe31e899	-0.17373885
138	0xbd9a50a2	-0.07534911
139	0x349fc26a	2.9757513e-07
140	0x3d936a35	0.07197992
141	0x384bbbaf	4.8573766e-05
142	0x3bbe6e7f	0.005811512
143	0xb5e90a13	-1.7362785e-06
144	0xbe06b563	-0.13155131
145	0xb543e10d	-7.297065e-07
146	0xbd552f53	-0.052047085
147	0xbc70e175	-0.014702191
148	0xbdd51950	-0.104052186
149	0x3d178a93	0.03699739
150	0xbd82e4f2	-0.06391324
151	0x33998dba	7.1503976e-08
152	0xbd905348	-0.07047135
153	0xbe1e71fb	-0.15473168
154	0xbda5dc0b	-0.080986105
155	0xbdd71739	-0.10502476
156	0xba012dfb	-0.0004927811
157	0xbc8b87b8	-0.01703249
158	0xbe965856	-0.2936427
159	0xbd6711da	-0.05641351
160	0xbd7ef2e2	-0.06224335
161	0x3cb4c301	0.022065641
162	0xbc0c8321	-0.008576185
163	0x3c82ede9	0.015982585
164	0x3e1237f7	0.14279161
165	0x3daa5235	0.08316461
166	0xbc0a6ab7	-0.008448294
167	0x3cb7a486	0.022417318
168	0xbe09aea9	-0.13445534
169	0x3ade22a9	0.0016947585
170	0x3cb95549	0.022623675
171	0xbdbf6c1d	-0.09346793
172	0x3d9c44e0	0.07630324
173	0xbdd156f9	-0.10221667
174	0xbdc566c6	-0.09638743
175	0xbe129a24	-0.14316612
176	0xbd901f69	-0.07037241
177	0xbd45a0b1	-0.04824895
178	0x3cf27d57	0.029600782
179	0x3d8d96cd	0.069135286
180	0xbdb8526a	-0.09000094
181	0xbe892e96	-0.26793355
182	0xbe35021e	-0.17676589
183	0x3dbea708	0.093092024
184	0x3d871e75	0.06597606
185	0x3e11e68a	0.142481
186	0xbc8c1f99	-0.01710491
187	0xbcc9a898	-0.024616525
188	0xbe3c05e6	-0.18361625
189	0x3af5eed2	0.0018763191
190	0xbdcc1ef7	-0.099668436
191	0x3dd92ca0	0.10604215
192	0xbb3347b1	-0.0027355964
193	0xbc496d69	-0.012294152
194	0xbc1ce985	-0.00957716
195	0x341f4f16	1.48368e-07
196	0xbbc6e058	-0.0060692243
197	0xbd1098e5	-0.03530206
198	0xbd446d9d	-0.047956098
199	0xbcf5cc81	-0.030004742
200	0xbc7c55cb	-0.015401314
201	0x35522938	7.829108e-07
202	0xb5c8895b	-1.4941137e-06
203	0x36b2299f	5.3096587e-06
204	0xbc61075d	-0.013734666
205	0xb497eb85	-2.8297305e-07
206	0x371ed5d6	9.467321e-06
207	0x345f7cef	2.0813944e-07
208	0xbcddc4d7	-0.0270714
209	0xb42bd9af	-1.6004809e-07
210	0xb3a096c2	-7.478003e-08
211	0x3db7e56f	0.08979308
212	0xbab5a3a0	-0.0013857968
213	0x345d829d	2.0629746e-07
214	0xb694b7af	-4.4321273e-06
215	0x3344c91d	4.5817718e-08
216	0xbbaba4be	-0.0052381447
217	0xbcc59916	-0.024120849
218	0x355d46bd	8.2431853e-07
219	0xba8934ed	-0.0010468044
220	0xb3de0c2c	-1.03398946e-07
221	0xbd0219d8	-0.031762928
222	0xbe014025	-0.12622125
223	0xbcaff99d	-0.02148133
224	0xbcc3d6a1	-0.023906054
225	0xb92af503	-0.00016303737
226	0xb40c0589	-1.304053e-07
227	0x33c3c6c6	9.116552e-08
228	0xbb1ced69	-0.0023945218
229	0x355f8704	8.327045e-07
230	0xbcdf92d1	-0.027291687
231	0xb91d4e71	-0.00015001908
232	0x33855877	6.209387e-08
233	0x331f5424	3.7096598e-08
234	0xbd0697cc	-0.03285961
235	0xb4727a80	-2.2582572e-07
236	0xb35e4e86	-5.175982e-08
237	0x3b4cd820	0.003125675
238	0x3d5340ea	0.05157558
239	0xb3e440ca	-1.06288624e-07
240	0x3a364354	0.00069527817
241	0xb4d09ff5	-3.8859403e-07
242	0x3645ec71	2.9492915e-06
243	0xbd5f8cc4	-0.054577604
244	0x3da584c8	0.08081967
245	0xbba218c1	-0.0049467986
246	0xb6c9da8c	-6.015709e-06
247	0xb56afa1a	-8.753574e-07
248	0x33ed2b99	1.1044103e-07
249	0x34094540	1.2784312e-07
250	0x3419dfad	1.4330608e-07
251	0xbd949d1b	-0.07256528
252	0x361852f0	2.269804e-06
253	0xbcbd8d14	-0.02313856
254	0xb4e67773	-4.292775e-07
255	0xbc3c1e1b	-0.011481787

cls.0.bias f4 [256]
0	0x3d73cc24	0.059520856
1	0x3d864e64	0.065579206
2	0xbd937302	-0.071996704
3	0xbd87ae36	-0.06625025
4	0x3d2a9dca	0.041654386
5	0xbcb26aab	-0.021779379
6	0xbd75392d	-0.05986898
7	0x3de6a069	0.112610646
8	0xbd783f43	-0.060607206
9	0xbd815a88	-0.063160956
10	0x3d4f7176	0.050645314
11	0xbd1c4a32	-0.038156696
12	0xbd6c0525	-0.057622094
13	0xbd0aaecf	-0.033858117
14	0x3d72dd77	0.059293237
15	0x3df44071	0.11926354
16	0xbd73b129	-0.059495125
17	0x3d676d6d	0.05650084
18	0x3d649509	0.055806194
19	0x3d10116e	0.035172872
20	0x3d680896	0.056648813
21	0x3d3fad88	0.04679635
22	0x3d7a3b4c	0.061091706
23	0xbd7cfcb8	-0.06176445
24	0xbd6fb7e0	-0.058524966
25	0x3d736b6d	0.05942862
26	0x3da3e200	0.080020905
27	0xbd818026	-0.063232705
28	0x3d369236	0.04457303
29	0xbd75fa8b	-0.06005339
30	0xbcd0cd24	-0.025488444
31	0x3d95430a	0.07288177
32	0x3d4908d3	0.04908068
33	0x3d6ebd74	0.058286145
34	0x3d4b2a94	0.049601153
35	0x3d5db875	0.05413099
36	0xbd74558a	-0.05965189
37	0x3d34aa35	0.044107635
38	0x3d72b068	0.059250265
39	0xbd7411fa	-0.059587456
40	0xbd6e3b22	-0.058161862
41	0xbd8197db	-0.06327792
42	0xbd7182fc	-0.058962807
43	0xbdaeffd2	-0.085448876
44	0x3be4adcd	0.0069787265
45	0xbd6067ef	-0.05478662
46	0xbd7c6518	-0.061619848
47	0x3da1f6a2	0.079083696
48	0xbd83a3fd	-0.06427763
49	0x3d8bf919	0.06834621
50	0xbd40dc9e	-0.047085397
51	0xbcf4dc0e	-0.029890087
52	0x3d7e4135	0.062073905
53	0xbd3b8c67	-0.045788195
54	0xbd7b217f	-0.06131124
55	0xbd799720	-0.06093514
56	0xbd7bdadc	-0.061488017
57	0xbd7a918c	-0.06117396
58	0x3d75543f	0.059894796
59	0x3d734249	0.059389386
60	0xbd18c78d	-0.03729968
61	0xbdb9a41b	-0.09064504
62	0xbd70126e	-0.058611326
63	0x3d81b32c	0.063330024
64	0x3d68bdd2	0.05682165
65	0x3daa8597	0.083262615
66	0x3d6cba37	0.057794776
67	0xbdee7a0d	-0.11644373
68	0x3db37442	0.08762409
69	0xbd860e74	-0.065457255
70	0x3d6c35bc	0.057668433
71	0xbd85eee2	-0.06539704
72	0x3cf87f9b	0.030334285
73	0x3d6a83aa	0.05725447
74	0xbd65b791	-0.056083266
75	0x3d6f1e26	0.05837836
76	0x3cdb4237	0.026764972
77	0x3e008906	0.1255227
78	0xbd755182	-0.059892185
79	0x3c29b4c0	0.010358036
80	0x3cf22560	0.029558837
81	0xbd79281f	-0.060829278
82	0xbd7c53b6	-0.06160327
83	0xbd7898b9	-0.060692523
84	0x3d75412d	0.05987661
85	0x3d7ed479	0.06221435
86	0xbd872db4	-0.06600514
87	0x3d8678bc	0.06565997
88	0xbd87cc23	-0.06630733
89	0x3d861826	0.06547575
90	0xbd72ad82	-0.0592475
91	0xbd8bfc46	-0.06835227
92	0x3d84d105	0.0648518
93	0x3d14752e	0.036244564
94	0xbd7590aa	-0.059952416
95	0xbd7be65f	-0.061498996
96	0xbd733ac4	-0.059382215
97	0xbd81853c	-0.063242406
98	0xbd8b15d8	-0.06791276
99	0xbd20c7ae	-0.03925293
100	0xbda37a00	-0.07982254
101	0x3d7056f6	0.058676682
102	0x3d738505	0.05945303
103	0x3d0c292c	0.034218952
104	0x3d754b20	0.059886098
105	0xbaa048d5	-0.0012228737
106	0xbdb23313	-0.08701148
107	0xbc008177	-0.007843367
108	0xbdb420a6	-0.0879529
109	0xbd41998c	-0.047265574
110	0x3d78b28a	0.060717143
111	0x3d7a31e4	0.061082736
112	0xbd6d89bc	-0.05799268
113	0xbd7409f6	-0.059579812
114	0xbd7a313b	-0.061082106
115	0xbd7db040	-0.061935663
116	0x3d0836fb	0.03325556
117	0xbdab89a5	-0.08375863
118	0x3d6a0e02	0.057142265
119	0x3d770556	0.060307823
120	0xbd860f55	-0.06545893
121	0xbd73cb6c	-0.05952017
122	0x3d7310e8	0.059342295
123	0xbd74dde1	-0.059781913
124	0xbd7cb837	-0.06169912
125	0x3cbfa7ab	0.02339538
126	0x3d84a791	0.06477273
127	0xbd80a025	-0.06280545
128	0x3d72829a	0.059206583
129	0xbd953fa4	-0.07287529
130	0x3d6d1733	0.057883453
131	0xbd75c9b7	-0.060006823
132	0xbd9afb51	-0.07567466
133	0xbd402d54	-0.04691823
134	0xbd797949	-0.060906682
135	0x3d0c0383	0.034183037
136	0x3d9cd98e	0.07658683
137	0x3da90767	0.08253365
138	0xbd761a31	-0.06008357
139	0x3d4aeb69	0.04954091
140	0x3d2317c2	0.03981758
141	0x3d73c360	0.059512496
142	0x3d72ec87	0.0593076
143	0x3d71c206	0.059022926
144	0xbd4a667b	-0.04941414
145	0xbd64b5ac	-0.05583732
146	0xbd863518	-0.065530956
147	0x3d23eff7	0.04002377
148	0xbd1cde14	-0.038297728
149	0x3d402c10	0.04691702
150	0xbdad9d87	-0.084773116
151	0xbd732d17	-0.059369173
152	0xbd361ddd	-0.044462074
153	0xbd751de6	-0.059842966
154	0x3c0ba27c	0.008522626
155	0x3d7a2a74	0.061075643
156	0x3d8134a8	0.063088715
157	0x3ac8dd06	0.0015324659
158	0xbd728644	-0.059210077
159	0xbd7664df	-0.060154792
160	0xbd7c4175	-0.061585862
161	0x3d28c49b	0.041203123
162	0x3d72c1e5	0.059266943
163	0xbc14d148	-0.0090831
164	0xbd771989	-0.060327087
165	0x3df729cb	0.12068518
166	0xbc053240	-0.008129656
167	0xbd7280bf	-0.059204813
168	0x3d4f2f25	0.05058207
169	0x3dc1dd7f	0.09466075
170	0xbd8a6213	-0.067569874
171	0x3d26fd67	0.040769007
172	0xbd4d6d95	-0.050153334
173	0x3d1fddba	0.039029814
174	0xbd7918a7	-0.060814526
175	0x3d6ddcc6	0.058071874
176	0xbc1c86cd	-0.009553623
177	0x3d0a5ec5	0.033781786
178	0x3d28268c	0.041052386
179	0x3d7962c7	0.060885217
180	0xbd84b98e	-0.06480704
181	0x3d1a4c42	0.03767038
182	0x3d32711b	0.043564897
183	0x3d5cc6e0	0.0539006
184	0x3d366a7a	0.044535138
185	0xbd759c7f	-0.0599637
186	0x3d56e72f	0.052466568
187	0x3c98e5a2	0.018664185
188	0x3d7edcde	0.062222354
189	0xbd675395	-0.056476194
190	0x3d61d078	0.055130452
191	0x3d416d86	0.04722359
192	0xbd7b7b43	-0.06139685
193	0xbd73f9d4	-0.059564427
194	0x3d275c34	0.040859416
195	0x3d5d52c2	0.054034002
196	0xbd6d13e6	-0.057880305
197	0xbd722083	-0.059113037
198	0xbd718753	-0.058966946
199	0x3d72c155	0.059266407
200	0x3d187700	0.037222862
201	0xbd1ad6f8	-0.037802666
202	0xbd760392	-0.060062
203	0xbd4f890f	-0.05066782
204	0xbe03fd22	-0.12889531
205	0xbd81859b	-0.06324311
206	0x3d73446c	0.059391424
207	0x3e1cf596	0.15328059
208	0xbd1952bf	-0.03743243
209	0x39618a6b	0.00021509237
210	0xbd897039	-0.06710858
211	0xbd214494	-0.03937204
212	0x3dd0b20d	0.101902105
213	0xbd7386de	-0.05945479
214	0xbd77e7fb	-0.06052397
215	0xbd5f569e	-0.054525964
216	0xbd75ee85	-0.060041923
217	0x3d8244bb	0.063607655
218	0x3d462f9d	0.04838525
219	0xbd955cae	-0.07293068
220	0xbd31a90a	-0.0433741
221	0xbd639da7	-0.05557027
222	0x3d74eee6	0.059798144
223	0xbc7353d3	-0.014851528
224	0xbd68ea76	-0.056864224
225	0x3d71e6f8	0.05905816
226	0x3d3a9d9d	0.045560468
227	0xbd76f5fc	-0.060293183
228	0x3d715f52	0.058928795
229	0x3d243fe5	0.040099997
230	0xbd6e27f7	-0.058143582
231	0x3d62cce6	0.055371188
232	0xbd6e945c	-0.058246955
233	0xbd72f0c3	-0.05931164
234	0xbd61ed42	-0.055157907
235	0xbbe6cb28	-0.007043261
236	0xbd18e891	-0.037331168
237	0x3ced1456	0.028940361
238	0xbd7a22e5	-0.061068434
239	0xbd70cca0	-0.058788896
240	0xbd7a5fcc	-0.061126515
241	0xbd64820c	-0.055788085
242	0xbd41fabf	-0.04735827
243	0xbbf7a09e	-0.007556989
244	0xbd70d74c	-0.058799073
245	0x3d7d9502	0.061909683
246	0xbd7a5992	-0.061120577
247	0xbd6b6c93	-0.05747659
248	0xbd7da45c	-0.061924323
249	0xbd7afb9f	-0.06127512
250	0x3d890c0c	0.06691751
251	0x3c2fe02b	0.010734598
252	0x3cbb6871	0.02287695
253	0x3d759d1a	0.059964277
254	0xbd9c801f	-0.07641625
255	0xbd68479b	-0.056708913

cls.2.weight f4 [256]
0	0x3f79e0a2	0.9760839
1	0x3f3c08dc	0.7345102
2	0x3f4d7919	0.80262905
3	0x3c574b97	0.013140581
4	0x3f9556bb	1.1667093
5	0x3f8fa945	1.1223532
6	0x3f150db0	0.5822401
7	0x3f317081	0.6931229
8	0x3f4aa2d6	0.7915472
9	0x3eeb414d	0.45948258
10	0x3f529778	0.8226237
11	0x3f194b14	0.59880185
12	0x3f2cdf53	0.67528266
13	0x3f4d51f4	0.80203176
14	0x3f65b694	0.8973172
15	0x3f5a1906	0.8519443
16	0x3f56a377	0.8384318
17	0x3ed727b5	0.42022482
18	0x3f767089	0.96265465
19	0x3f2d8b4a	0.67790663
20	0x3f5ae526	0.855059
21	0x3f4475f2	0.7674247
22	0x3f4e23ad	0.80523187
23	0x3f55fe1b	0.8359086
24	0x3f3358ea	0.7005755
25	0x3f62eb34	0.8864014
26	0x3f7627b1	0.96154314
27	0x3f423e20	0.75876045
28	0x3f4e723e	0.8064307
29	0x3f363a47	0.71182674
30	0x3f04733c	0.51738334
31	0x3f514d94	0.81759
32	0x3fa2aa3d	1.2708203
33	0x3f6249af	0.8839368
34	0x3f52d7f5	0.82360774
35	0x3f6f15ee	0.9339284
36	0x3f2b669c	0.66953444
37	0x3f1f21f3	0.6216118
38	0x3f6109e5	0.8790572
39	0x3efd2153	0.49439487
40	0x3f445066	0.7668518
41	0x3f2d61c6	0.67727315
42	0x3f43b711	0.7645121
43	0x3f5da07b	0.86573
44	0x3f19bd62	0.600546
45	0x3eef2e55	0.46715036
46	0x3dab3aff	0.08360862
47	0x3f58ead4	0.8473332
48	0x3f32b1a8	0.6980233
49	0x3ec346a2	0.38139826
50	0x3f425bb7	0.75921196
51	0x3f09a100	0.5376129
52	0x3f6de92b	0.9293391
53	0x3f68d749	0.909535
54	0x3f44a298	0.768106
55	0x3f34d52a	0.7063776
56	0x3f2c9f6e	0.6743077
57	0x3c564c95	0.013079782
58	0x3f6f4a98	0.93473196
59	0x3f2ac7b0	0.6671095
60	0x3f6b62d4	0.91947675
61	0x3f4d655c	0.8023279
62	0x3f61b3ad	0.8816479
63	0x3f76a064	0.96338487
64	0x3f6580f0	0.8964987
65	0x3ef17e3c	0.47166622
66	0x3f5c9f31	0.86180407
67	0x3f34c986	0.7062
68	0x3f6d8ccf	0.9279298
69	0x3f5dd7bd	0.86657315
70	0x3f5c6064	0.8608458
71	0x3f5de61a	0.8667923
72	0x3f2ec8ae	0.6827496
73	0x3f01d1f3	0.5071098
74	0x3f6a8dc1	0.9162255
75	0x3f228129	0.6347833
76	0x3f2def93	0.67943686
77	0x3f4d1128	0.80104303
78	0x3f2d027c	0.67581916
79	0x3f54ad0a	0.83076537
80	0x3f86d2e5	1.053311
81	0x3eca6108	0.39527154
82	0x3f5104ae	0.81647766
83	0x3f1c44a4	0.6104224
84	0x3f63bb89	0.8895803
85	0x3f25ef5d	0.64818364
86	0x3f4f554a	0.80989516
87	0x3f738965	0.9513152
88	0x3f3b97a2	0.7327825
89	0x3fb3081f	1.3986853
90	0x3f51027a	0.81644404
91	0x3eff72a1	0.49892142
92	0x3f5a4194	0.85256314
93	0x3f960059	1.1718856
94	0x3f50f89e	0.8162936
95	0x3f200bd9	0.6251808
96	0x3f589a56	0.846105
97	0x3f5dd116	0.86647165
98	0x3f06ba60	0.52628136
99	0x3f6af519	0.9178024
100	0x3f52bf7f	0.8232345
101	0x3f4f8cfe	0.8107451
102	0x3f46ed89	0.777062
103	0x3f1a6e4e	0.6032456
104	0x3f4ae664	0.792578
105	0x3fb18fa7	1.3871964
106	0x3f2fde35	0.68698436
107	0x3f3b095b	0.7306115
108	0x3e5ca414	0.21546966
109	0x3f4d19de	0.80117595
110	0x3f9b6719	1.2140838
111	0x3f6d8b9c	0.9279115
112	0x3f4be4c9	0.79645973
113	0x3f28cb6f	0.65935415
114	0x3ea59c35	0.3234574
115	0x3e337f50	0.17529035
116	0x3f5d0cb9	0.8634754
117	0x3f2be249	0.6714216
118	0x3f5323df	0.8247661
119	0x3f8cac05	1.0989996
120	0x3f2ab408	0.66680956
121	0x3f6dcb31	0.9288817
122	0x3f14ac9b	0.58075875
123	0x3f39adf1	0.7253104
124	0x3f447d38	0.7675357
125	0x3f76c93b	0.96400803
126	0x3f36807d	0.7128981
127	0x3f3dc39f	0.7412662
128	0x3f3acc82	0.72968304
129	0x3f3a04bb	0.7266347
130	0x3f4fcd97	0.8117308
131	0x3f2c480e	0.67297447
132	0x3edbbf40	0.4291935
133	0x3f2dc2f4	0.678756
134	0x3f5505f4	0.8321221
135	0x3f9c8e9f	1.2231025
136	0x3f552e9e	0.8327426
137	0x3f5eb532	0.8699523
138	0x3f2c765b	0.67368096
139	0x3f64227b	0.89115113
140	0x3f0de5d4	0.55428815
141	0x3f695924	0.9115164
142	0x3f70929c	0.9397371
143	0x3f609467	0.87726444
144	0x3f653e25	0.8954795
145	0x3f125e4b	0.5717513
146	0x3f687e91	0.90818125
147	0x3f492574	0.78572774
148	0x3f3874d3	0.7205326
149	0x3f3f5013	0.7473156
150	0x3f54a888	0.8306966
151	0x3f641c42	0.8910562
152	0x3b0b1bc2	0.0021226262
153	0x3f5d8f3d	0.8654669
154	0x3fa787fe	1.3088377
155	0x3f56009c	0.8359468
156	0x3f58618d	0.8452385
157	0x3f2b9960	0.67030907
158	0x3f49c576	0.78816926
159	0x3f2744eb	0.65339535
160	0x3f4f1517	0.80891556
161	0x3f3ed5ed	0.74545175
162	0x3f6003ee	0.87505996
163	0x3faa7029	1.3315479
164	0x3f3fef28	0.749743
165	0x3f2a804f	0.66602033
166	0x3eadfa88	0.33980203
167	0x3f5c21f1	0.8598929
168	0x3f66fae9	0.9022661
169	0x3f552949	0.8326612
170	0x3f1f619d	0.6225832
171	0x3f93a52a	1.1534779
172	0x3f4bf9c3	0.7967798
173	0x3f74a7e2	0.9556867
174	0x3ebaf9c1	0.36518672
175	0x3f56bd3d	0.83882505
176	0x3f6fa73f	0.9361457
177	0x3f2c6e73	0.6735603
178	0x3fb18e0d	1.3871475
179	0x3f683fa1	0.9072209
180	0x3f57290e	0.8404702
181	0x3fb4ac80	1.4115143
182	0x3f85d2dd	1.0454975
183	0x3f4a8e7d	0.7912367
184	0x3f00931e	0.50224483
185	0x3f61d6d9	0.88218457
186	0x3f3774e7	0.71662754
187	0x3f5117d7	0.81677
188	0x3f7b054c	0.9805496
189	0x3f53b8fe	0.8270415
190	0x3f7e5ce5	0.99360496
191	0x3f5211ee	0.8205861
192	0x3f52fafb	0.82414216
193	0x3f6405bc	0.8907125
194	0x3f5e8b9f	0.86931795
195	0x3f6881fb	0.90823334
196	0x3f710ae6	0.94157255
197	0x3f52cdab	0.82345074
198	0x3f2969b4	0.66176915
199	0x3f4d9e81	0.8031998
200	0x3f46b6ae	0.776225
201	0x3f17d286	0.5930561
202	0x3f203e28	0.6259484
203	0x3f5233ef	0.82110494
204	0x3f68567d	0.9075697
205	0x3f66c0d3	0.90137976
206	0x3f04b6c8	0.518414
207	0x3f2b2a9d	0.668619
208	0x3f5460ec	0.8296039
209	0x3f7b6d39	0.98213536
210	0x3f6780e3	0.9043104
211	0x3f53e3a6	0.8276924
212	0x3f6fc08c	0.9365318
213	0x3f543053	0.82886237
214	0x3f579dbf	0.84225076
215	0x3f3cebc3	0.73797244
216	0x3f5c460f	0.860444
217	0x3f5e5f2d	0.86863977
218	0x3f5f2162	0.87160313
219	0x3f19913d	0.5998724
220	0x3f62fec6	0.88670003
221	0x3f2b6d6a	0.6696383
222	0x3f5ca20c	0.86184764
223	0x3f619609	0.8811956
224	0x3f4855f9	0.78256184
225	0x3f6fff09	0.9374853
226	0x3f8cefd6	1.1010692
227	0x3f1489a0	0.580225
228	0x3f76f558	0.96468115
229	0x3f41ee27	0.75754017
230	0x3f573666	0.8406738
231	0x3f45367c	0.7703626
232	0x3f0e8ec1	0.55686575
233	0x3f41b554	0.7566731
234	0x3f68ae12	0.9089061
235	0x3faf7c71	1.3709852
236	0x3e4fd34f	0.20295452
237	0x3ef28da1	0.4737368
238	0x3f301afd	0.6879118
239	0x3e67bbcd	0.22630234
240	0x3f1d6a1e	0.61490047
241	0x3f18112b	0.59401196
242	0x3f53d106	0.8274082
243	0x3ed6f451	0.41983274
244	0x3f5f2b9c	0.8717592
245	0x3f723acc	0.94620967
246	0x3f513a1f	0.8172931
247	0x3f316611	0.69296366
248	0x3f2ccbbf	0.6749839
249	0x3f39b548	0.7254224
250	0x3f30b9d8	0.69033575
251	0x3ec3f04d	0.38269272
252	0x3f878a72	1.0589125
253	0x3f6fab98	0.93621206
254	0x3e9192e5	0.28432384
255	0x3f58853b	0.84578294
