医学影像/EV_GCN/save_models/ev_gcn/fold6.pth (torch, 543861 bytes, 20 tensors)

gconv.0.weight f4 [3, 2000, 16]
000000 19 0a aa bc 16 31 cb 3c 3b f6 0e 3d a9 50 a8 3c
       -0.020756768 0.02480368 0.034902792 0.020546274
000010 e1 90 50 3d 14 47 5c bd a3 ac 8a bd 7c 54 1b bd
       0.050919417 -0.053778723 -0.06771209 -0.037922367
000020 d5 49 39 3d 00 f9 a2 3d 1d 6f 4f 3b 9f 85 9d bc
       0.045236427 0.07957649 0.0031651922 -0.019228755
000030 66 ef 81 bd 9e 00 7c 3d f5 2f 91 bd 51 e7 68 bd
       -0.0634449 0.061524026 -0.07089225 -0.056861226
000040 45 fd 4b 3d da 0d 7d bd db f2 0f 3d 93 77 03 3d
       0.049802084 -0.061780788 0.035143714 0.032096457
000050 3e 3f 48 3d d9 bc a2 bd ed 93 b8 bd 7b 1f 27 bd
       0.048888437 -0.07946176 -0.090125896 -0.040801506
000060 10 98 06 3d ae de 7c 3d cb 27 a8 bd 5e b6 07 bd
       0.03285986 0.0617358 -0.08210715 -0.033132903
000070 a8 20 1f bd 04 0d aa 3d fb d4 a7 bd 84 70 3f bd
       -0.038849503 0.08303264 -0.0819492 -0.046738163
000080 b2 d4 77 3d 27 d7 77 3c dc 47 3e 3d 37 ff 24 3d
       0.060505576 0.01512698 0.04645525 0.040282454
000090 04 cb 8a 3d fc 9b 77 bd 39 9c 59 bd 32 40 9f bd
       0.067770034 -0.060451493 -0.0531275 -0.07775916
0000a0 fd be ab 3d de 11 17 3d 87 1b 05 bd 1a 48 99 bd
       0.083860375 0.036882274 -0.032496955 -0.074844554
0000b0 2a 3d 5c bd 80 eb 3a 3d 0c 34 d2 bd 62 03 bc bd
       -0.053769268 0.045634747 -0.102638334 -0.09180333
0000c0 7d d7 68 3c d1 ca 99 3d f5 c4 50 3c e1 f4 c0 3c
       0.014211533 0.07509387 0.012742271 0.023554267
0000d0 a7 49 a0 3d 34 91 6d bd 6e b9 36 bd 72 ff 6a bc
       0.07826548 -0.057999805 -0.044610433 -0.0143431295
0000e0 a2 97 3a 3d ab 1a 9b 3d 02 06 4b 3b 53 a8 a7 bc
       0.045554765 0.07573446 0.0030978923 -0.020466005
0000f0 b9 9b 90 bd 19 53 99 bd 3a 59 e6 bb 6b 58 6f 3c
       -0.07060952 -0.07486553 -0.0070296796 0.014608483
000100 85 f3 23 3d d7 a7 1a bd 53 6c 64 bd d5 5f 0d 3d
       0.04002716 -0.03775772 -0.05576737 0.03451522
000110 7d 59 89 3d 1a e1 97 bd b5 b0 e1 bd 7c 82 8d bd
       0.06706522 -0.074159816 -0.11020032 -0.069096535
000120 ee 27 88 3d a0 27 33 3d 92 d9 8a bd 13 80 f0 3c
       0.06648241 0.04373896 -0.067797795 0.029357946
000130 d4 0d 03 bd fe 70 5b 3d 2c cf e1 bd 4a bd 1a bd
       -0.03199561 0.053574555 -0.11025843 -0.037778176
000140 0f 38 1d bd f9 fc b3 3a 38 b9 7a bc db de 27 3d
       -0.03838354 0.0013732008 -0.015302949 0.040984016
000150 fd 52 c0 3d e4 7b 0e bd e6 15 19 bb 9b 74 a7 bc
       0.09390829 -0.03478612 -0.0023359 -0.020441344
000160 f0 38 ba 3d dc 22 14 3d 8d 72 b9 3a 00 d9 5b bd
       0.09092891 0.036166057 0.0014148519 -0.053673744
000170 21 07 91 bb 27 aa c1 3d 1c c3 ac bd fb e1 34 ba
       -0.0044258987 0.09456282 -0.08435652 -0.0006900129
000180 21 4b 81 bc 7a 58 25 3c 58 5f 93 3b e1 ed 81 3c
       -0.015782895 0.010091895 0.00449745 0.0158605
000190 55 23 ae 3d c0 57 9a bc 15 48 c9 bd 36 84 1c bd
       0.08502833 -0.01884067 -0.09828202 -0.038212024
0001a0 32 9a 0a 3d 87 f3 7b 3d 8c d9 73 bc f8 d7 a2 bd
       0.03383846 0.061511543 -0.01488341 -0.07951349
0001b0 11 4d 2d bb cd 8d 20 3d e7 8f dc ba 6c b0 63 bd
       -0.002644364 0.03919773 -0.0016827554 -0.05558817
0001c0 f1 1c 66 bd 36 6e 18 bc 53 9a 0d bd 4e a1 58 3c
       -0.056179944 -0.00930362 -0.034571003 0.013222052
0001d0 21 f3 a6 3d 80 45 f5 3b a7 b5 bf bd 3f 07 bd bd
       0.08151842 0.0074850917 -0.09360819 -0.09229898
0001e0 a7 37 34 3d b6 d3 a2 3d 44 62 ac bd ff 24 17 bd
       0.043998387 0.07950537 -0.0841718 -0.036900517
0001f0 a4 b5 96 bd 06 c5 ce bd a8 7e da bd db f1 3f bd
       -0.07358864 -0.10096173 -0.10668689 -0.04686151
000200 25 e4 0d 3d 8b d3 3a 3b f0 60 d6 3c 9e bf 2c 3d
       0.034641404 0.0028507437 0.02616927 0.042174928
000210 78 78 65 3d 6b a3 00 bc 90 3e b8 bd d7 e4 fe bc
       0.05602309 -0.007851462 -0.08996308 -0.031114979
000220 52 05 d4 3d 86 f3 34 3d 4d bb be bd c8 e9 4f b6
       0.10352577 0.044177555 -0.093130685 -3.0981482e-06
000230 79 92 f5 bb 94 6f 92 3c 52 04 0b bd 74 d1 e0 bc
       -0.0074942675 0.01787547 -0.033939667 -0.027443625
000240 c3 c3 08 bd ed 48 b2 bc 94 22 d8 3c a4 a8 63 3d
       -0.033389818 -0.02176329 0.026383676 0.05558075
000250 29 e0 8a 3c 1f 1c b7 bd 85 4d c0 bd 92 07 46 bd
       0.016952591 -0.089409105 -0.09389786 -0.048347063
000260 74 a6 0c 3d ea bd 96 3d e2 c4 91 bd bf 03 2b bd
       0.03433843 0.07360442 -0.071176305 -0.04175162
000270 69 34 aa 3c ae 28 d7 bd 5f 8a 88 bd 7e 5a ad bd
       0.020776944 -0.10505806 -0.06667017 -0.08464526
000280 2e aa 99 bc 9e 42 3f 3c dc 59 69 3d 27 64 a9 3d
       -0.018757906 0.011673598 0.056970462 0.08271056
000290 23 cb 9d 3d 62 c9 7e bb 5a e4 4a bd fa 8d 1d bd
       0.07704761 -0.0038877358 -0.04953418 -0.038465478
0002a0 f2 88 d7 3c 8b 10 76 3d 49 fd 34 bd fb cc ae bc
       0.026310418 0.06007437 -0.044186864 -0.021337977
0002b0 01 4b 24 bc 18 1c d1 bc 6b 9c 16 bd 18 fb 37 bd
       -0.010027648 -0.025526091 -0.036770266 -0.044917196
0002c0 3c 9b f9 bc bf 93 d5 3c 9f 55 c5 3c c1 48 a2 3d
       -0.03046953 0.026071427 0.024088679 0.07924033
0002d0 85 c3 c5 3d eb 8e 83 bc ab 9f e6 bc dc b8 c1 bc
       0.09656433 -0.01605936 -0.028152307 -0.023647718
0002e0 7d 8b 6f 3d 41 c0 b4 3d 4c 40 9e bd f3 2c 1c bd
       0.058482636 0.08825732 -0.077271074 -0.038128804
0002f0 59 af 92 bd ab 86 08 3a 9f a7 c5 bd 5a 74 65 bc
       -0.07162351 0.00052080554 -0.09651112 -0.014004791
000300 90 7a 60 3c b6 03 16 3d 2a 90 0f bb 61 02 00 3e
       0.013701096 0.036624633 -0.0021905997 0.12500907
000310 3c e2 0f 3d d4 0a e8 3b 8c 21 81 bc 2d f9 2d bd
       0.035127863 0.007081369 -0.015763067 -0.04247396
000320 0a 17 aa 3d 1e 8c 36 3d e8 12 3e bd 20 3d 59 bd
       0.083051756 0.04456722 -0.04640475 -0.05303681
000330 d1 0b 3e bd 04 c3 b4 bd 62 f8 94 bc ab ab 37 bb
       -0.046397988 -0.08826259 -0.018184844 -0.0028025906
000340 b2 ee 64 3c 88 75 73 3c a9 95 55 3c 06 ca 08 3d
       0.013972925 0.014859565 0.01303617 0.03339579
000350 68 6a 13 3d 3b f6 b9 bd a6 75 8d b9 16 1f 9c bc
       0.03599015 -0.09080168 -0.0002698127 -0.019057792
000360 f1 09 0a 3d 95 c4 80 3b ff 9b cd bd df 5d ac bd
       0.033700887 0.0039296844 -0.100395195 -0.08416342
000370 b3 cf 50 bd 76 70 90 bd 18 3b e9 bb c8 2a 97 bc
       -0.050979327 -0.070527 -0.00711764 -0.018453017
000380 f6 2b 48 bd c3 09 09 3d a6 7c 0c 3d d8 70 80 3d
       -0.04887005 0.033456575 0.03429856 0.06271523
000390 2a 0d 35 3d 2d 0c 88 bd b6 e3 2b bd c2 6a 94 bd
       0.044202007 -0.06642947 -0.04196521 -0.07246925
0003a0 f6 9e e4 3d f2 e6 d3 3d df e9 c3 bc ac b8 70 bc
       0.11163132 0.10346784 -0.02391523 -0.014692467
0003b0 e9 9d 1a 3c f4 21 e6 3c 21 aa ad bd 8e d7 0e bd
       0.009437063 0.028092362 -0.08479715 -0.034873538
0003c0 2e 36 77 bd 69 5b ad 3c 8e 96 27 3c 8b 4f b4 3d
       -0.060354404 0.021161752 0.010228766 0.08804234
0003d0 cf 28 e8 3d 83 21 83 bd 90 79 8b bc 31 9c ba bd
       0.113359086 -0.06402876 -0.017025739 -0.091118224
0003e0 05 11 df 3c 52 f7 25 3c a2 65 63 bc fa 24 ee bb
       0.027229795 0.010129767 -0.013879212 -0.0072675915
0003f0 58 c4 9f bd a2 12 a7 3c fc 19 ce bc a5 6b db bd
       -0.078011215 0.020394627 -0.025158875 -0.10713891

gconv.1.weight f4 [3, 16, 16]
000000 b8 14 8b bd ba ca d0 3c c2 aa ad be a5 5f 1b bd
       -0.06791061 0.025487293 -0.3391934 -0.03793301
000010 36 74 51 be de c7 d1 bd cd 8e 97 be 41 0e c7 be
       -0.20454487 -0.102432 -0.29601136 -0.38878062
000020 95 aa 40 3e 90 56 7c 3e 73 2c 67 3e 8c a1 be 3e
       0.18815072 0.24642396 0.2257555 0.37232625
000030 56 1a 07 3d e4 13 e9 3d da 43 cc bd ba a3 8c be
       0.0329841 0.11380747 -0.09973879 -0.27468663
000040 0e 48 c3 be 46 f4 bb be 2f a5 b9 3e 3f 72 6d 3d
       -0.3814091 -0.36709803 0.36258838 0.05797028
000050 70 0d 8a bd f8 2b 24 be 81 6b 45 3e 6e 3c 81 be
       -0.06740844 -0.16032398 0.1927929 -0.25241417
000060 aa ba 9b be af 34 5d 3e 77 84 63 3e 4c 1d d5 3d
       -0.3041585 0.21602128 0.222185 0.104059786
000070 ca a3 d8 be 1c d7 d7 be 01 14 2f ba 76 52 86 3d
       -0.4231246 -0.42156303 -0.0006678701 0.06558697
000080 58 e0 28 bd d3 21 88 bc 84 64 b0 3e d7 aa 8d 3e
       -0.041229576 -0.016617691 0.34451687 0.27669403
000090 3c 9f ee bb f6 cd 85 be 27 a1 75 be c6 f3 8d 3e
       -0.007282166 -0.26133698 -0.23987256 0.27725047
0000a0 bd 41 e0 3e fb 16 c7 3e 8e 36 f1 bd 05 86 e5 be
       0.43800154 0.3888472 -0.117779836 -0.4482881
0000b0 02 34 bc 3e b7 8b 36 be c7 61 26 be 5d e3 c2 be
       0.3675843 -0.17826734 -0.16248237 -0.3806409
0000c0 ae d4 41 be ef 34 d1 be 73 fe 86 be f7 d3 bb be
       -0.18928787 -0.40860698 -0.26366004 -0.36685154
0000d0 82 0a 30 3e 5e 82 8e 3d fd c1 59 3e 39 8b ea 3d
       0.17191508 0.06958459 0.21265407 0.11452336
0000e0 54 24 16 be 1c 07 9e be e0 5f 90 be e6 58 31 3e
       -0.14662296 -0.308648 -0.28198147 0.17319068
0000f0 a0 eb e3 3d 2e ef 8f 3d f5 65 61 bd 98 e0 5a be
       0.11128926 0.07028042 -0.055028874 -0.21374738
000100 84 c6 89 3e 28 e5 4c be 78 91 9f 3e 93 81 64 3d
       0.26909268 -0.20009291 0.3116567 0.055787634
000110 9f e7 3b 3d 5d c6 af be 19 c7 d9 3d fc 1a aa bd
       0.045875188 -0.34331027 0.10633678 -0.08305928
000120 4d 40 c8 be 8f 6e 13 3e 2f 1c 5e 3d 9f c1 ce 3e
       -0.39111558 0.14397644 0.054226097 0.40382096
000130 5b d9 75 3e 31 a5 86 3d 85 98 0f bd bb 55 8a 3d
       0.24008696 0.065744765 -0.035057563 0.06754633
000140 7f 58 b0 bd ba c8 bd be 3a 1e 9f 3e 5f 1e b4 be
       -0.08610629 -0.37067205 0.3107775 -0.3517942
000150 80 d4 8f be 9b 17 b7 be 50 e3 f9 3d 16 01 2e 3e
       -0.28091812 -0.35760197 0.122015595 0.16992602
000160 b0 f8 47 3e 73 17 af 3e 37 62 c7 3e e0 94 ba 3e
       0.1952846 0.34197578 0.3894212 0.36441708
000170 af 9a d0 bc a3 bb c5 be 6d 56 b9 bd 86 21 06 be
       -0.025464384 -0.38619718 -0.090496875 -0.13098726
000180 c0 62 fb 3e 53 f8 15 be a6 73 aa 3e 68 10 e0 bc
       0.49098778 -0.1464551 0.33291358 -0.027351573
000190 e7 4e 80 be 6d 2d b4 be ca 5b c4 3e 4b 6f b1 be
       -0.25060198 -0.35190907 0.3835128 -0.34655222
0001a0 8c bf 08 3e f0 d6 0a 3c 1b ad 8c be 4a ba 57 be
       0.1335432 0.008474097 -0.2747582 -0.21067157
0001b0 72 13 84 be 7c 6f 7d 3e 7c 7f 87 3e 65 cf ed 3e
       -0.25796086 0.24749559 0.2646445 0.46447292
0001c0 10 19 5e 3e ac 1b 82 3e 61 b3 94 3e e5 12 cb 3c
       0.21689248 0.25411737 0.29043105 0.024789283
0001d0 6d dc 66 3d 79 5c 69 be 74 66 61 be 1b 8b 07 3e
       0.05636256 -0.22789182 -0.22011739 0.13236658
0001e0 28 74 4e 3d 89 bd 94 3e 7e ae 73 3e c6 de 20 3e
       0.050403744 0.29050854 0.23797032 0.15709981
0001f0 2b c4 d2 3e a4 a0 9e be 40 fb b8 be cc 0c 92 3e
       0.4116529 -0.30981934 -0.3612919 0.28525388
000200 76 0f 94 3e bc a2 ce 3e 92 c0 2e be 9b e3 36 3e
       0.28918046 0.4035853 -0.17065647 0.17860262
000210 21 77 d4 bd 0c 7d 97 bd 61 48 a2 be c2 80 97 be
       -0.103742845 -0.07396898 -0.31695846 -0.29590422
000220 44 4c c2 be 54 46 e4 3c 20 19 d9 3d 95 2c ed 3d
       -0.3794881 0.027865566 0.10600495 0.11580769
000230 2f 1c 8f 3d 77 2c a2 be 20 61 8c be ae b3 f9 3c
       0.069877975 -0.3167455 -0.2741785 0.030481186
000240 c6 fa 8e 3e 55 72 30 be e0 8f c0 be bb c2 d8 be
       0.279257 -0.17231114 -0.37609768 -0.42336068
000250 e2 3c 59 be c4 62 26 3e 0a eb 74 3c f4 2b c5 be
       -0.21214631 0.16248614 0.014948616 -0.38510096
000260 96 37 dc bd d0 a5 73 3e bc 09 86 be 11 33 80 3d
       -0.1075279 0.23793721 -0.26179302 0.0625974
000270 9b be 36 be 33 eb d6 be 41 96 f0 be 27 81 b2 be
       -0.17846148 -0.41976318 -0.46989635 -0.3486416
000280 f6 76 93 be 45 a4 a2 bc b0 ab 91 be af 83 b8 be
       -0.28801697 -0.01985372 -0.284513 -0.36037967
000290 bf e4 1c be d1 5e c3 bd a2 2b 9d be 55 4d 95 3e
       -0.15321635 -0.09539569 -0.30697352 0.29160562
0002a0 5b c5 a6 3e 80 12 8f be 8f 34 21 3e d2 38 b3 be
       0.32572445 -0.27943802 0.15742706 -0.35004288
0002b0 24 5c b8 bd 23 cd a4 3e a8 37 f8 3d 57 47 88 bd
       -0.090019494 0.32187757 0.121199906 -0.06654232
0002c0 d4 a5 7a 3e dd 7f a6 3e 47 84 ce 3d be 35 f1 3e
       0.24477321 0.32519427 0.10083824 0.47111315
0002d0 47 31 a7 bd 5c 7b 86 3e 2b 8a 05 3e 4c c5 f3 be
       -0.08163696 0.2626599 0.13040988 -0.47611463
0002e0 0c 3e 15 be 50 c0 89 be 37 1f 86 be fe 6c 99 be
       -0.1457445 -0.26904535 -0.2619569 -0.29965967
0002f0 e8 1e ad 3d 77 cd 76 bc 95 42 ef be 2f 69 93 be
       0.084531605 -0.015063635 -0.46730486 -0.28791186
000300 f5 2c 07 be 0f 51 1d 3d 7e 8a 25 be 8f 37 b2 be
       -0.13200743 0.03840738 -0.16166112 -0.34808013
000310 3f be dc be d9 93 76 bd 7b 54 e8 bd 3f 8f 37 3e
       -0.43113896 -0.060199592 -0.11344238 0.17925738
000320 c1 a6 b6 3c 90 aa da be c8 57 09 bd 86 a8 a1 bd
       0.022296311 -0.42708254 -0.03353098 -0.078934714
000330 45 61 6d 3d b1 77 db be b6 a5 94 3e 6f d0 0b 3d
       0.05795409 -0.42864755 0.29032677 0.034134325
000340 9b 00 b7 be aa ae d6 3b a0 73 b4 be 42 92 0f be
       -0.3574265 0.0065515833 -0.35244465 -0.14020637
000350 2e 9e ba 3d 6d 83 96 3e 72 de 88 bd 66 d2 70 3e
       0.09112202 0.29397145 -0.06683053 0.2351776
000360 a1 75 bb be 5c 54 ba be 70 68 3d 3e fc 53 d3 3e
       -0.3661318 -0.36392486 0.18496871 0.41275012
000370 d4 f0 b1 bc d0 0b 60 be f9 75 73 3c 9f b5 1b 3e
       -0.021721281 -0.21879506 0.01485967 0.15206002
000380 b1 5c 60 be 02 bd 51 be 7f 0c 9d 3e 14 f7 25 3e
       -0.21910359 -0.20482257 0.30673596 0.16207534
000390 8c 01 20 3d 1e 0c 7e 3d bc 74 3d 3e 63 6a dc bc
       0.039063975 0.062023275 0.18501562 -0.026906198
0003a0 2c 4c d0 3e b8 d8 f9 3d 16 97 db 3e d0 ca c1 3e
       0.40683115 0.12199539 0.42888707 0.37850046
0003b0 fe 6a 87 3e 29 cb e5 3e 12 8e 83 3d f3 c1 82 bd
       0.26448816 0.4488156 0.06423582 -0.06384649
0003c0 b7 4a 0a bd 44 8d 60 3e f0 e5 c9 be 47 3e c5 be
       -0.03376266 0.21928889 -0.3943324 -0.38524076
0003d0 b9 4e 82 3e 2c bc 00 3e b8 60 9f 3e 74 fb b1 3d
       0.25450686 0.12571782 0.31128478 0.08690539
0003e0 94 67 a2 be 88 f7 2e be 31 e2 84 3e 7f 6d d9 3e
       -0.3171965 -0.17086613 0.2595382 0.4246635
0003f0 07 05 d4 3e 31 73 70 3d ec e7 8b be a4 b5 97 3e
       0.41410086 0.058703605 -0.2732538 0.29630768

gconv.2.weight f4 [3, 16, 16]
000000 fc 56 26 bb bf da 87 3e e1 44 2e bd cf b4 22 be
       -0.0025381437 0.26534078 -0.042546157 -0.15889286
000010 f1 98 a1 3d 2d df 9e be 5d 04 ba 3b 72 c9 91 be
       0.078904994 -0.31029645 0.0056767897 -0.28474003
000020 3b a1 26 3e 8b 6b 7c 3d ab f0 01 be ab 45 9f 3e
       0.16272442 0.061626 -0.12689464 0.3110784
000030 2d e3 d7 be 78 16 c6 3e 5c c3 25 3e ba 35 7d 3d
       -0.4216551 0.38689017 0.16187805 0.061818816
000040 74 a4 18 3e 75 9b c5 be e6 ca be be 5d 36 e0 3d
       0.14906484 -0.38595167 -0.37264174 0.10947869
000050 43 6e 24 bd 91 83 53 3e 4d 5c cf 3d 74 0f 94 be
       -0.040144216 0.20655657 0.10125027 -0.2891804
000060 36 cf d6 3e 10 85 4d bd 30 ae 1f 3e 62 82 93 be
       0.41954964 -0.050175726 0.15593791 -0.28810412
000070 03 e7 72 3e 0d a5 33 be e8 02 ee 3d 52 3d 01 bd
       0.23720936 -0.1754343 0.11621648 -0.03155262
000080 11 d6 1d 3d df 17 13 be 45 b4 da bd 76 67 a7 be
       0.038534228 -0.14364575 -0.10678915 -0.32696122
000090 5f c0 46 be 5d 91 87 3d 67 84 95 be 34 3a 8e 3c
       -0.19409321 0.06619523 -0.29202577 0.017361738
0000a0 46 56 ae 3e 36 18 f1 3e 5e 6f 83 be 9e 7b 1c be
       0.34050196 0.47088784 -0.25670904 -0.15281531
0000b0 a3 de 89 be e3 c2 da 3e 35 23 f7 bd 96 a9 bd be
       -0.2692767 0.42726812 -0.12067262 -0.37043446
0000c0 9c 7e 5a 3d 78 4b b7 be 65 ff c8 3e a6 1b b1 3d
       0.0533434 -0.35799766 0.3925735 0.08647852
0000d0 9b 93 a6 be ff cd c3 3b 21 9a b8 3e 83 0c 26 3e
       -0.3253449 0.0059754844 0.3605509 0.1621571
0000e0 b0 f7 eb be 9e 51 41 3e 35 51 68 be cc ec bf bd
       -0.46087408 0.1887879 -0.22687228 -0.09371337
0000f0 09 0e e4 3e 64 63 23 be b5 ae 03 be 04 f8 7f bd
       0.44541958 -0.15955883 -0.12859614 -0.062492386
000100 45 b4 5f bc 33 14 de be 7b d8 15 3e bb 45 99 bc
       -0.013653819 -0.43374786 0.14633362 -0.018710008
000110 0b 67 d6 bb 4e 7c da 3c 27 dc 69 3e aa ed 45 3e
       -0.0065430454 0.026670601 0.22837888 0.19328943
000120 b8 97 b5 3e 61 83 2d be 0e a5 af 3e 8e 66 ac 3e
       0.35467315 -0.16944648 0.34305614 0.33671993
000130 ed e9 b7 3e f2 50 e0 3d fc 98 af be 0b 4b 9f 3d
       0.3592066 0.10952939 -0.34296405 0.07777985
000140 04 01 b5 3e 76 b3 fc bd 8a 84 f9 3e fd 8c 07 be
       0.35352337 -0.12338917 0.48733932 -0.13237377
000150 48 c8 af be 09 f4 c8 3d eb 29 d5 3e fc 12 ee 3d
       -0.3433249 0.09812171 0.41633543 0.11624715
000160 73 60 d3 3d 3f 98 6e be 3b ce 69 bd 41 c9 ee be
       0.103211306 -0.23300265 -0.057081442 -0.4663792
000170 b7 61 d0 3e 2e 33 7c 3e 60 f8 db be a1 ca 0e bd
       0.4069955 0.24628899 -0.42962933 -0.03486121
000180 8f 7b 89 3d 31 b1 a9 3e 2a e5 25 3e ab 02 a4 bd
       0.0671302 0.33143 0.162007 -0.080083214
000190 8d 61 cd be 1a 2a 3a be 5c 86 e4 bb 81 25 ad be
       -0.40113488 -0.18180123 -0.0069740247 -0.33817676
0001a0 37 a5 9e 3e 30 8f e2 3e 54 61 9b 3e e0 1d 76 be
       0.30985424 0.44249868 0.30347693 -0.24034834
0001b0 a8 09 95 bd 49 55 9b be e4 ec fe 3d 72 ad 99 bd
       -0.072772324 -0.30338505 0.12447527 -0.07503785
0001c0 cd d5 ca be 37 35 37 3c 3b 87 e1 3b d4 c5 a4 be
       -0.39616242 0.011182121 0.006882576 -0.3218218
0001d0 9d f3 b8 3d fb 0a 4e 3e be a1 78 3e 72 45 2b bd
       0.090308405 0.20121376 0.2428045 -0.041814275
0001e0 e2 5b 71 be 23 b6 be bd 1d b4 97 be ab 69 5a bd
       -0.23570207 -0.093120836 -0.29629603 -0.05332343
0001f0 64 fa 19 3e 78 d1 ae 3c 38 9f 2a 3e 5e 98 a3 3e
       0.15036923 0.021340117 0.166623 0.31952184
000200 92 d1 e8 3e bb c4 c2 3e 7e e1 b7 3e 0b ec a7 3b
       0.4547239 0.38040718 0.35914224 0.005124574
000210 89 7d c7 3e e5 62 1a 3d 1e bb eb 3d e8 77 2a 3e
       0.38962963 0.03769197 0.11510299 0.16647303
000220 8d 2a 6b 3e bb cc d9 3e 14 76 49 3e 1b cd ee bd
       0.2296545 0.4253901 0.1967395 -0.116602145
000230 4e a2 35 bd e6 b4 5b 3e 59 16 65 3d 11 dc ac be
       -0.04434424 0.21455726 0.055929516 -0.33761647
000240 b0 17 9c 3e 8c f9 06 3e 37 60 62 be 73 0f b2 bc
       0.30486822 0.13181132 -0.22107016 -0.021735882
000250 cc 1b b5 3e 73 1c 14 be d9 ea 38 3e 23 5b 64 be
       0.3537277 -0.14463978 0.18058337 -0.22300391
000260 32 ea 12 3e 6a fb d8 3d 92 cc 2e be 2a c4 9f be
       0.14347151 0.105948284 -0.17070225 -0.3120435
000270 6e 8f d4 3d c7 78 98 3e 2f 5d ec 3c 5d b1 e9 3d
       0.103789195 0.29779646 0.028853027 0.114107825
000280 a6 bd 72 bc 15 aa 45 3e 82 8b 10 be d5 5f 80 be
       -0.0148157235 0.19303162 -0.14115718 -0.25073114
000290 09 55 a3 3e c7 35 2a 3d ba b5 af be 7a 57 ad 3e
       0.31900814 0.041555192 -0.34318334 0.33855802
0002a0 3f e7 8f 3e 48 4c e8 3d bf 88 41 3e 40 a3 55 be
       0.28106114 0.113426745 0.1889982 -0.20863056
0002b0 d2 8f fb 3d d3 d3 d8 3e 80 53 4e be f5 fd 71 bd
       0.12283291 0.4234911 -0.2014904 -0.059080083
0002c0 85 4e 6b be 05 b3 0b 3e 33 e1 e4 3e 22 e7 a7 3e
       -0.22979172 0.1364251 0.44703063 0.32793528
0002d0 ff 99 92 be 56 0e 0d be f6 37 99 be 83 43 cb be
       -0.28633115 -0.13775 -0.29925507 -0.39699945
0002e0 14 b4 81 3d 43 02 10 3e ca d5 96 be ac b0 8b be
       0.06333175 0.14063363 -0.29459983 -0.27283227
0002f0 ca 0f 34 3e 23 d3 f2 3e 40 76 26 be f3 fc a5 be
       0.17584148 0.4742671 -0.16256046 -0.32419547
000300 67 ec 68 3e b0 91 42 be 5b a5 e4 3e 69 e1 86 be
       0.2274643 -0.19000888 0.44657406 -0.2634385
000310 f7 59 a6 be 4b 21 b4 3e b1 0d 66 be 92 f6 55 be
       -0.32490513 0.3518165 -0.2246616 -0.2089484
000320 57 44 bf 3e f4 33 1b 3d 51 a0 5c be 66 ec b7 bd
       0.37356827 0.037891343 -0.21545531 -0.08980636
000330 5d e8 96 3e 10 e4 bc 3e 5b 30 11 be fb 22 c9 3e
       0.29474154 0.36892748 -0.14178602 0.392845
000340 ee 08 08 3e e1 7c 5f 3e 8b 7c b3 bd a4 3b d4 3e
       0.13284656 0.21824981 -0.08763989 0.41451752
000350 d0 13 97 be 43 9f 81 be 49 46 93 3e 81 6d f0 3e
       -0.29507303 -0.2531682 0.2876456 0.46958545
000360 9e a1 a8 be 42 5b 51 3e 7f 86 a6 be 8d d2 45 3d
       -0.32935804 0.20444968 -0.32524487 0.0482965
000370 cb 78 f9 3e 77 61 37 3e c0 85 38 be f7 25 a5 3e
       0.4872497 0.17908274 -0.18019772 0.32255527
000380 97 c6 05 be d1 25 98 3e 86 05 5b bd 32 b7 06 bc
       -0.13064037 0.29716352 -0.053472064 -0.008222388
000390 c1 3b 9f 3e 0c 07 a4 be 77 0c 0a bd 79 2c cb 3d
       0.31100276 -0.32036626 -0.033703294 0.09920592
0003a0 81 73 e4 3e 7e c1 ab 3e b0 2d 95 3c f4 d0 95 3e
       0.44619372 0.3354606 0.018210262 0.2926098
0003b0 df ac e6 3d 61 a3 ed 3e ac 8e a7 be 20 cf a6 3e
       0.11263441 0.4641371 -0.32726038 0.325799
0003c0 30 5b 63 be e1 81 a9 3e e9 7c 7d 3e 0a 9b c7 3e
       -0.22202754 0.33106902 0.2475468 0.38985473
0003d0 4f 6c 15 3e 41 9d 89 be 2b e9 4d 3e 8c ac 88 bd
       0.14592098 -0.26877788 0.20108478 -0.06673536
0003e0 6e 28 53 be 21 27 0f be 4d e8 73 3e e7 ad 07 3e
       -0.20620891 -0.1397977 0.23819084 0.13249932
0003f0 84 8c e4 3b 14 30 b2 3e b9 d8 a8 3e 45 3e 88 3d
       0.0069747586 0.34802306 0.32977846 0.06652502

gconv.3.weight f4 [3, 16, 16]
000000 11 0c 64 bd 98 dd c6 3e 3a 1d 91 3d 23 db 71 3b
       -0.05567557 0.38840938 0.07085653 0.0036904297
000010 af 42 ae bd 73 aa 1b 3e 20 9d 17 3e ff cb 32 be
       -0.08508813 0.1520174 0.14806032 -0.17460631
000020 6a 9a ab 3d 33 db 94 be 28 8a 4e bd e7 c6 61 3c
       0.083790615 -0.29073486 -0.050424725 0.013780332
000030 d3 ba a2 bd 99 06 ad be 18 dd 14 be b9 58 0a be
       -0.0794579 -0.33794096 -0.14537466 -0.13510408
000040 44 6e aa 3e 5a 29 3a bd 52 d2 01 be ba 86 af be
       0.3328725 -0.045449592 -0.12677887 -0.34282476
000050 3e d8 c3 3d ef c5 e5 bd be 5e 10 bc 4e 6d 5f 3e
       0.09562729 -0.112193935 -0.008811651 0.2181904
000060 3d 2f e7 be 12 c3 88 bd eb 9b 9e 3e 2a d9 f4 be
       -0.45153227 -0.06677832 0.3097833 -0.47821933
000070 70 22 a2 be 0a f2 21 3e ea 91 cd be 87 9e 23 3e
       -0.316669 0.15814987 -0.40150386 0.15978442
000080 53 ba 55 bd bb 23 91 bc ad aa 7f 3e a1 b4 c7 3c
       -0.052179646 -0.017717233 0.24967451 0.024378123
000090 2e 96 34 bc 32 af 4d 3e fa c2 b7 be 2b 2f 3c be
       -0.011022134 0.20086363 -0.35890943 -0.18377368
0000a0 c2 9f 56 3e a2 48 cd 3e 61 3c 98 bc 3d dc 82 be
       0.2095938 0.40094477 -0.018583478 -0.25558653
0000b0 04 9d 5e 3b 64 e5 69 be d0 02 67 3d 91 98 c0 3e
       0.00339681 -0.22841412 0.056399167 0.376164
0000c0 9d 24 df bd ec fd c6 3e fd 68 f1 bd b5 1d de be
       -0.10895655 0.38865602 -0.11787603 -0.4338204
0000d0 47 7c 8e 3e 48 50 3f 3e db 8a 8e be 08 d6 b7 be
       0.2782919 0.18682969 -0.27840313 -0.3590548
0000e0 02 50 6a 3e d7 a3 68 3e 6e 2b d5 be 50 7b 73 3e
       0.22882083 0.2271875 -0.41634697 0.23777509
0000f0 54 41 ac 3c 2e 95 d1 3e 1f 34 99 be c4 97 30 3e
       0.021027245 0.40934128 -0.29922578 0.17245394
000100 da f2 c6 3e 44 db c6 3e 28 59 7f 3e 0e 29 92 3e
       0.38857156 0.3883916 0.24936354 0.28546947
000110 63 97 4e be c7 23 19 be 14 97 97 3e 6d 4e 8c 3e
       -0.20174937 -0.14955054 0.2960745 0.27403584
000120 a8 51 16 3e cf d8 b1 bc 1a c8 9c be d4 67 f3 bd
       0.14679587 -0.021709828 -0.30621415 -0.11885038
000130 bc 69 72 be 26 1d 53 3e 1a ad 46 3e ad a2 ce be
       -0.23673147 0.20616588 0.1940197 -0.40358487
000140 f8 57 84 be be ea b9 be 69 b6 82 be bd 81 93 3e
       -0.25848365 -0.36311907 -0.25529793 0.2880992
000150 85 04 62 be a9 21 9c 3d 6a 51 8b be e5 0d 3d be
       -0.22072037 0.07623608 -0.27210552 -0.18462332
000160 7a 5b 68 3e fc 7d 2a 3e fc b3 84 3d e8 a5 5a 3d
       0.22691146 0.16649622 0.06479642 0.053380877
000170 7e 19 c6 be 94 0e 78 be 83 58 9b be 32 4b 1f be
       -0.38691324 -0.24224311 -0.30340967 -0.15556028
000180 92 d1 bd be 52 05 43 be 41 08 9a 3e 2f 4f 24 3d
       -0.37073952 -0.19044998 0.30084422 0.040114578
000190 0d 09 72 3e 03 87 76 3e 01 0e e5 be b4 ab 6c 3d
       0.23636265 0.2407494 -0.44737247 0.057780936
0001a0 63 69 6b 3e d0 3d 91 be a5 79 99 be f9 25 fb 3c
       0.2298942 -0.28367472 -0.2997562 0.030657755
0001b0 1a ac 3a 3e 15 84 84 3e ba 46 99 be 2a e4 97 be
       0.18229714 0.2588202 -0.29936773 -0.29666263
0001c0 cf a1 28 be 80 41 a4 3d 54 81 84 3e c7 2f b7 be
       -0.16467975 0.08020306 0.2587992 -0.3577864
0001d0 3a 31 fc 3d b6 19 13 be 60 62 a3 be 43 87 03 be
       0.12314077 -0.14365277 -0.31910992 -0.12844567
0001e0 2d 46 fd bd 91 a7 c6 be a9 79 4a be 62 6e 8a 3e
       -0.123669006 -0.38799718 -0.19772972 0.2703734
0001f0 9e 45 b8 bd 00 63 e4 3e 8d 87 cf bd 25 ef 8b 3e
       -0.089976534 0.4460678 -0.10133276 0.2733089
000200 6c 5e 3d be 16 a9 18 3e 59 27 7e be de fd 18 3e
       -0.1849305 0.14908251 -0.24819697 0.14940593
000210 3e 32 56 3e 8a 62 b2 3e 4c e2 32 3d d8 de b8 3e
       0.20917603 0.34840804 0.043672845 0.36107516
000220 0f 07 12 be 76 24 6d 3e 90 d9 9c 3e 32 95 bd 3e
       -0.14260505 0.2315844 0.30634737 0.3702789
000230 cb d3 92 3e 94 f1 8d 3d 0c 93 c0 3e 22 6c 69 3e
       0.2867721 0.06930843 0.37612188 0.22795156
000240 cb b4 c5 bd 89 7d 88 be 9a 48 7d bd 55 88 04 be
       -0.09653624 -0.26658276 -0.061836816 -0.12942632
000250 89 3a 4d 3d 01 97 a1 3e ae 8e c0 be 61 10 ff 3d
       0.05010465 0.3156052 -0.37608856 0.12454296
000260 ee 30 0f bd fa 86 8b 3d 58 96 ee be 49 d7 61 3e
       -0.034958772 0.06812854 -0.46599078 0.22054781
000270 16 2b c7 be 20 6e 05 3d 17 db 52 3e ba e8 88 3e
       -0.3890006 0.032575727 0.20591389 0.26740056
000280 63 f9 ab 3e 64 0d 00 3f 5e 93 97 3e 6e 95 9d be
       0.33588704 0.5002043 0.2960462 -0.30778068
000290 2b cf 07 be 52 8b d5 3d 28 03 a3 3c 91 2b 08 bd
       -0.13262622 0.10426964 0.019898966 -0.033244673
0002a0 c7 cf 80 be e1 f4 5a be 24 22 b1 be a2 31 83 3e
       -0.25158522 -0.21382476 -0.3459636 0.25623804
0002b0 86 25 d3 3d 91 4d 38 3e 03 03 95 bd 8b ea 63 bd
       0.103098914 0.17998339 -0.07275965 -0.0556436
0002c0 a6 d4 6e be 04 92 7f 3d 3e 0a 29 be 28 92 94 3e
       -0.23323306 0.06239511 -0.16507813 0.29017758
0002d0 5b 94 95 3e 8f 74 6d 3e 6c af c3 3e 84 54 2a be
       0.2921475 0.23188995 0.38219774 -0.16633803
0002e0 01 86 73 be 2d ac 9c bd ee cd 91 3e ce 07 4d 3e
       -0.23781587 -0.076500274 0.28477424 0.20022509
0002f0 95 ad e3 3e 98 9d 5b bb f0 0b 38 3e 6a 6f 65 bd
       0.4446837 -0.0033510681 0.17973304 -0.056014456
000300 e4 8a fb be ee ce ba 3d 35 c4 26 be 17 4f b3 be
       -0.49129403 0.091215 -0.16285785 -0.35021278
000310 ba 60 7a be 76 b1 cb be 59 2b b4 3e 15 aa da 3e
       -0.24450961 -0.3978383 0.35189322 0.42707887
000320 1b 8a 94 be 3d de 36 3d ac 71 c2 3e f2 f0 ab be
       -0.29011616 0.044645537 0.3797735 -0.33582264
000330 d6 f6 ad 3e 8d 4d bd 3e c1 64 ed 3d 11 e9 ba 3e
       0.33977383 0.3697323 0.11591483 0.3650594
000340 c4 69 8f bd fb f3 25 be ea a9 b1 be 9a fe 09 3e
       -0.07002595 -0.16206352 -0.34699947 0.13476029
000350 15 7b a9 3d b1 7d aa 3e 94 f1 96 be 6f 73 a6 be
       0.08275429 0.3329902 -0.29481184 -0.32509944
000360 28 ae cc bc 72 8b 87 be f2 e2 a2 be 7f 3d db 3c
       -0.024985388 -0.26473576 -0.3181377 0.026762722
000370 4c 38 2e 3e 33 83 92 be 05 0f b1 3e 54 f0 95 3e
       0.17013663 -0.28615722 0.34581771 0.29284918
000380 b8 b1 d5 bd 86 0d bc 3e 5b 7a ee bd d2 61 51 be
       -0.10434288 0.36729068 -0.11644431 -0.20447472
000390 44 24 a6 3e 2c 0e 98 3e 6f eb 1e 3e d0 2a 52 3e
       0.32449543 0.29698312 0.15519498 0.20524144
0003a0 aa 0b b1 3e a0 90 65 3e 73 46 3f 3e c6 49 9a 3e
       0.3457921 0.22418451 0.18679218 0.3013441
0003b0 24 e3 0a 3e 51 8d 1e 3e ad e8 56 3d 1f 81 79 be
       0.1356321 0.15483595 0.05246799 -0.24365662
0003c0 70 41 8f 3e a6 e9 4a bd a6 9b ca 3c 29 9d 38 3c
       0.27979612 -0.04953923 0.024732422 0.011267939
0003d0 96 e6 8f 3e 55 a6 93 3e a9 38 31 3e a7 47 92 3e
       0.2810561 0.2883784 0.1730677 0.2857029
0003e0 f7 38 d3 be 48 7c 54 be 38 4b fb bd 05 9a c3 be
       -0.41254398 -0.20750535 -0.12270206 -0.38203445
0003f0 f6 47 b9 3e 50 52 c3 be d7 1d c4 be 70 f0 af 3e
       0.36187714 -0.38148737 -0.38304016 0.34363127

cls.0.weight f4 [256, 64]
000000 66 de 44 3d 35 a1 d4 bd 09 d6 c6 bd 68 76 53 bd
       0.04806366 -0.1038231 -0.09708793 -0.051626593
000010 ac f4 d9 3c c0 ed 4d bd 06 28 b2 be ac 7b bf be
       0.026605926 -0.050275564 -0.3479616 -0.37399042
000020 c8 8c 81 3d 8f 21 ad bd 02 31 db 3d 78 d5 e0 3e
       0.0632568 -0.084536664 0.10702707 0.43912864
000030 53 ed b0 3d 20 c5 eb 3c 69 4d 57 bd d3 43 2d be
       0.08639016 0.02878052 -0.05256406 -0.16920404
000040 e9 14 79 bd 30 34 05 3e a8 6f 95 bd 1c 31 0f be
       -0.060810957 0.13008189 -0.07296687 -0.13983577
000050 00 e8 d4 3d aa 6d db 3d e3 d8 32 be 33 fe fd bd
       0.10395813 0.10714276 -0.17465548 -0.12402
000060 28 12 69 bd fa d3 a5 be bf 48 26 3e 01 db 91 3e
       -0.05690208 -0.32388288 0.16238688 0.284874
000070 d4 cb 37 3c 17 db 2e bd 3f 1b 15 be a4 f0 8f 3d
       0.01121803 -0.04268941 -0.14561175 0.070283204
000080 b3 d3 13 3e f0 76 05 3d e8 e0 f4 bd 90 a6 49 be
       0.14436226 0.03258413 -0.1195696 -0.19692445
000090 84 be 27 bc 9b 9e b1 3e 96 3b 82 bc 59 02 79 3c
       -0.010238294 0.3469132 -0.015897553 0.015198314
0000a0 a0 ec ab 3e 60 fa 2a bd 9f c9 10 be 7e 03 a8 bd
       0.33578968 -0.041742682 -0.14139412 -0.08203791
0000b0 ec 45 17 3e ce ef 8a 3c ea 27 1d be 00 41 1d 3e
       0.14772767 0.01696005 -0.15347257 0.15356827
0000c0 73 e8 33 be 3d b0 4b 3a 8a 4e 1d 3e 21 78 eb bd
       -0.17569141 0.0007770097 0.15361992 -0.11497522
0000d0 6f c2 12 3e d3 aa 1c 3d 52 14 59 3d e6 89 cb be
       0.14331983 0.03824885 0.052997895 -0.39753646
0000e0 77 ee 28 3e e1 aa bc bd e9 83 aa bc ff 75 d1 3d
       0.16497217 -0.0921228 -0.020814853 0.10227584
0000f0 c1 59 e1 3d f7 38 73 3e fb d3 73 3d 1f b2 b6 3d
       0.11003447 0.23752199 0.059528332 0.08920693
000100 5a b1 12 be 39 58 35 3d d6 43 95 3d 65 fa bc bd
       -0.14325467 0.04427359 0.07288329 -0.092274465
000110 74 2d ac ba 19 42 ff 3d f9 f6 7d be ca 19 7a be
       -0.0013136105 0.12463779 -0.24801244 -0.244239
000120 50 78 20 3e f2 1d d0 3e 2b ec 0c 3c f1 2f 21 be
       0.15670896 0.40647846 0.008601229 -0.15740944
000130 e9 09 14 be b9 45 35 3c 90 e3 75 be 47 5a b3 3e
       -0.14456905 0.011063986 -0.2401259 0.35029814
000140 61 9d f7 bd 97 a3 7f 3e ea 52 a8 3b 47 76 c6 3e
       -0.120905645 0.24964748 0.0051368373 0.38762113
000150 e9 a1 cb bc a8 4b 83 be a2 8f 24 bd d1 49 4f 3e
       -0.024857478 -0.2564366 -0.04017604 0.20243002
000160 4e db df 3c df 00 58 bc d5 1e 36 3e 36 53 9f be
       0.027326252 -0.013183801 0.17785199 -0.31118172
000170 ce 4f 87 be bc 19 58 3e e6 be 1b 3e fb 2b 89 be
       -0.26428074 0.21103567 0.1520954 -0.26791367
000180 5d 18 df be f6 fc 59 3e 05 27 d2 3d 81 d6 03 bd
       -0.43573275 0.21287903 0.10261349 -0.03218699
000190 c8 90 07 3e aa f7 90 be a8 d3 46 be 11 8e 5d 3e
       0.13238823 -0.28313953 -0.19416678 0.21636225
0001a0 1a b9 11 be 4e e0 3c 3e 63 1f 71 3e b3 74 2f 3e
       -0.14230767 0.1844494 0.2354713 0.17134361
0001b0 61 97 7a 3e 9b 05 9f bd 6f d4 2f 3e 2e d5 0b 3e
       0.24471809 -0.07764741 0.1717088 0.1365554
0001c0 c0 c1 b7 bd b3 01 35 be 11 10 20 3c 30 9a a8 be
       -0.08972502 -0.1767643 0.0097694555 -0.32930136
0001d0 8c eb 3d be d8 8c 12 bd 49 a3 1e bc 83 4e 91 3d
       -0.18546885 -0.03577885 -0.009682485 0.07095053
0001e0 ec 72 f0 3d 1f 01 53 bd 93 d2 6d bd d7 0d 80 be
       0.117406696 -0.05151474 -0.058062147 -0.2501056
0001f0 77 d2 b3 bd ed ab a9 3c 65 5a 90 3b 0c 76 7d 3e
       -0.08780377 0.020711863 0.004405307 0.24752063
000200 fc 42 9f be 50 28 57 3d 95 92 0e 3e e9 7a f5 3d
       -0.31105793 0.05252868 0.13923104 0.11986334
000210 f3 dc 5e 3c ea 71 1d 3d 49 17 91 be 7f 8d a0 be
       0.013602483 0.038438715 -0.28338078 -0.31357953
000220 ab e1 c1 3d aa 23 15 be de 04 5a 3d 1e 43 78 bb
       0.09466871 -0.14564386 0.053227298 -0.0037881802
000230 bb 2e 4f 3d 0d 13 19 bd a0 6a c1 bd f8 b7 00 3b
       0.050581675 -0.037371684 -0.09444165 0.0019640904
000240 74 e8 a2 bc 91 09 ee 3d ea 7f b1 bc ff 5d 0e 3e
       -0.019886233 0.116229184 -0.02166744 0.13903044
000250 51 0c 71 3d d6 f7 33 be 1f cc 39 3e 31 e1 89 3d
       0.058849636 -0.1757501 0.18144272 0.06732405
000260 31 41 0e be a5 8a 80 3d 70 31 a1 3b be 88 a3 3e
       -0.13892056 0.06276444 0.0049192235 0.31940264
000270 a2 87 17 bd c0 d9 05 be 86 94 c0 bd 33 c6 19 be
       -0.036994584 -0.13071346 -0.094033286 -0.15017013
000280 de 67 cf 3c 1a 90 2a 3d e5 27 29 3e aa e0 32 3c
       0.025318082 0.041641332 0.16519125 0.010917822
000290 64 4d f6 3c 0a 48 08 be e0 48 e9 bc db 3e 81 bc
       0.0300662 -0.1330873 -0.028477132 -0.015777042
0002a0 01 91 6b 3e aa 22 85 3e 0f 4e bb bc 54 10 09 3e
       0.23004533 0.2600301 -0.02286437 0.13385135
0002b0 f4 eb 81 bb 64 4c 16 be 65 7b 21 be b9 2c 8c be
       -0.0039648954 -0.14677578 -0.15769728 -0.2737787
0002c0 7e c7 36 be 83 38 61 3b ea 2a 27 3e cc 5f b3 bd
       -0.17849538 0.003436596 0.16324964 -0.08758506
0002d0 12 22 3e 3e 75 f0 a0 3d a2 11 16 3e b4 68 b1 bd
       0.18567684 0.078583635 0.14655164 -0.08662549
0002e0 b2 99 68 be b1 b3 b9 3e 79 6b ba ba 24 1f b8 3e
       -0.2271488 0.36269906 -0.0014222703 0.35961258
0002f0 f3 b2 91 3d db ee 13 3e 90 86 92 3d fb 12 37 3e
       0.0711421 0.14446585 0.07154572 0.17878334
000300 2b 38 7c 3b 9b 7a 68 3d f4 69 d8 3d 9d b9 80 be
       0.0038485627 0.05675755 0.10567084 -0.25141612
000310 95 15 b4 be 53 ff 12 be 45 57 e8 3c 56 b1 85 bc
       -0.35172716 -0.14355211 0.028361926 -0.016319912
000320 e6 16 ee 3d d6 02 cd bd 1d c3 69 3e 0c 6e 36 bd
       0.11625461 -0.100103065 0.22828336 -0.044538543
000330 29 05 0e bd a4 86 7f bd ba 67 26 bb d5 fc 7a be
       -0.03467289 -0.062384263 -0.0025391416 -0.2451051
000340 18 f9 03 bc 68 4f 23 be 48 66 79 3d 60 54 08 be
       -0.008054994 -0.1594826 0.06088856 -0.13313437
000350 50 ee 4e 3e cd a7 96 be c2 4d 1e be 9f a2 9b bd
       0.20208097 -0.29424897 -0.1545935 -0.07599377
000360 08 34 8a be 59 8f 1a 3d f4 f2 a5 be 49 f5 a6 bd
       -0.26992822 0.037734363 -0.3241192 -0.08152253
000370 24 0e 3e 3e 90 5a 5d bd ce 76 2e be 32 5b c3 3e
       0.18560082 -0.054041445 -0.17037508 0.38155514
000380 ad 8c 5e 3d ae c9 0c bd 95 16 e1 bc e9 42 15 be
       0.054333378 -0.034372024 -0.027476588 -0.14576305
000390 2d 2c 74 3d cb 5d 53 be b9 af 68 bd 6b 61 03 bb
       0.05961244 -0.20641248 -0.056808207 -0.002004708
0003a0 93 e1 85 3d 81 36 b0 bd 26 17 ad 3d 5e 34 24 3e
       0.065371655 -0.08604146 0.08451681 0.16035601
0003b0 16 7d 90 be b0 2d b9 bd 57 33 05 3d 43 20 88 bd
       -0.28220433 -0.09041917 0.032519665 -0.066467784
0003c0 b6 45 e8 bd 05 cf bd bd 64 b6 a1 3e 03 7b e7 bc
       -0.11341421 -0.092680015 0.31584466 -0.028256899
0003d0 20 e7 20 be b1 2b d2 bd b3 c3 36 be eb 6c 8c bd
       -0.15713167 -0.1026224 -0.17848091 -0.06856712
0003e0 c5 19 87 be 0d ff a4 3b 00 4d 7d 3e fd 5a bf be
       -0.26386848 0.0050352872 0.24736404 -0.37374106
0003f0 c2 6c 98 be 8d c9 4b be f3 79 92 be 7a c7 e5 bd
       -0.29770476 -0.19901104 -0.28608665 -0.11219688

cls.0.bias f4 [256]
000000 1b 78 ec ba fa 03 23 3d 12 8b 46 3d 4b e7 47 bd
       -0.0018041165 0.039798714 0.04847247 -0.048804563
000010 4b d2 96 bd 61 de 5e 3d d5 97 42 bd 36 92 d6 3b
       -0.07364329 0.054411296 -0.04750808 0.0065481914
000020 4b f1 f6 3c 22 fc 44 3d f2 be 0e bc f2 27 47 3d
       0.030144354 0.048092015 -0.008712517 0.04862208
000030 2d aa 61 bd 48 33 63 3d c6 69 41 3d e5 73 59 3d
       -0.055093933 0.055468827 0.047220014 0.05308904
000040 7e c5 41 3d 9b 40 f0 bc 4f af 26 3d b9 9f 46 3d
       0.047307484 -0.029327681 0.04069453 0.048492167
000050 a7 03 46 bd 3e 3d 52 bd e7 63 1e bd 33 6c 3d bd
       -0.048343327 -0.051327936 -0.038669493 -0.046245765
000060 b0 6c 07 bd 2f 20 71 bd 87 ac ba 3c f6 2a 4c bd
       -0.033062637 -0.058868583 0.022787346 -0.04984566
000070 38 e5 47 bd 1a 60 7b 3d 04 f4 51 3d 5e b1 46 bd
       -0.048802584 0.061370946 0.051258102 -0.048508994
000080 75 e8 5c bd cb 52 04 3d ef 28 2f 3d 58 d4 73 3d
       -0.053932626 0.03230552 0.042763647 0.05952868
000090 48 5d 6e bd f0 b3 4f bd 10 13 47 bd 28 94 43 3d
       -0.05819443 -0.05070871 -0.048602164 0.047748715
0000a0 7b e3 45 3d bc 6e 29 bd 31 a9 4a 3d f7 d8 2d 3d
       0.048312645 -0.04136537 0.04947776 0.042443242
0000b0 61 ae 47 3d 54 ee 4c bd b6 f8 9f bc 58 7b 27 bd
       0.048750285 -0.050031975 -0.019527774 -0.040889114
0000c0 8d 01 41 bd 10 8f 49 bd 66 f6 46 3d a9 5d 3e 3d
       -0.04712062 -0.0492087 0.048574828 0.04647604
0000d0 42 ff 62 bd b9 63 4b bd c4 3a 8b bd 2a d7 36 3d
       -0.055419214 -0.04965565 -0.06798318 0.04463879
0000e0 02 8f 47 3d 78 e4 5e 3d cb ce 68 bd 94 8e 5a bd
       0.048720367 0.054417104 -0.05683784 -0.05335863
0000f0 c6 42 31 bd 9b b8 0e bd 44 06 49 bd 40 04 56 3d
       -0.04327657 -0.034844022 -0.04907824 0.052250147
000100 88 24 21 bd 26 0e 0a bd d3 68 31 bd e5 da 30 3d
       -0.03934148 -0.0337049 -0.04331286 0.043177504
000110 f2 25 93 bd ee c0 4d bd b8 76 2a 3d 78 8e 94 bd
       -0.07184972 -0.05023282 0.041617125 -0.07253736
000120 36 e4 a1 bc c4 28 0e bc 6d 0e aa 3c 27 cc 19 3d
       -0.01976214 -0.0086767115 0.020758832 0.03754821
000130 40 5d 62 bd 85 85 41 bd 29 d2 9e bc 36 5f 98 3c
       -0.05526471 -0.047246475 -0.019387322 0.018600088
000140 d2 e7 48 bd fb a2 3c 3d 41 2b 5a bd 21 14 09 3d
       -0.049049206 0.046053868 -0.053263906 0.033466462
000150 97 53 4a bd 1d 1c d8 3b a1 8a 46 bd 11 de 43 bd
       -0.049396124 0.0065951482 -0.04847205 -0.0478192
000160 fb f2 a3 bc 2e bd 4c 3d 6e 72 51 3d 19 37 66 bd
       -0.020013323 0.049985103 0.05113452 -0.05620489
000170 c0 b7 3a bd f5 4f 41 3d e7 a2 6a bd f3 93 47 bd
       -0.045585394 0.047195394 -0.057284262 -0.04872508
000180 dc 41 50 bd b6 4a 02 bd 81 1f 47 3d bc d2 51 bd
       -0.05084406 -0.03180953 0.04861403 -0.051226363
000190 32 c9 d7 bc d9 6a 39 bd 79 d0 4f 3d f6 e0 22 3d
       -0.026341055 -0.045267913 0.050735924 0.03976532
0001a0 5b 7e b7 3b 4d bf 62 bd 42 a5 85 bd d2 5d 61 bd
       0.0055997795 -0.05535822 -0.06525661 -0.055021115
0001b0 85 f3 33 3d 6c 35 57 3d 69 ef 52 3d f2 45 ea 3c
       0.04393341 0.05254118 0.05149785 0.028597806
0001c0 34 f2 5d bd 57 15 43 bd 59 c8 57 bd 81 77 81 bd
       -0.05418606 -0.047627773 -0.0526813 -0.06321622
0001d0 0f 68 48 3d a2 d2 47 bd 97 a0 72 bd e2 72 b9 3c
       0.048927363 -0.04878486 -0.05923518 0.022637788
0001e0 30 d4 5c bd b0 f0 64 bd 26 c2 3c 3d 08 ec 47 bd
       -0.053913295 -0.0558936 0.046083592 -0.04880908
0001f0 b2 9f 54 3d e5 9c 93 bd b0 ea 32 bc 88 a7 13 3d
       0.05191011 -0.0720766 -0.010920212 0.036048442
000200 bf 4b 63 3d b9 af 46 3d f1 12 48 bd 30 78 42 3d
       0.05549216 0.048507426 -0.04884619 0.0474779
000210 59 9b 44 3d 63 27 e6 bc a4 98 51 bd 80 f3 46 3d
       0.047999714 -0.028094953 -0.05117096 0.048572063
000220 d9 51 42 bd 92 17 22 3d ff 55 45 3d e2 f0 e7 3c
       -0.047441337 0.03957326 0.048177715 0.028313104
000230 ca c3 37 3c 85 f1 d8 3c d0 bc 4d bd a9 e9 6b bd
       0.011216113 0.026482353 -0.050228894 -0.057595883
000240 b5 5b 53 3b 10 52 8e bc ff 4e 20 3d 9a dc 4f 3d
       0.0032250707 -0.017373115 0.039137837 0.05074749
000250 50 87 87 bd 5d b6 46 3d 1a f7 e5 3c 15 79 dc 3c
       -0.06617606 0.04851376 0.028071929 0.026913205
000260 b1 1e 30 3d 21 aa 54 bd 8a ad 88 bd 7f 02 f9 3c
       0.04299802 -0.05192006 -0.06673725 0.030396698
000270 a8 a3 69 bd 6b db 48 3d da 1e 25 bd 0a a7 83 bd
       -0.05704084 0.04903738 -0.040312625 -0.064283445
000280 5e 36 4c 3d 0a b2 47 3d 66 6a 2e bd dc 83 57 3c
       0.049856536 0.048753776 -0.04258194 0.013153996
000290 d0 67 41 3d 7c 06 46 3d 85 df 60 3d e3 2b 54 bd
       0.047218144 0.048346028 0.054900665 -0.051799666
0002a0 d5 dc 2a bd 28 a3 1f bd de 75 94 3c 77 04 2a bd
       -0.041714508 -0.038973957 0.01812261 -0.041508164
0002b0 c9 88 38 3d 74 e6 4b bd 35 e7 4a bd 49 94 95 bd
       0.045052323 -0.049780324 -0.049536902 -0.07303674
0002c0 1c bc 05 3d f8 45 76 ba 9e 7a e8 ba e1 fb 73 bd
       0.0326501 -0.00093945814 -0.0017736738 -0.059566382
0002d0 b1 cf 29 3d 3c 72 d7 3c d3 b2 af bc 99 ee 39 3d
       0.041457836 0.026299588 -0.021447575 0.04539356
0002e0 bb d1 57 3d 59 71 3a 3d 8f d0 5c bd d8 b7 41 3d
       0.05269025 0.045518253 -0.053909834 0.047294468
0002f0 3f dd 37 3d 91 73 4a bd 24 28 9e bd 6b 34 55 bd
       0.04488873 -0.04942662 -0.077225 -0.052051943
000300 d1 5e 64 bd a2 35 4f bd 9d c4 28 bd d4 2b e8 3c
       -0.055754486 -0.050588258 -0.04120313 0.028341211
000310 df 9b 56 bd 20 90 33 bd 9c 69 48 3d d6 7f 4a bd
       -0.052394744 -0.04383862 0.048928842 -0.04943832
000320 c1 91 84 bb d2 5a 60 bd 5a 90 00 ba 1c e6 ed 3c
       -0.0040456955 -0.054774113 -0.00049043226 0.029040389
000330 8a a2 42 bd d9 06 8a bd 36 7b 56 bd 82 39 53 bd
       -0.04751829 -0.06739587 -0.052363597 -0.051568516
000340 a5 03 46 bd 6c ad 90 3c 8c 00 47 bd 80 71 43 bd
       -0.04834332 0.017660819 -0.048584506 -0.047715664
000350 0c 2d 54 bd a1 e2 f8 3c 00 99 3e 3d 14 e1 45 bd
       -0.051800773 0.030381503 0.04653263 -0.048310354
000360 b8 ae 44 bd 37 79 46 3d e5 58 13 bd 61 55 45 3d
       -0.048018187 0.048455443 -0.03597345 0.048177127
000370 57 0a 18 bd a9 1a 3c 3d 08 4b ef bb ab db 46 3d
       -0.037119236 0.045923863 -0.0073026456 0.048549335
000380 1a 21 44 3d 88 6e 76 3d 29 e2 5e bd 1c 68 f4 bc
       0.04788313 0.060164005 -0.054414902 -0.0298348
000390 60 53 b9 b8 fd 75 fc 3b 76 43 4d bd 9e de 95 3b
       -8.837017e-05 0.007704495 -0.050113164 0.004573657
0003a0 8b b8 35 3d 41 84 ec bc ef 51 4a bd 1b 25 0c bd
       0.044365447 -0.028871657 -0.049394544 -0.034215074
0003b0 73 32 51 bd d9 f8 48 bd 19 7d 25 3d 31 a2 3e 3d
       -0.051073503 -0.049065445 0.040402506 0.046541397
0003c0 33 d8 55 bd 56 f1 4b bd ef 23 60 bd 6c 66 70 bc
       -0.052208137 -0.049790703 -0.05472177 -0.014672857
0003d0 85 f9 29 bd 2b f2 b3 bd 5f 4d 44 bd 93 86 31 3d
       -0.041497726 -0.08786424 -0.04792535 0.04334123
0003e0 2b 31 ca 3c 9b 66 68 bd e6 5a 42 bd 17 4c 49 3d
       0.024681648 -0.056738477 -0.04744997 0.04914483
0003f0 bb b1 40 3d e0 19 9b bd e5 9d 3b bd 6a 74 91 ba
       0.047044497 -0.07573295 -0.045804877 -0.0011097316

cls.2.weight f4 [256]
000000 29 a6 81 3f 15 9d 81 3f c3 de 7e 3f 81 49 6e 3f
       1.0128833 1.0126063 0.9955866 0.9308091
000010 c4 5f 80 3f 34 e0 77 3f b4 41 80 3f 9b c8 80 3f
       1.0029225 0.9682648 1.0020051 1.006122
000020 b5 79 72 3f 9e 46 6f 3f 58 a7 7d 3f 99 42 7b 3f
       0.9471696 0.9346713 0.9908347 0.98148495
000030 3e 2d 78 3f 28 1c 81 3f 83 39 80 3f 06 32 70 3f
       0.96944034 1.0086718 1.0017551 0.9382633
000040 87 b8 81 3f 92 cc 76 3f 2b b9 74 3f 3b d8 68 3f
       1.0134438 0.964059 0.95595044 0.9095494
000050 4a de 6c 3f 27 67 79 3f 42 47 76 3f 61 e1 78 3f
       0.92526686 0.97423023 0.9620248 0.972189
000060 86 63 77 3f 8f 8b 6e 3f 89 ef 79 3f b6 c6 7f 3f
       0.96636236 0.931817 0.97631127 0.99912584
000070 fe d4 5a 3f e4 72 78 3f 9b 12 76 3f 15 9c 7c 3f
       0.8548125 0.9705031 0.9612214 0.9867566
000080 45 63 7b 3f 20 a2 75 3f 27 62 7c 3f a8 35 7c 3f
       0.9819835 0.9595051 0.9858727 0.9851937
000090 23 52 72 3f 52 af 7a 3f 2a 93 65 3f c7 e1 7f 3f
       0.9465658 0.9792377 0.8967768 0.99953884
0000a0 7f ed 7f 3f c1 0f 7c 3f a3 d4 7e 3f 82 1a 73 3f
       0.99971765 0.9846154 0.9954321 0.9496232
0000b0 57 06 81 3f 10 59 6b 3f e0 9b 6f 3f f1 8d 79 3f
       1.008006 0.91932774 0.9359722 0.9748221
0000c0 46 c4 74 3f b8 ae 74 3f f8 86 78 3f b0 8f 7b 3f
       0.9561199 0.955791 0.97080946 0.98266125
0000d0 d9 9c 7c 3f b6 84 7b 3f aa 7b 68 3f 2d 32 7e 3f
       0.9867683 0.98249376 0.90813696 0.9929531
0000e0 1a c2 80 3f 1b 43 67 3f dc 45 7a 3f 25 7c 79 3f
       1.0059235 0.9033677 0.97762847 0.97455055
0000f0 f8 20 7d 3f e5 ae 7a 3f d7 2d 7a 3f 2f 10 7d 3f
       0.9887843 0.9792312 0.97726196 0.9885282
000100 20 e0 6b 3f aa 8a 6e 3f 83 a7 74 3f 21 70 6b 3f
       0.9213886 0.93180335 0.955681 0.9196797
000110 5b a5 70 3f 66 44 6b 3f bd d5 71 3f 99 9a 77 3f
       0.9400231 0.9190124 0.94466764 0.9672027
000120 ac 49 7a 3f 89 12 79 3f b0 34 7a 3f f9 e9 6c 3f
       0.97768664 0.9729391 0.97736645 0.92544514
000130 0f 73 70 3f 54 d7 69 3f 37 9b 76 3f f9 53 75 3f
       0.93925565 0.9134419 0.9633059 0.9583126
000140 36 55 6f 3f ac 3a 70 3f f8 fa 73 3f 69 56 84 3f
       0.93489397 0.93839526 0.9530482 1.033887
000150 b8 5c 7a 3f 2c d3 77 3f f2 62 80 3f cd 4f 80 3f
       0.9779773 0.968066 1.0030196 1.0024353
000160 3f b3 75 3f 40 6e 80 3f 4c cb 6f 3f 40 6d 77 3f
       0.9597663 1.0033646 0.9366958 0.9665108
000170 00 9e 79 3f dd 1b 76 3f b6 7b 6a 3f b4 c7 77 3f
       0.97506714 0.96136266 0.9159502 0.967891
000180 82 da 75 3f 04 ec 80 3f 5e 35 78 3f 99 64 7b 3f
       0.9603654 1.0072026 0.9695643 0.98200375
000190 f7 e5 6f 3f 29 c4 75 3f b8 99 68 3f 90 4a 75 3f
       0.93710274 0.9600244 0.90859556 0.958169
0001a0 e8 6d 81 3f e5 64 73 3f da 29 7f 3f 56 31 76 3f
       1.0111666 0.9507583 0.99673235 0.9616903
0001b0 33 f9 77 3f 7d 57 77 3f c5 9c 75 3f ff 04 81 3f
       0.9686462 0.9661787 0.95942336 1.007965
0001c0 a1 87 70 3f 9b 40 75 3f f0 5e 71 3f 1d 48 7f 3f
       0.93956953 0.95801705 0.9428549 0.9971941
0001d0 77 81 81 3f 1b e5 7a 3f 44 6b 76 3f e3 1c 6f 3f
       1.0117635 0.9800584 0.96257424 0.9340345
0001e0 ea 62 7d 3f 33 fb 6e 3f bc 5f 74 3f 94 a4 6c 3f
       0.98979056 0.9335205 0.9545858 0.92438626
0001f0 c2 43 79 3f 27 53 7e 3f 8f 2c 69 3f 60 95 75 3f
       0.97369015 0.9934563 0.91083616 0.95931053
000200 bc 92 77 3f 7d b6 82 3f f0 78 79 3f 1a d8 81 3f
       0.96708274 1.0211941 0.9745016 1.0144074
000210 6f 20 7f 3f ed 49 7f 3f 4f 80 7b 3f 58 3b 7f 3f
       0.99658865 0.99722177 0.9824266 0.99699926
000220 f8 1d 6f 3f d8 d3 77 3f 4c 95 7d 3f 79 63 77 3f
       0.93405104 0.9680762 0.99055934 0.9663616
000230 80 2f 73 3f 35 05 7a 3f f4 f3 6e 3f f7 19 70 3f
       0.94994354 0.97664195 0.9334099 0.9378962
000240 6e c2 6e 3f d8 d9 7a 3f a5 52 81 3f 37 74 7f 3f
       0.93265426 0.97988653 1.0103346 0.99786705
000250 5c 10 75 3f 97 28 7d 3f 2e 54 74 3f ca 38 7c 3f
       0.9572809 0.9889006 0.9544095 0.98524153
000260 b2 ab 81 3f 0d 12 75 3f bd c0 73 3f 18 a8 7c 3f
       1.0130522 0.9573067 0.9521597 0.9869399
000270 27 2d 77 3f ff ac 80 3f 8b 32 6c 3f 5f f9 6c 3f
       0.9655327 1.0052794 0.9226462 0.9256801
000280 1f 18 6e 3f 2c b4 7b 3f c2 07 6e 3f 75 0d 7d 3f
       0.93005556 0.98321795 0.9298059 0.9884866
000290 50 a5 77 3f a0 30 71 3f 74 d0 82 3f de 28 6b 3f
       0.9673662 0.9421482 1.0219865 0.91859233
0002a0 c9 98 78 3f ac 9a 7d 3f 27 29 83 3f 9f 85 80 3f
       0.9710813 0.99064136 1.0246934 1.0040778
0002b0 25 fb 75 3f 5c 27 76 3f c2 8d 68 3f d5 eb 6d 3f
       0.9608634 0.9615381 0.90841305 0.92937976
0002c0 e4 72 80 3f 04 44 75 3f 41 8b 82 3f f5 1e 79 3f
       1.0035062 0.9580691 1.0198747 0.9731286
0002d0 0f 7f 7d 3f b2 90 6c 3f 0a 89 78 3f 68 40 80 3f
       0.99022 0.9240829 0.97084105 1.0019655
0002e0 4c f1 79 3f 55 d2 7b 3f 44 69 78 3f 88 a9 80 3f
       0.97633815 0.98367816 0.9703562 1.0051737
0002f0 d3 ac 79 3f 78 0e 68 3f 77 13 77 3f 41 92 77 3f
       0.97529334 0.9064708 0.96514076 0.9670754
000300 0d 98 75 3f c5 c1 6d 3f 42 d0 7b 3f 7f e1 7d 3f
       0.95935136 0.92873794 0.9836465 0.99172205
000310 30 e7 77 3f 34 d7 6c 3f d0 51 81 3f f1 8c 7f 3f
       0.9683714 0.92515874 1.0103092 0.99824435
000320 6e 8b 73 3f 1e 66 7f 3f 51 2d 72 3f cf 5c 7e 3f
       0.9513463 0.99765193 0.946004 0.99360365
000330 d6 55 81 3f 7b 97 74 3f 8b 6b 74 3f d5 c3 6c 3f
       1.010432 0.9554364 0.954766 0.92486316
000340 03 9a 76 3f 2d 8b 79 3f 43 da 73 3f 0b e9 7c 3f
       0.96328753 0.9747799 0.95254916 0.98793095
000350 32 c4 6e 3f 7e df 71 3f 70 1b 7e 3f 66 48 79 3f
       0.9326812 0.94481647 0.99260616 0.97376096
000360 31 6e 74 3f fd c1 77 3f a4 2c 7a 3f b3 d5 73 3f
       0.9548064 0.9678038 0.97724366 0.95247954
000370 00 60 7e 3f bb 87 77 3f 4f e3 77 3f 17 42 73 3f
       0.99365234 0.96691483 0.9683122 0.9502272
000380 30 24 7f 3f 42 88 7d 3f 15 0e 71 3f e4 ce 77 3f
       0.9966459 0.9903604 0.9416211 0.96800065
000390 63 f2 76 3f bd 2a 7e 3f 73 3d 78 3f d2 2c 75 3f
       0.964636 0.99283963 0.96968764 0.95771515
0003a0 aa db 72 3f 9b cd 79 3f 82 f8 78 3f c4 ac 79 3f
       0.9486643 0.97579354 0.9725419 0.97529244
0003b0 e0 95 75 3f 02 e7 7b 3f 6c a0 74 3f 24 3e 7e 3f
       0.95931816 0.98399365 0.95557284 0.9931357
0003c0 91 6e 76 3f ce f5 75 3f 94 7d 7d 3f 60 c0 73 3f
       0.9626246 0.96078193 0.9901974 0.95215416
0003d0 0a 27 7f 3f 69 f8 6a 3f f0 85 7a 3f bb 9d 71 3f
       0.99668944 0.91785294 0.9786062 0.943813
0003e0 04 6a 7d 3f 63 97 73 3f 4d 5a 7a 3f 2c fb 81 3f
       0.9898989 0.9515287 0.9779404 1.0154777
0003f0 29 01 65 3f bb b8 76 3f c8 81 67 3f bf 49 7b 3f
       0.89454895 0.96375626 0.90432405 0.981594
