医学影像/EV_GCN/save_models/ev_gcn/fold0.pth (torch, 543861 bytes, 20 tensors)

gconv.0.weight f4 [3, 2000, 16]
0	0xbdce14ef	-0.100625865
1	0xbd7041f5	-0.05865665
2	0xbda86bdf	-0.082237
3	0xbd207add	-0.03917967
4	0xbdca16d3	-0.098676346
5	0xbceac2e0	-0.028657377
6	0xbdc66391	-0.096869595
7	0xbd430129	-0.04760853
8	0xbda88ec0	-0.082303524
9	0x3d3b52d7	0.0457333
10	0xbd9613b5	-0.073279776
11	0x3d4a1039	0.049331877
12	0xbc387886	-0.011259204
13	0xbdae8890	-0.08522141
14	0x3bc588c8	0.0060282685
15	0xbe29580b	-0.16537492
16	0xbe00ee39	-0.12590875
17	0x3db2a4cd	0.087228395
18	0xbd91b4d8	-0.07114571
19	0xbd29c5c8	-0.041448385
20	0xbc9def3b	-0.019279113
21	0xbd1a0ae6	-0.03760805
22	0xbd194a41	-0.03742433
23	0xbde8568e	-0.11344634
24	0xbd94868f	-0.072522275
25	0x3db6ffb7	0.089354925
26	0xbd8c9489	-0.06864268
27	0x3d292d3a	0.041302897
28	0x3d5692a1	0.05238593
29	0xbdd47a01	-0.10374833
30	0x3d81e9d1	0.06343425
31	0xbe004287	-0.12525378
32	0xbd8454f5	-0.06461517
33	0xbd741bc7	-0.059596803
34	0xbc697c27	-0.014250792
35	0xbd88581b	-0.0665743
36	0xbdcb3298	-0.09921759
37	0xbdbb57c7	-0.091476016
38	0xbdc555c2	-0.09635498
39	0xbce6f5a9	-0.028193312
40	0xbdd10c68	-0.102074444
41	0x3d1b0f14	0.037856176
42	0xbd9278c4	-0.071519405
43	0x3d9cbefb	0.07653614
44	0x3cb147ae	0.021640625
45	0xbd5eeda9	-0.05442587
46	0x3d051e50	0.03249961
47	0xbd0169c0	-0.03159499
48	0xbcac7ea9	-0.02105649
49	0x3e043747	0.12911712
50	0xbd088675	-0.033331353
51	0xbd355a25	-0.04427542
52	0xbd02386c	-0.03179209
53	0x3e1b5dd5	0.15172513
54	0xbd2a5885	-0.041588325
55	0xbea904c1	-0.3301144
56	0xbd911356	-0.07083766
57	0x3dacb0c6	0.08432154
58	0xbc962fdc	-0.018333368
59	0x3c10d2d5	0.008839329
60	0x3b8840fc	0.0041581374
61	0xbc413d9b	-0.011794473
62	0xbdd3ebad	-0.10347686
63	0x3d9abc96	0.07555501
64	0xbdbcf69f	-0.09226727
65	0x3d148ed4	0.036269024
66	0xbd8d72f0	-0.06906688
67	0xbd729cbe	-0.059231512
68	0xbdd01052	-0.10159363
69	0xbdeeea73	-0.116658114
70	0xbc64b361	-0.013958783
71	0x3d8bc458	0.06824559
72	0xbd360f4e	-0.04444819
73	0x3d23d790	0.0400005
74	0xbd15c8a2	-0.03656829
75	0xbc68b790	-0.014203921
76	0x3c717bda	0.014739001
77	0xbddb56b0	-0.10709894
78	0x3d0a1f47	0.033721235
79	0xbda8e129	-0.08246071
80	0xbd970c35	-0.07375375
81	0x3cdb25f8	0.026751503
82	0xbd4002f9	-0.046877835
83	0xbd828309	-0.06372649
84	0xbda9e42a	-0.08295472
85	0xbcc5804b	-0.024109026
86	0xbd9c12aa	-0.076207474
87	0xbb7f8869	-0.003899122
88	0xbd5b55d3	-0.053548645
89	0x3d8f7536	0.07004778
90	0xbd4e7321	-0.050402764
91	0x3d59864f	0.053106602
92	0x3d19c57d	0.037541855
93	0xbca7619c	-0.020432286
94	0x3a62a1f6	0.000864535
95	0xbc6c67e0	-0.014429063
96	0xbcca378c	-0.02468469
97	0xbd6c6fb9	-0.057723735
98	0xbc72a995	-0.014810939
99	0xbd8da1d0	-0.06915629
100	0xbc885e24	-0.016646452
101	0x3db24b52	0.087057725
102	0xbd4cb5a0	-0.0499779
103	0xbe58f52d	-0.21187277
104	0xbd85aebd	-0.06527469
105	0xbe15454b	-0.14577214
106	0xbd431d0b	-0.04763512
107	0x3d3e9f14	0.046538427
108	0x3c574bd8	0.013140641
109	0xbd497199	-0.0491806
110	0x3c8559df	0.016278205
111	0xbcd7c2a9	-0.026337938
112	0xbd6544b1	-0.055973712
113	0xbd21d433	-0.03950901
114	0xbd873e72	-0.066037074
115	0xbd48ab19	-0.048991296
116	0xbdace0bf	-0.084413044
117	0x3df53541	0.11973048
118	0xbcdc5e9a	-0.026900578
119	0xbdf574ad	-0.11985145
120	0xbd6a9481	-0.05727053
121	0x3c9c2588	0.019060865
122	0xbb5f34a7	-0.0034058483
123	0xbe09b30f	-0.13447212
124	0x3db8083a	0.08985944
125	0xbd9d023a	-0.0766644
126	0xba4927f0	-0.00076734927
127	0x3e0b8272	0.1362398
128	0xbd69f1cc	-0.05711536
129	0xbd9d5008	-0.076812804
130	0xbd9e515f	-0.07730364
131	0xbd338bfe	-0.04383468
132	0xbd59a0ad	-0.053131748
133	0xbc192257	-0.009346566
134	0xbd264d23	-0.040600907
135	0xbddc055d	-0.107432105
136	0xbd05f367	-0.03270283
137	0x3c82093a	0.01587354
138	0xbd4c3bcb	-0.04986171
139	0xbd3138ef	-0.043267187
140	0x3d5dac16	0.054119192
141	0xbd8236be	-0.063580975
142	0x3d518f34	0.05116196
143	0xbca90a28	-0.020634726
144	0xbdb91e20	-0.09038949
145	0xbda63ef9	-0.0811748
146	0xbdac3d63	-0.08410146
147	0xbd5c5ca8	-0.0537993
148	0xbdb9dff2	-0.09075917
149	0x3bb5de66	0.0055501936
150	0xbda4f3ff	-0.08054351
151	0xbe0d3df5	-0.13793166
152	0xbd31d273	-0.04341359
153	0x3d4d7a2f	0.05016535
154	0xbcb8d055	-0.022560278
155	0x3d2b8d1f	0.04188263
156	0xbba89d59	-0.0051457104
157	0xbd544662	-0.051824935
158	0xbd062a6b	-0.032755297
159	0xbaca04be	-0.001541279
160	0xbd01726a	-0.031603254
161	0xbc41cad7	-0.011828146
162	0xbdae5e7d	-0.08514116
163	0xbc846ee9	-0.016166167
164	0xbc5baa70	-0.013407335
165	0x3db4246f	0.08796012
166	0xbd410f73	-0.047133874
167	0xbd8050ec	-0.062654346
168	0xbd0859a5	-0.033288617
169	0x3dabe12f	0.0839256
170	0xbd3bf709	-0.045889888
171	0xbd119f40	-0.035552263
172	0x3d7b4cee	0.061352663
173	0xbd397e70	-0.045286596
174	0xbbe91155	-0.007112662
175	0xbd7c574c	-0.06160669
176	0xbe15f0ac	-0.1464259
177	0xbdfd2ac5	-0.12361673
178	0xbc32f59c	-0.010922816
179	0xbd4b36e2	-0.049612887
180	0xbd6f5ba8	-0.05843702
181	0x3cce754c	0.025202416
182	0xbcc51bbd	-0.024061078
183	0xbe228ea1	-0.15874721
184	0xbd7f40ce	-0.062317662
185	0xbc518281	-0.012787462
186	0xbd67835f	-0.05652177
187	0xb97b3317	-0.00023956258
188	0x3d47c54e	0.04877215
189	0xbdcfb5f9	-0.101421304
190	0xbd2876f8	-0.041129082
191	0xbdb0324d	-0.08603344
192	0xbdaa1454	-0.083046585
193	0xbcc1cd6b	-0.023657521
194	0xbdc2ef92	-0.09518351
195	0xbda6e42c	-0.08148989
196	0xbd18a904	-0.03727056
197	0x3e5ae203	0.21375279
198	0xbc254e59	-0.01008948
199	0xbe4bc693	-0.19899969
200	0xbd5e0e71	-0.05421299
201	0xbb997e6f	-0.0046842615
202	0xbcf51b20	-0.02992016
203	0xbc528565	-0.012849187
204	0xbd02dd58	-0.03194937
205	0xbd611ea6	-0.05496087
206	0xbbd897ce	-0.0066098934
207	0x3e93659b	0.28788456
208	0xbdb8d8ad	-0.090257026
209	0xbd9cb9f3	-0.076526545
210	0xbd8958a8	-0.06706363
211	0xbd7e54f1	-0.062092725
212	0xbd0c121a	-0.03419695
213	0x3e56d92a	0.20981279
214	0xbc9137fd	-0.017726893
215	0xbdf7e51a	-0.121042445
216	0xbcd77324	-0.02630002
217	0xbdc74932	-0.09730758
218	0xbce9690d	-0.028492475
219	0xbcbcc7a2	-0.023044411
220	0x3c702ed2	0.0146596
221	0xbda9db67	-0.08293801
222	0x3c7cd183	0.015430811
223	0x3e6ecd0a	0.23320404
224	0xbd673e32	-0.0564558
225	0x3ce58f20	0.028022349
226	0xbda7900e	-0.08181773
227	0xbdc5be2e	-0.096554145
228	0xbcfbc8dc	-0.030735426
229	0xbe4f1863	-0.20224147
230	0xbd5b293b	-0.053506117
231	0xbbb63251	-0.0055601974
232	0xbcbd58e2	-0.023113672
233	0x3e5e486a	0.21707311
234	0xbd484fb9	-0.048904154
235	0xbd3d96e3	-0.046286475
236	0x3d449154	0.04799016
237	0xbd58f83b	-0.052971106
238	0x3d8bf662	0.06834103
239	0xbeb4eef6	-0.35338563
240	0xbc833bd0	-0.016019732
241	0xbd831416	-0.064003155
242	0xbdbefb03	-0.093252204
243	0xbd676105	-0.05648901
244	0xbc9be1e8	-0.019028619
245	0x3d5f0884	0.05445148
246	0xbdac0d53	-0.08400979
247	0xbe51ec44	-0.20500284
248	0xbcf84263	-0.030305093
249	0x3d6e3912	0.058159895
250	0xbd12dd42	-0.03585554
251	0xbd0ae7e4	-0.033912554
252	0x3d60a565	0.054845233
253	0xbdcdb3df	-0.10044073
254	0x3d278e3d	0.040907133
255	0xbe0ef219	-0.1395954

gconv.1.weight f4 [3, 16, 16]
0	0xbe07ad23	-0.1324964
1	0x3ee8e813	0.4548956
2	0xbda9eb04	-0.08296779
3	0xbd1d1676	-0.0383515
4	0xbe9fec3b	-0.31234917
5	0xbe20929f	-0.15680932
6	0x3c0d67f0	0.008630738
7	0x3e88e127	0.26734278
8	0xbe91bdbf	-0.28465077
9	0xbea8cfde	-0.3297109
10	0x3e267db9	0.16258897
11	0xbda81d7c	-0.08208749
12	0xbe72b1fb	-0.23700707
13	0xbe706a61	-0.2347808
14	0x3e83fbb8	0.25777984
15	0xbeb393df	-0.35073754
16	0xbe0fdbe6	-0.14048728
17	0x3e8c9937	0.27460644
18	0x3e84487a	0.25836545
19	0x3e8166f2	0.25273854
20	0x3e41083b	0.18850796
21	0x3d666e6e	0.056257658
22	0xbe1c2a6b	-0.15250556
23	0xbe04ea64	-0.12980038
24	0xbf08b723	-0.53404444
25	0x3e53d779	0.20687665
26	0xbd62eab9	-0.05539963
27	0x3e90c853	0.28277835
28	0xbdf935e3	-0.12168481
29	0xbe9ca44e	-0.30594105
30	0xbeb783ae	-0.3584265
31	0xbde8b1c7	-0.11362033
32	0x3d34b359	0.04411635
33	0xbdc76a9e	-0.097371325
34	0xbeb9b65b	-0.3627194
35	0xbf0368fa	-0.51332057
36	0x3ea1c8ff	0.3159866
37	0x3e4cc33a	0.19996348
38	0xbc433e92	-0.011916773
39	0x3eba31fd	0.36366263
40	0x3e8d2384	0.2756616
41	0x3cb4ddd3	0.02207843
42	0xbe8bc5fe	-0.27299494
43	0x3e1f229e	0.15540549
44	0x3d5d25bc	0.053991064
45	0x3e25d200	0.1619339
46	0xbe92fe66	-0.28709716
47	0x3e9283de	0.28616232
48	0xbd6542ad	-0.05597179
49	0x3ee2926c	0.44252336
50	0x3e84de1d	0.2595071
51	0xbe049f7c	-0.12951463
52	0x3e63f523	0.22261481
53	0x3e019d91	0.12657763
54	0xbca269ea	-0.019825894
55	0xbd8a3b42	-0.06749584
56	0x3d8b3ba8	0.06798488
57	0x3c36f371	0.011166439
58	0x3e810cb1	0.25204995
59	0x3e0849b9	0.13309373
60	0xbb4e8ea6	-0.003151813
61	0x3e5604bd	0.20900245
62	0x3e70cfd7	0.23516785
63	0xbe672de2	-0.22576097
64	0x3e88001c	0.26562583
65	0x3ca4abf2	0.020101521
66	0xbed0eca6	-0.40805548
67	0x3cd8ea08	0.026478782
68	0x3e99e001	0.30053714
69	0xbe90fc9e	-0.28317732
70	0xbe5e09d6	-0.2168344
71	0xbdcd60f7	-0.1002826
72	0x3eaccc16	0.33749455
73	0x3e8a976e	0.27068657
74	0x3e5d1fe4	0.21594197
75	0xbe90741a	-0.28213578
76	0xbd060838	-0.03272268
77	0x3ef6dce9	0.48215416
78	0xbd82db59	-0.063894935
79	0x3e921983	0.2853509
80	0xbeb44879	-0.35211542
81	0xbec71748	-0.3888495
82	0x3d6895cf	0.056783494
83	0xbf092048	-0.5356488
84	0xbe8922eb	-0.26784453
85	0x3e70abfc	0.23503107
86	0x3f059360	0.52178
87	0x3e5a8177	0.2133845
88	0xbf2870cc	-0.65797114
89	0xbecc8bf8	-0.39950538
90	0xbeb68505	-0.3564836
91	0xbe252bf2	-0.16130045
92	0x3ea603c2	0.32424742
93	0xbed01c9e	-0.40646833
94	0x3e81960a	0.25309783
95	0x3c2c953e	0.010533629
96	0xbe8a9c2b	-0.27072272
97	0x3e1bf5b2	0.15230444
98	0xbcfa6800	-0.03056717
99	0xbe027be2	-0.1274257
100	0x3e55f73f	0.20895098
101	0x3d1fab21	0.03898156
102	0x3d961ad2	0.07329334
103	0xbdab9dd7	-0.08379715
104	0x3d2a9c98	0.041653246
105	0xbd6cad69	-0.057782564
106	0xbea4ea40	-0.3220997
107	0x3d469a39	0.048486922
108	0x3e8c0be5	0.27352825
109	0xbeb2e287	-0.34938452
110	0xbeb8d927	-0.36103174
111	0x3da1bfc1	0.07897902
112	0x3f107288	0.5642476
113	0x3ae28d1c	0.0017284486
114	0x3e7571ab	0.23969142
115	0x3e3175c3	0.17330079
116	0xbe0386c3	-0.12844376
117	0x3e0765bc	0.13222402
118	0xbee513f0	-0.44741774
119	0xbecdec3a	-0.4021929
120	0x3e8b065b	0.27153286
121	0x3eb23389	0.34804943
122	0x3d852381	0.065009125
123	0x3e61dd30	0.22057033
124	0xbd26b5b4	-0.04070063
125	0xbe9001b4	-0.281263
126	0xbdfb8b67	-0.12282448
127	0xbdcdd804	-0.10050967
128	0xbe97d193	-0.2965208
129	0x3d91b991	0.07115472
130	0x3e82f590	0.25577974
131	0x3d3fa6d3	0.046789955
132	0xbe247864	-0.1606155
133	0xbeb68b4f	-0.3565316
134	0xbe65391c	-0.22385067
135	0x3e1df3f6	0.15425095
136	0x3e956e4a	0.29185706
137	0x3e83ad0c	0.25717962
138	0xbca626cb	-0.02028217
139	0xbdd22725	-0.102613725
140	0x3d667376	0.056262456
141	0x3eb42d6e	0.3519091
142	0xbed7ea64	-0.42171013
143	0xbef066af	-0.4695334
144	0xbe63f4c7	-0.22261344
145	0x3dceab02	0.10091211
146	0xbe85fab5	-0.26167837
147	0xbe0016cf	-0.12508701
148	0x3e749e40	0.23888493
149	0x3eb5b4b1	0.3548942
150	0xbdd565ef	-0.10419833
151	0xbd772357	-0.060336437
152	0xbe880be0	-0.2657156
153	0x3e4a720b	0.19770066
154	0x3e582c1c	0.21110576
155	0xbe90ccb9	-0.2828119
156	0xbe647f5e	-0.22314212
157	0x3ea93de6	0.33055037
158	0xbf068310	-0.52543736
159	0xbe07339a	-0.13203278
160	0x3e5905da	0.21193638
161	0x3e7e9630	0.2486198
162	0x3e37beca	0.17943874
163	0xbe86351c	-0.26212394
164	0x3e3265ec	0.17421693
165	0xbe64378f	-0.22286819
166	0xbe9c4b22	-0.30526072
167	0x3eb5bab0	0.35493994
168	0xbb6b6ea6	-0.0035924106
169	0x3be7995c	0.0070678424
170	0x3e0a0597	0.13478695
171	0x3e91ae1f	0.28453156
172	0xbec040cd	-0.3754944
173	0x3e05c062	0.1306167
174	0x3dda3bd4	0.106559426
175	0x3bcd4553	0.0062643676
176	0x3dbf52ee	0.093419895
177	0x3d8cb399	0.06870193
178	0x3e91cd2f	0.28476855
179	0xbe1e53b9	-0.15461625
180	0x3e346d16	0.17619738
181	0xbeb15f1d	-0.34642878
182	0x3db4159c	0.08793184
183	0x3e05f876	0.13083062
184	0xbea5eeca	-0.32408744
185	0xbecca99a	-0.39973146
186	0x3eb33a85	0.35005584
187	0xbe57ad97	-0.21062313
188	0x3d58193e	0.052758448
189	0xbcb6e865	-0.022327611
190	0x3db74826	0.08949308
191	0x3ea7a236	0.32740945
192	0xbec57d61	-0.3857222
193	0xbd8c3242	-0.068455234
194	0xbe622071	-0.22082688
195	0x3dfd35df	0.12363791
196	0xbe0bf648	-0.13668168
197	0xbb942da6	-0.0045220433
198	0xbe8e90e5	-0.2784492
199	0x3e776a55	0.24161656
200	0x3e72c385	0.23707397
201	0x3e5de5e2	0.21669725
202	0x3ea22b1c	0.31673515
203	0xbe9896d6	-0.2980258
204	0x3e820289	0.2539256
205	0xbdb122a6	-0.08649187
206	0xbdd3c1f8	-0.10339731
207	0xbd3ca4a2	-0.046055444
208	0x3dd759da	0.10515185
209	0xbd529121	-0.051407937
210	0xbec7383e	-0.38910097
211	0x3d2b9bfc	0.041896805
212	0xbea9b2aa	-0.33144122
213	0x3e7df85b	0.24801771
214	0xbd6a34e1	-0.057179336
215	0xbd82433d	-0.06360481
216	0x3e91abef	0.28451487
217	0x3de77e00	0.113033295
218	0x3ec2afed	0.38024846
219	0x3dcb8b15	0.09938637
220	0xbe724f7b	-0.23663132
221	0x3b045621	0.0020192938
222	0x3d2b514e	0.041825585
223	0x3a978d2b	0.0011562457
224	0xbd0d5832	-0.034507938
225	0xbd9b2087	-0.075745635
226	0xbe7a51e5	-0.24445303
227	0x3d8e52d5	0.06949393
228	0x3e90fefb	0.28319535
229	0x3e84fbbc	0.25973308
230	0x3e6f0909	0.2334329
231	0xbee09e81	-0.4387093
232	0xbe3313d4	-0.17488033
233	0x3ec1838a	0.3779567
234	0xbe1bd7f6	-0.15219101
235	0x3dd42047	0.10357719
236	0xbdbfb13c	-0.09359977
237	0xbe4db13b	-0.2008714
238	0xbc4886e1	-0.012239189
239	0xbe28ed7f	-0.16496848
240	0x3cd82803	0.026386267
241	0xbde60819	-0.11232013
242	0xbd05e15f	-0.032685634
243	0x3d9a608f	0.07537948
244	0x3e9a5047	0.30139372
245	0x3e382894	0.1798423
246	0xbe2217f7	-0.15829454
247	0x3e3710f8	0.17877567
248	0x3ec4dc6f	0.38449427
249	0xbe39d7b7	-0.18148695
250	0xbe95f4cd	-0.2928833
251	0xbdafee88	-0.08590418
252	0xbe62f054	-0.2216199
253	0xbead0203	-0.33790597
254	0xbea6945a	-0.32535058
255	0xbcd5926a	-0.026070792

gconv.2.weight f4 [3, 16, 16]
0	0xbdb3e6d5	-0.08784262
1	0xbea8b2b7	-0.3294885
2	0xbda1bb20	-0.078970194
3	0xbc95c55d	-0.018282587
4	0x3e911765	0.2833816
5	0x3e26c1d9	0.16284885
6	0x3ddaf1d9	0.1069066
7	0x3ead3c90	0.33835268
8	0xbd433eab	-0.047667187
9	0x3e924049	0.2856467
10	0xbd1812fa	-0.037127472
11	0xbeba8856	-0.3643214
12	0xbd548e76	-0.051893674
13	0x3e11683a	0.14199916
14	0x3e67ae9b	0.226252
15	0xbda42f7e	-0.08016871
16	0xbe66378b	-0.22482125
17	0x3cb0d758	0.021587059
18	0x3e04f561	0.1298423
19	0xbeccc9e7	-0.3999779
20	0xbe844612	-0.2583471
21	0x3ec52506	0.3850481
22	0xbee39fa9	-0.4445775
23	0x3e4c48e3	0.19949679
24	0x3e7a6223	0.24451499
25	0xbe76d8ab	-0.2410609
26	0xbdf6293f	-0.12019586
27	0x3d159c70	0.036526144
28	0xbed3e884	-0.41388333
29	0xbec56a2e	-0.3855757
30	0x3e0eec09	0.13957228
31	0x3e9093d5	0.28237787
32	0x3d582e16	0.052778326
33	0x3d8de497	0.06928366
34	0x3eb63c68	0.3559296
35	0xbddfae6a	-0.10921939
36	0xbdd059c8	-0.101733744
37	0xbde68260	-0.11255336
38	0x3e579c6a	0.21055761
39	0x3e7b77c7	0.2455741
40	0xbe2474c1	-0.16060163
41	0x3dea9c95	0.11455647
42	0xbe476353	-0.19471483
43	0x3e1e9ca7	0.15489446
44	0xbe6a2bd0	-0.22868276
45	0x3c1176ad	0.008878392
46	0x3e261451	0.16218688
47	0x3e8e28a4	0.2776538
48	0xbeb7385e	-0.35785192
49	0xbd16c196	-0.03680571
50	0xbe3e22e3	-0.18567996
51	0x3d98d4ca	0.07462461
52	0xbf00a74e	-0.50255287
53	0x3ed762a7	0.42067453
54	0xbee1051d	-0.43949214
55	0x3e312d0c	0.1730234
56	0x3e86090b	0.26178774
57	0x3e81894b	0.2530006
58	0x3e2ff283	0.17182355
59	0x3e33cb87	0.17558108
60	0x3e828b16	0.2549674
61	0x3edc249b	0.42996678
62	0x3dafe6ca	0.085889414
63	0x3edd14e8	0.43180013
64	0x3e848ebc	0.25890148
65	0x3e1f7390	0.15571427
66	0x3e2768d6	0.16348585
67	0xbecfc464	-0.40579522
68	0x3dffcbd2	0.124900475
69	0x3e573794	0.21017295
70	0xbe5c2ad9	-0.2150072
71	0xbf19e955	-0.6012166
72	0x3e2088cc	0.15677184
73	0x3dedda4c	0.116139024
74	0xbd252948	-0.040322572
75	0xbe9fe262	-0.31227404
76	0xbdb03e58	-0.08605641
77	0x3c2f0b72	0.010683881
78	0xbec2e011	-0.38061574
79	0xbe364562	-0.17799905
80	0x3e0302a5	0.12793978
81	0x3e20e24b	0.15711324
82	0x3b8bfcea	0.004272093
83	0x3d4c1b83	0.049830925
84	0xbedb8fa1	-0.42883018
85	0x3a4c6177	0.0007796506
86	0xbe92dcc2	-0.2868405
87	0xbeb5e6c0	-0.3552761
88	0xbe41ffbe	-0.18945214
89	0xbe6ca0c3	-0.231082
90	0xbde324be	-0.110909924
91	0x3dcf7eee	0.10131632
92	0x3e1c3fb8	0.15258682
93	0x3de66d66	0.11251335
94	0xbeb1e12a	-0.347421
95	0x3e06554b	0.13118474
96	0x3d2fe132	0.042939372
97	0x3e3d989c	0.18515247
98	0xbec26975	-0.37971082
99	0xbe7b15c9	-0.24520029
100	0xbdbee368	-0.09320718
101	0x3ea62b91	0.32455114
102	0xbe7efa2c	-0.2490012
103	0x3ed022a9	0.40651444
104	0xbf05a355	-0.5220235
105	0x3d859d70	0.065241694
106	0xbe8b91e6	-0.2725975
107	0xbe5bdd3c	-0.21471113
108	0xbf0e186d	-0.5550602
109	0xbc8373be	-0.016046401
110	0xbf05c54b	-0.5225417
111	0xbd943c21	-0.07238031
112	0x3d6a5e30	0.05721873
113	0x3cc9faa3	0.024655646
114	0xbe710b2f	-0.23539422
115	0xbe28633f	-0.1644411
116	0xbecea108	-0.40357232
117	0xbe3949fd	-0.1809463
118	0xbdce5649	-0.10075051
119	0xbebed82b	-0.37274298
120	0x3eadbd30	0.339334
121	0xbedda866	-0.4329254
122	0xbc134a64	-0.008989904
123	0xbea0b0c4	-0.3138486
124	0x3e153a7e	0.14573094
125	0xbe122a22	-0.14273885
126	0xbdc1867f	-0.09449481
127	0xbec6f849	-0.38861302
128	0x3d21bba1	0.039485577
129	0xbe65492d	-0.22391196
130	0xbd2351bf	-0.03987288
131	0x3d965272	0.07339944
132	0xbedd9f96	-0.43285817
133	0xbe9fe081	-0.3122597
134	0xbe6c3bfe	-0.2306976
135	0x3be5ae40	0.0070092976
136	0xbecf9069	-0.40539864
137	0x3ea088ee	0.3135447
138	0x3df018cf	0.11723482
139	0x3e39ba3d	0.1813745
140	0x3ee8e4eb	0.4548715
141	0x3ef339d5	0.4750506
142	0x3d781123	0.060563218
143	0xbeced4f4	-0.40396845
144	0x3e57d8fd	0.21078868
145	0x3e29cd91	0.16582324
146	0x3e94060a	0.28910857
147	0x3d852c50	0.065025926
148	0xbe88d720	-0.26726627
149	0x3dac9653	0.084271096
150	0xbeb753c3	-0.35806093
151	0xbea3a37b	-0.31960663
152	0x3e109f89	0.14123358
153	0x3e9c23a8	0.30495954
154	0x3e9542f2	0.29152638
155	0xbeaa08be	-0.33209795
156	0xbe317e29	-0.17333283
157	0xbd9d7c3c	-0.076897115
158	0x3ea319f8	0.3185575
159	0xbeaba456	-0.33523816
160	0xbe5bdba1	-0.214705
161	0x3e7eaf61	0.24871589
162	0xbe826c98	-0.25473475
163	0x3d653762	0.05596102
164	0xbdba9f17	-0.09112375
165	0x3efb80a7	0.4912159
166	0xbe966156	-0.29371136
167	0xbc90931b	-0.01764827
168	0xbe6dad24	-0.23210579
169	0x3d01510c	0.031571433
170	0xbef31b83	-0.47481927
171	0x3c8b7935	0.01702557
172	0x3dcc83cc	0.09986076
173	0x3e81c129	0.25342682
174	0x3cb702b7	0.022340162
175	0x3e7414a1	0.23835994
176	0xbe0ecb71	-0.13944794
177	0x3ce90768	0.028445914
178	0xbed5c471	-0.41751435
179	0xbdcdb69f	-0.10044598
180	0x3e967057	0.29382583
181	0xbe32c062	-0.174562
182	0xbe9ef8ef	-0.31049296
183	0xbe9305dd	-0.2871541
184	0xbc5db86e	-0.013532741
185	0x3b263b14	0.0025364803
186	0x3ee0115a	0.43763238
187	0xbeb3a474	-0.35086405
188	0x3eaa940d	0.3331608
189	0xbe840c83	-0.25790796
190	0xbe518839	-0.20462121
191	0x3e5a5c8b	0.21324365
192	0xbede4b3c	-0.43416774
193	0x3e654462	0.22389367
194	0xbabc9cc2	-0.0014389979
195	0xbea354d9	-0.3190067
196	0x3e10008f	0.14062713
197	0xbe8b94dd	-0.2726201
198	0x3e166041	0.14685155
199	0xbe64781a	-0.2231144
200	0xbed603fa	-0.4179991
201	0xbdd372ed	-0.10324655
202	0xbd15fbdb	-0.03661714
203	0xbed1886e	-0.409244
204	0x3dd491d2	0.103793755
205	0x3e5cf9d3	0.21579675
206	0x3e49d33e	0.19709489
207	0xbe3ecdc1	-0.18633176
208	0x3d62257e	0.055211537
209	0xbeb6ba23	-0.35688886
210	0x3d2917ad	0.041282345
211	0xbe1c1895	-0.15243752
212	0xbeb3066b	-0.34965834
213	0x3e858501	0.26078036
214	0xbe287047	-0.1644908
215	0xbd94f37a	-0.07273002
216	0xbea6ff4a	-0.32616645
217	0x3e861de5	0.26194683
218	0x3ec8a4b8	0.3918817
219	0xbe2f10e3	-0.17096286
220	0xbc380d5e	-0.011233656
221	0xbee725ec	-0.4514612
222	0x3eb63120	0.35584354
223	0x3e73aeba	0.23797122
224	0x3df5250d	0.119699575
225	0xbec9afd7	-0.39391968
226	0xbe3e54a8	-0.18586981
227	0xbe642710	-0.22280526
228	0xbeb0c3c0	-0.34524345
229	0x3de9a488	0.11408335
230	0x3e436e65	0.19085081
231	0x3eb319af	0.34980533
232	0xbc8a5d3c	-0.01689016
233	0x3e18e5e9	0.14931454
234	0x3eada390	0.3391385
235	0xbd6d05e9	-0.057866964
236	0xbd9ed6ef	-0.07755839
237	0x3ea13e00	0.31492615
238	0x3d4cbb63	0.049983393
239	0xbe51d161	-0.20490028
240	0xbe8ea3f1	-0.27859452
241	0x3e60c370	0.21949553
242	0x3e1bcb85	0.15214355
243	0x3ed01847	0.40643522
244	0xbddb8974	-0.107195765
245	0xbe6b6750	-0.2298863
246	0xbda8fd88	-0.08251482
247	0xbe81bbe3	-0.2533866
248	0x3e4aa408	0.19789135
249	0x3eb7c947	0.3589575
250	0xbe6a0cd6	-0.22856459
251	0x3e1ccb12	0.1531184
252	0x3cc92bc6	0.024557006
253	0xbe659aae	-0.22422287
254	0x3eaf71eb	0.342666
255	0x3e669cca	0.22520748

gconv.3.weight f4 [3, 16, 16]
0	0x3dae3820	0.08506799
1	0xbd87b8d0	-0.06627047
2	0xbd1364f5	-0.035984952
3	0xbd8c4fbb	-0.06851145
4	0x3e4b5c71	0.19859482
5	0xbd86c188	-0.06579882
6	0xbe4e12d1	-0.20124365
7	0x3d411698	0.047140688
8	0xbed3c146	-0.41358393
9	0xbe409b33	-0.18809204
10	0x3e73664b	0.2376949
11	0xbe1867bb	-0.1488332
12	0xbc13b6fd	-0.009015796
13	0xbd9be51b	-0.07612058
14	0xbe5451b2	-0.2073429
15	0xbe3201b3	-0.1738346
16	0x3eb5f728	0.35540128
17	0xbe83fd5d	-0.25779238
18	0xbeb0c3ae	-0.34524292
19	0xbe85902e	-0.26086563
20	0x3e757e29	0.23973908
21	0x3b94b714	0.004538426
22	0x3db93674	0.09043589
23	0x3ec87389	0.39150646
24	0x3d4474b3	0.047962856
25	0xbdd6aa37	-0.10481685
26	0xbe866810	-0.26251268
27	0x3cd8875a	0.026431728
28	0x3df9f1ce	0.12204324
29	0xbe3eb288	-0.18622792
30	0xbc6431cc	-0.013927888
31	0x3e71552a	0.23567644
32	0x3de15966	0.110033795
33	0xbe8d6b0a	-0.27620727
34	0x3e93ebe0	0.28890896
35	0xbdc5ab38	-0.09651798
36	0xbee8eae3	-0.45491704
37	0x3e91b47e	0.28458017
38	0x3d1b1120	0.03785813
39	0xbcae838d	-0.021302963
40	0xbe0bb9ae	-0.1364505
41	0x3df97756	0.12180965
42	0xbecbb44f	-0.39786002
43	0x3eb7e510	0.35916948
44	0xbe9e0ff1	-0.30871537
45	0xbebdf431	-0.37100366
46	0xbe7b1d63	-0.24522929
47	0x3e60bfb9	0.21948136
48	0xbe34afdf	-0.17645214
49	0xbd1a5e7c	-0.037687764
50	0x3dfd9504	0.12381938
51	0xbe833879	-0.25629023
52	0xbeaeb64c	-0.34123456
53	0x3e1452c9	0.14484705
54	0x3daa5ad1	0.08318103
55	0x3de1557b	0.11002632
56	0x3e4c9b88	0.19981205
57	0x3d1ffb2e	0.039057903
58	0x3e39d066	0.18145904
59	0xbe26bdec	-0.16283387
60	0x3e9bdf70	0.30443907
61	0x3d9c43c3	0.07630112
62	0xbd7f3522	-0.06230653
63	0xbe3d46ef	-0.1848409
64	0x3eaa9cbd	0.33322707
65	0x3d8bbe8e	0.06823455
66	0xbee662b3	-0.44997177
67	0x3bf96dd9	0.007611972
68	0x3eb968f1	0.36212876
69	0xbe922155	-0.28541055
70	0x3d5319a2	0.051538117
71	0x3ed6cd2e	0.41953415
72	0x3d3e661a	0.04648409
73	0xbe6d367b	-0.23165314
74	0xbdaa577b	-0.08317467
75	0x3d19f140	0.03758359
76	0x3e51c098	0.20483625
77	0x3eb5ad0d	0.3548359
78	0xbecf7dd7	-0.40525696
79	0xbd842408	-0.06452185
80	0x3d276047	0.0408633
81	0xbe108bf1	-0.14115883
82	0xbeeaadd4	-0.45835745
83	0xbe8f633e	-0.28005403
84	0x3be4b519	0.0069795963
85	0xbe7d6694	-0.24746162
86	0xbe0f269d	-0.13979574
87	0x3eeefa32	0.4667526
88	0xbe81fda4	-0.25388825
89	0x3d25a622	0.04044164
90	0xbedcc5d4	-0.4311968
91	0xbee0c7fb	-0.43902573
92	0xbdc9f455	-0.09861056
93	0x3e07380c	0.13204974
94	0xbd8ce0fd	-0.068788506
95	0x3e6671ad	0.22504301
96	0x3dc1b517	0.09458368
97	0xbda36c08	-0.0797959
98	0xbea0f667	-0.3143799
99	0xbb9e6a74	-0.0048344675
100	0xbe59ad50	-0.2125752
101	0x3ea3d85d	0.3200101
102	0xba30ecd3	-0.0006749157
103	0xbea7ce83	-0.32774743
104	0x3d2101af	0.039308246
105	0xbda64be5	-0.081199445
106	0x3e8d27a7	0.27569315
107	0xbe5d2676	-0.21596703
108	0xbeb5a7eb	-0.35479674
109	0xbe4abe14	-0.19799072
110	0xbd3f590b	-0.046715777
111	0x3e37abb4	0.17936593
112	0x3e90a602	0.28251654
113	0x3e5ffe70	0.21874404
114	0xbbd724f1	-0.006565683
115	0xbe067dc1	-0.13133909
116	0x3e41abad	0.18913145
117	0xbe8fa0a4	-0.28052247
118	0xbe1576eb	-0.14596145
119	0x3e89f613	0.26945552
120	0xbeb9b945	-0.36274162
121	0x3e70774b	0.23483007
122	0x3e4196bc	0.18905157
123	0x3df19456	0.11795871
124	0x3e964688	0.29350686
125	0xbe94a28f	-0.29030272
126	0xbed47f1f	-0.41503236
127	0x3ec7d272	0.39027745
128	0xbe5844a6	-0.21119937
129	0xbdbeb2c8	-0.093114436
130	0x3d2eaf3e	0.042647593
131	0xbdf3146f	-0.11869132
132	0x3dc44a02	0.09584428
133	0x3dd80c89	0.10549266
134	0x3e6eb84c	0.23312491
135	0x3e2764cd	0.16347046
136	0x3eb4d562	0.35319048
137	0xbd5ccac2	-0.053904302
138	0x3e99d213	0.30043086
139	0x3ec9067f	0.3926277
140	0x3e47b5bb	0.19502918
141	0x3e55dc4f	0.20884822
142	0x3ea53b3b	0.32271752
143	0xbd87a686	-0.06623559
144	0xbd871c0c	-0.065971464
145	0xbdca22c5	-0.09869913
146	0xbd8ca73d	-0.06867836
147	0xbe796818	-0.24356115
148	0xbcde6b16	-0.027150672
149	0xbe469fa7	-0.1939684
150	0xbe9ea226	-0.30983084
151	0x3e80a73d	0.25127593
152	0x3eb9cdab	0.36289725
153	0xbe8d0570	-0.2754321
154	0xbeaff405	-0.3436586
155	0xbed1039d	-0.4082307
156	0xbeb5e0c9	-0.3552306
157	0x3e812015	0.2521979
158	0xbe16c476	-0.14723381
159	0xbeef5773	-0.46746406
160	0xbc35b4f6	-0.011090508
161	0x3e8305f5	0.25590482
162	0xbe1f5417	-0.15559421
163	0xbda06c12	-0.07833113
164	0x3ee4011f	0.44532105
165	0xbda7bc74	-0.081902415
166	0x3e2d1fd1	0.16906668
167	0x3ebebbcb	0.3725265
168	0x3e6f6a2f	0.2338035
169	0xbe61d4eb	-0.22053878
170	0xbe11fe4f	-0.14257167
171	0x3e9488c1	0.29010585
172	0xbeb2076f	-0.34771296
173	0xbd7887e5	-0.060676474
174	0x3e0ff4b3	0.14058189
175	0x3e01355e	0.12618014
176	0x3d60c115	0.054871637
177	0xbeaf7dde	-0.34275717
178	0xbd97457c	-0.073863
179	0xbd94afa0	-0.0726006
180	0xbe9820f3	-0.29712638
181	0xbdc92daf	-0.098231666
182	0xbecc3177	-0.3988149
183	0xbe64c006	-0.22338876
184	0x3e8f5256	0.27992505
185	0x3db8ce50	0.09023726
186	0xbe95460c	-0.29155004
187	0xbeccc5f7	-0.39994785
188	0xbec82cd6	-0.39096707
189	0xbe442b00	-0.19157028
190	0x3c789bce	0.0151738655
191	0xbe3728ab	-0.17886607
192	0xbe0ef436	-0.13960347
193	0x3e9f16f1	0.3107219
194	0xbe6ed52c	-0.23323506
195	0xbed363f9	-0.4128721
196	0x3eb79726	0.35857505
197	0xbe4f5e99	-0.2025093
198	0x3e8ca427	0.27468988
199	0xbeb5c163	-0.35499105
200	0x3e9cfc8b	0.30661425
201	0xbb661ec6	-0.0035113557
202	0x3e3dd5dd	0.18538614
203	0xbcea4ff4	-0.028602578
204	0xbeb7bc6b	-0.3588594
205	0x3e1453cb	0.1448509
206	0xbeaa33bd	-0.33242598
207	0xbef53a6a	-0.4789613
208	0x3dcbc979	0.09950537
209	0x3e32e5f0	0.17470527
210	0x3e49b28a	0.19697013
211	0xbeaa3bff	-0.33248898
212	0xbed99e2c	-0.42503488
213	0xbe8e612e	-0.27808517
214	0x3d4bb162	0.049729712
215	0xbe3a74ce	-0.1820862
216	0x3e02dae4	0.12778813
217	0xbec3f713	-0.3827444
218	0xbe57f481	-0.21089365
219	0xbeca0328	-0.39455533
220	0xbe9b9b22	-0.30391794
221	0xbeb74793	-0.35796794
222	0x3e201cf0	0.15636039
223	0xbe23cdaf	-0.15996431
224	0x3e344e82	0.17608073
225	0x3e1c65f1	0.15273263
226	0xbe6329b1	-0.22183873
227	0xbe0fe54b	-0.14052312
228	0xbe939199	-0.2882202
229	0x3bb9e8c2	0.005673499
230	0x3d9a9f5a	0.07549925
231	0xbd848f00	-0.064725876
232	0x3e0b7492	0.13618687
233	0xbe383912	-0.1799052
234	0x3ecef737	0.40422985
235	0x3e797fb2	0.24365118
236	0x3e3dd1d9	0.18537082
237	0xbc46a4aa	-0.01212422
238	0xbbe3f1c5	-0.0069563114
239	0xbe5ca5c0	-0.21547604
240	0x3e6b535c	0.22981018
241	0xbe25d9e6	-0.16196403
242	0xbc7700aa	-0.015075842
243	0x3c2e9502	0.010655643
244	0xbdbddf9c	-0.09271166
245	0xbe6c6126	-0.23083934
246	0x3e12baf8	0.14329135
247	0x3e4a7041	0.19769384
248	0x3df88cb2	0.121362105
249	0xbee5679b	-0.44805607
250	0x3e43ebd4	0.1913293
251	0x3de1453f	0.10999536
252	0x3d8d473e	0.06898354
253	0x3d883e91	0.066525586
254	0xbe2b5dc1	-0.16734983
255	0x3ec37a54	0.38179266

cls.0.weight f4 [256, 64]
0	0xbe18eaa0	-0.14933252
1	0x3e531655	0.20613988
2	0x39ecf82c	0.0004519833
3	0xbac46659	-0.0014984115
4	0x3beaddb9	0.0071675447
5	0x3d14f6e9	0.036368284
6	0xbd263b6f	-0.040584024
7	0xbb6d9603	-0.0036252744
8	0xbc7e2a41	-0.015513004
9	0x3bc85835	0.0061140307
10	0x3ded784e	0.11595212
11	0x3d56809c	0.052368745
12	0xbd5dcfd2	-0.05415327
13	0xba9ba9cf	-0.0011876168
14	0x3db4bb6e	0.08824812
15	0x3cb4cdcd	0.02207079
16	0x3e85d83c	0.26141536
17	0x3e4017cb	0.18759076
18	0xbab2f757	-0.0013654035
19	0xb991bb79	-0.00027796233
20	0x3de2c3dc	0.110725135
21	0x3df20559	0.11817426
22	0xbcf332cc	-0.029687308
23	0x3dc37a44	0.09544805
24	0x3cee3da5	0.029082129
25	0xbaa259f2	-0.0012386425
26	0xbe3516df	-0.17684506
27	0x3dfeb38b	0.12436589
28	0x3b64f5b5	0.0034936492
29	0xbd9fa350	-0.07794821
30	0x3bff5c56	0.0077929897
31	0x3c5bf2f4	0.013424624
32	0x3da297d7	0.079391174
33	0x3d7405bf	0.059575792
34	0x3d2d52f9	0.042315457
35	0x3cfd095e	0.030888256
36	0xbe5c1dc2	-0.21495727
37	0x3e5ac89d	0.2136559
38	0xb961d48b	-0.0002153685
39	0xbcb5e6d8	-0.022204801
40	0xbd6fb529	-0.058522377
41	0xbd8c7981	-0.068591125
42	0x3cfc8071	0.030822964
43	0x3d622bc1	0.05521751
44	0x3d674400	0.056461334
45	0xbdc39e1f	-0.095516436
46	0x3ec42f60	0.38317394
47	0xbd31feb0	-0.04345578
48	0xbdf16bc5	-0.117881335
49	0xbdda7fa5	-0.106688775
50	0xbdf0002b	-0.11718782
51	0xbac618ec	-0.0015113628
52	0x3d86017c	0.06543252
53	0x3dff355a	0.12461348
54	0x3e92cf23	0.28673658
55	0x3d9417e6	0.07231121
56	0x3e33d115	0.17560227
57	0x3c705645	0.014669006
58	0xbbe0ff62	-0.0068663815
59	0x3e0b7590	0.13619065
60	0x3dbcb007	0.09213262
61	0x3c29f4da	0.010373319
62	0x3d66056d	0.05615752
63	0x3da1f454	0.0790793
64	0x3e6030f0	0.21893668
65	0xbe489726	-0.19588909
66	0x3da33f16	0.07971017
67	0x3dd88c32	0.10573615
68	0xbc929a31	-0.01789579
69	0x3e76c2ad	0.240977
70	0x3e2db593	0.16963796
71	0xbe3072c7	-0.17231284
72	0x3ef1d153	0.47230014
73	0x3e275377	0.16340433
74	0xbeb61232	-0.35560757
75	0xbeb736e3	-0.35784063
76	0x3d463a4a	0.048395433
77	0x3ddc8ef0	0.10769451
78	0x3ea1cc48	0.31601167
79	0x3eb7d214	0.35902464
80	0x3e7df095	0.24798806
81	0x3d08c38b	0.03338961
82	0xbccde24e	-0.025132325
83	0x3eb9fda0	0.36326313
84	0x3e0cc8a9	0.13748421
85	0xbd002419	-0.031284425
86	0x3e93e6fc	0.28887165
87	0x3ece171d	0.4025201
88	0x3dd727b8	0.105056226
89	0x3cfe283a	0.03102504
90	0xbe137f91	-0.14404131
91	0xbe5cc58b	-0.21559732
92	0x3e9e28f6	0.30890626
93	0xbccec8d3	-0.025242245
94	0x3d447c76	0.047970258
95	0x3e691e4b	0.22765462
96	0xbb24a1a0	-0.002512075
97	0x3d063aaa	0.03277079
98	0x3e5d2fb0	0.21600223
99	0x3c1c4bf7	0.009539596
100	0xbe29676d	-0.1654336
101	0x3eda2f77	0.42614338
102	0xbd2706c4	-0.040777937
103	0x3dd9fd0a	0.106439665
104	0x3eaf9dde	0.3430013
105	0xbe8cd6c9	-0.27507618
106	0xbe66549a	-0.2249321
107	0x3d3b7f9b	0.04577599
108	0xbeb483fa	-0.3525694
109	0x3ec7007e	0.38867563
110	0x3e03ca2c	0.12870091
111	0xbea13dce	-0.31492466
112	0xbd9b6891	-0.07588304
113	0xbcb97faa	-0.022643883
114	0x3e0c1074	0.13678151
115	0xbab62d47	-0.0013898992
116	0x3e030329	0.12794174
117	0x3caabf18	0.020843074
118	0xbd4ec027	-0.05047622
119	0x3dbfa385	0.09357361
120	0x3e92056e	0.28519768
121	0xbdef02d1	-0.11670459
122	0xbe021f57	-0.12707268
123	0x3ea13cd5	0.31491724
124	0xbd6250b1	-0.055252735
125	0xbda9f3c7	-0.0829845
126	0xbea05258	-0.31312823
127	0x3e3187a6	0.17336902
128	0x3dd35949	0.10319764
129	0xbe6ab5ae	-0.22920868
130	0xbc49e749	-0.012323209
131	0x3e1e9c43	0.15489297
132	0xbdcb095a	-0.09913893
133	0xbd350ae0	-0.044199824
134	0x3ccfe64b	0.025378367
135	0xbe095574	-0.13411504
136	0x3d1199cf	0.035547074
137	0xbe7fcb28	-0.24979842
138	0x3d8e3776	0.06944172
139	0xbe24481e	-0.16043136
140	0xbc89f795	-0.01684169
141	0x3e2a061b	0.16603892
142	0xbda5052a	-0.080576256
143	0xbbd21c15	-0.006412039
144	0xbebe6dbd	-0.371931
145	0xbea04ef0	-0.31310225
146	0x3dbe7ecd	0.09301529
147	0x3e9d2417	0.30691597
148	0xbd8c0ea6	-0.068387315
149	0xbea002cd	-0.31252137
150	0x3c752317	0.014961979
151	0x3dfbc8c3	0.12294152
152	0x3e1cfe55	0.15331395
153	0xbe875a00	-0.26435852
154	0xbbba53eb	-0.0056862733
155	0x3d78fd18	0.060788244
156	0x3de75702	0.11295892
157	0xbe462d58	-0.19353235
158	0x3d81f802	0.06346132
159	0xbe5d4e8e	-0.21611997
160	0xbe3e0683	-0.18557172
161	0x3c0610e7	0.008182741
162	0x3e745aaa	0.2386271
163	0xbd8ca2c4	-0.068669826
164	0x3dd81d98	0.105525196
165	0x3f126950	0.57191944
166	0x3c9cbd81	0.019133331
167	0xbaa400da	-0.0012512461
168	0x3d8c22ad	0.068425514
169	0xbc2a8605	-0.010407929
170	0x3c9bc555	0.019014994
171	0x3d206e0c	0.03916745
172	0x3e10bd23	0.1413465
173	0x3e11aad4	0.14225322
174	0xbe0c2026	-0.13684139
175	0x3dd16d38	0.1022591
176	0xbe8dea66	-0.27717894
177	0xbe57aa4d	-0.21061058
178	0xbdd2aa1d	-0.10286353
179	0x3a98d79c	0.0011660936
180	0xbdc06398	-0.09393996
181	0xbdeba325	-0.11505727
182	0x3d71740e	0.05894857
183	0xbcddca5f	-0.027074037
184	0xbe9a1347	-0.30092832
185	0x3dc602ea	0.096685246
186	0x3e48f34c	0.1962406
187	0x3e5d294b	0.21597783
188	0xbd88e514	-0.06684318
189	0xbc2655c1	-0.010152281
190	0xbe003c4d	-0.12523003
191	0x3ae87614	0.0017735385
192	0xbdf50758	-0.11964291
193	0x3de06283	0.109562896
194	0xbc77d7c0	-0.015127122
195	0xb9ecb04e	-0.00045144785
196	0x3bcf797a	0.00633162
197	0xbd774d0b	-0.06037621
198	0xbc79a7ea	-0.015237788
199	0x3be38853	0.0069437413
200	0xbd711895	-0.058861334
201	0x3ddfd65c	0.10929558
202	0xb9be35e0	-0.00036279764
203	0x3da82c2e	0.082115516
204	0x3d1ee94a	0.0387967
205	0x3a65702b	0.0008752371
206	0x3c953170	0.01821205
207	0x3b78ab60	0.0037943944
208	0x3dc139bc	0.0943484
209	0xbc6d00a3	-0.014465484
210	0xbdbfd258	-0.09366292
211	0xbdaebf4e	-0.08532582
212	0x3e13e3ee	0.14442417
213	0xbb3ac14e	-0.0028496566
214	0x3b2bb801	0.0026202204
215	0x3ce98917	0.028507752
216	0x3ce6e3c3	0.028184777
217	0x3d3e4993	0.046456885
218	0xbd99ad0a	-0.07503708
219	0x3b3429a8	0.002749065
220	0x3d99633f	0.07489633
221	0xbd055c39	-0.032558654
222	0xbb8be172	-0.0042688185
223	0xbb9003ec	-0.004394999
224	0xbd7d535f	-0.061847087
225	0x3d6ce7ef	0.057838377
226	0x3c9816ac	0.018565498
227	0x3ce56453	0.02800194
228	0x3a588810	0.0008260021
229	0x3e0880be	0.13330361
230	0xbae88890	-0.0017740894
231	0x3c256d2e	0.010096831
232	0x3c90aacb	0.017659565
233	0x3e1a2989	0.15054907
234	0x3b9a81c4	0.0047151763
235	0x3bb2fab8	0.005462017
236	0xbcba5983	-0.02274776
237	0xbe1c63ab	-0.15272395
238	0x3e9a5e43	0.3015004
239	0xbcfc8309	-0.030824201
240	0x3dab41fc	0.08362195
241	0x3c94f788	0.018184438
242	0xbd97bde1	-0.074092634
243	0x3a70831a	0.0009174809
244	0x3cb44668	0.022006229
245	0xbbc256d0	-0.005930759
246	0xbdea42ac	-0.11438498
247	0x3e844f5d	0.258418
248	0xbe026609	-0.12734236
249	0x3b2dd7e0	0.0026526377
250	0xbdb2ca15	-0.0872995
251	0x3c6eedb3	0.014583039
252	0xbdb3b0e1	-0.08773971
253	0x3dbdd797	0.09269636
254	0xbccc0f00	-0.024909496
255	0x3e5026b1	0.2032726

cls.0.bias f4 [256]
0	0x3d4e69ae	0.050393753
1	0xbc2a8e0a	-0.010409841
2	0x3d438e7a	0.047743298
3	0x3d38e2a7	0.045138028
4	0xbd898512	-0.06714834
5	0xbd77a837	-0.060463157
6	0x3c7e5fd6	0.015525779
7	0xbd921475	-0.07132808
8	0xbd7ac71f	-0.061225053
9	0x3d466262	0.04843367
10	0x3dc0cf13	0.09414496
11	0x3d006a19	0.031351183
12	0x3d6539bd	0.055963267
13	0x3d0b190b	0.03395943
14	0xbd794bfd	-0.060863484
15	0xbd764dea	-0.0601329
16	0xbdf16a26	-0.11787824
17	0xbd8a3346	-0.06748061
18	0xbd79cebd	-0.060988177
19	0xbd28606f	-0.04110759
20	0xbd30c562	-0.04315699
21	0xbd7de961	-0.061990146
22	0x3d719455	0.05897935
23	0xbcfff265	-0.031243512
24	0x3d67c590	0.056584895
25	0xbd550711	-0.052008692
26	0xbd7121fa	-0.058870293
27	0xbdbafb7b	-0.09129997
28	0xbc95d6e7	-0.01829095
29	0xbbe133bc	-0.0068726223
30	0x3d5e7fca	0.054321088
31	0x3d95eec1	0.07320929
32	0x3d600740	0.054694414
33	0x3c9b6439	0.018968688
34	0xbcfe2fe5	-0.031028697
35	0xbd66c80c	-0.056343123
36	0xbd5d2a68	-0.05399552
37	0xbd750b81	-0.059825424
38	0x3d820d12	0.06350149
39	0xbd111965	-0.03542461
40	0xbd462708	-0.048377067
41	0x3cf250cd	0.029579544
42	0x3db52156	0.08844249
43	0xbe0ab95b	-0.1354727
44	0xbbaacf98	-0.0052127354
45	0x3d70acab	0.05875842
46	0xbd3930eb	-0.045212667
47	0x3d6221b6	0.05520793
48	0x3d02dab6	0.03194686
49	0xbd8a585a	-0.06755133
50	0xbd7781cf	-0.06042653
51	0x3d747def	0.059690412
52	0x3d7ea5f4	0.062169984
53	0x3d93d690	0.07218659
54	0xbd54cc4e	-0.051952653
55	0xbd68936e	-0.056781225
56	0x3db79ea1	0.08965803
57	0x3d655b9c	0.05599557
58	0xbda741e0	-0.081668615
59	0xbc863954	-0.016384758
60	0xbd774310	-0.06036669
61	0xbd812973	-0.06306734
62	0xbd889ac6	-0.06670146
63	0x3d122ddd	0.03568827
64	0xbd6218b6	-0.055199347
65	0x3d49a835	0.04923268
66	0x3d8140f7	0.06311219
67	0xbd4be8dd	-0.049782623
68	0x3c82fc0e	0.01598933
69	0x3dbda407	0.09259801
70	0x3c52cfdb	0.012866939
71	0xbdcb6e29	-0.09933121
72	0x3d76fc94	0.06029947
73	0xbcf94577	-0.030428631
74	0x3d39257b	0.04520176
75	0xbd91a884	-0.0711222
76	0x3cbd9ffa	0.023147572
77	0xbd82263a	-0.063549474
78	0xbd6e6d66	-0.0582098
79	0x3c00d0d6	0.00786229
80	0x3d268530	0.04065436
81	0xbd486e12	-0.048933096
82	0x3d81f46a	0.063454464
83	0xbbd733f1	-0.006567471
84	0xbd8f6dc4	-0.07003358
85	0x3dba8f3a	0.091093495
86	0x3cbd48b2	0.023105953
87	0xbd0cad94	-0.034345224
88	0xbd781ef4	-0.060576394
89	0x3ca77df4	0.020445801
90	0x3bbae393	0.0057033985
91	0xbdf4cc9d	-0.119530894
92	0x3d711200	0.058855057
93	0xbd7fe1b0	-0.06247109
94	0xbd74d34c	-0.05977182
95	0xb976f29e	-0.0002355077
96	0x3d86799d	0.06566165
97	0x3d6dcfe0	0.058059573
98	0x3ca05368	0.019571021
99	0x3cea5461	0.028604688
100	0x3daab776	0.08335774
101	0xbb57906b	-0.0032892476
102	0x3da086b1	0.0783819
103	0xbd7dc442	-0.061954744
104	0x3d5db040	0.054123163
105	0x3d127994	0.035760477
106	0x3cbd30f0	0.023094624
107	0x3d036b50	0.032084763
108	0xbd680f44	-0.056655183
109	0xbd96198f	-0.07329094
110	0xbd1edc6d	-0.038784433
111	0xbd227fbf	-0.03967261
112	0xbd6e7793	-0.058219504
113	0xbd822054	-0.06353822
114	0x3d628265	0.055300135
115	0xbd7cd56a	-0.061726965
116	0x3d1117e0	0.03542316
117	0xbd8a1280	-0.0674181
118	0xbdbff0f8	-0.09372133
119	0xbd790b77	-0.06080195
120	0x3d88f428	0.06687194
121	0xbd73d20f	-0.0595265
122	0x3c939584	0.01801563
123	0xbcb63f4d	-0.022246981
124	0x3ba782db	0.0051120347
125	0x3ac90c50	0.0015338752
126	0x3d58f75d	0.05297028
127	0x3cd49316	0.025949042
128	0xbd2eac4d	-0.042644788
129	0xbcc34469	-0.023836331
130	0x3d6a0b78	0.057139844
131	0xbbd38de8	-0.0064561255
132	0xbd5105f0	-0.051031053
133	0x3d7e1a5e	0.062036864
134	0xbda7534d	-0.08170185
135	0xbd0ca4b4	-0.03433676
136	0xbdea77d8	-0.1144864
137	0x3d68088e	0.056648783
138	0xbd8b1293	-0.06790652
139	0xbd7fdf16	-0.06246861
140	0x3d4a7dee	0.049436502
141	0xbc983d0d	-0.018583799
142	0x3c85698b	0.016285678
143	0xbd4c9f4c	-0.049956605
144	0xbcb6b512	-0.022303138
145	0x3c975615	0.018473664
146	0xbd692216	-0.056917273
147	0x3d1e4a16	0.038644873
148	0xbd74ca18	-0.059763044
149	0x3d88d961	0.06682087
150	0x3c91c1d6	0.017792623
151	0x3dac9bf0	0.0842818
152	0xbd2ec6a2	-0.0426699
153	0xbd5e36c6	-0.054251455
154	0x3d59f96c	0.053216383
155	0x3d6a1a2b	0.057153862
156	0xbc7079f5	-0.014677514
157	0xbd537a5c	-0.051630363
158	0x3d2e0c2b	0.042492073
159	0xbdb241a5	-0.08703927
160	0xbde37781	-0.11106778
161	0xbdba3169	-0.090914555
162	0xbdccc7c5	-0.099990405
163	0xbd218bc1	-0.03943992
164	0x3d767e0c	0.0601788
165	0xbd277cb8	-0.040890425
166	0x3d6cf1b6	0.0578477
167	0x3dc643c3	0.09680893
168	0x3d5a5faf	0.053313907
169	0x3da339c8	0.07970005
170	0x3d624204	0.05523874
171	0xbd8ff290	-0.07028687
172	0x3c7933be	0.01521009
173	0x3d3140fd	0.04327487
174	0xbda1bf13	-0.07897773
175	0xbd01b590	-0.031667292
176	0x3d7785fe	0.06043052
177	0xbd90d488	-0.07071787
178	0x3c9da49d	0.019243533
179	0xbd0a9045	-0.033828992
180	0xbdecdb1a	-0.11565228
181	0xbd60d870	-0.05489391
182	0x3d6f1949	0.058373723
183	0xbcf57201	-0.029961588
184	0x3d752bc1	0.05985618
185	0xbd643a72	-0.0557198
186	0x3daa3c21	0.0831225
187	0x3d96b825	0.073593415
188	0x3cac06a4	0.02099926
189	0xbd24fca7	-0.04028001
190	0x3d58a307	0.05288985
191	0xbd637ef9	-0.055541012
192	0xbd82970b	-0.063764654
193	0x3d72405b	0.059143405
194	0x3d84ed1a	0.06490536
195	0x3bcce266	0.0062525747
196	0xbcec98e2	-0.028881494
197	0xbd900701	-0.07032586
198	0x3d63a170	0.05557388
199	0x3c36ba77	0.011152855
200	0xbdc212e0	-0.09476256
201	0xbd82ad04	-0.06380656
202	0x3d0e56d7	0.034750786
203	0xbd2bcb04	-0.041941658
204	0x3df4829f	0.119389765
205	0x3dd91e6b	0.10601505
206	0xbd62782b	-0.055290382
207	0x3d959829	0.07304413
208	0xbd8b9654	-0.06815782
209	0xbc5b4778	-0.013383739
210	0xbd814a79	-0.06313033
211	0xbd3f23f0	-0.046665132
212	0x3d0cd881	0.03438616
213	0xbd273a61	-0.04082716
214	0x3cb2548f	0.021768836
215	0x3d544a7d	0.05182885
216	0x3d3c1108	0.04591468
217	0x3cd2b623	0.025721615
218	0x3d43f5d3	0.047841858
219	0xbd58460c	-0.052801177
220	0xbd7103a6	-0.05884137
221	0xbd8c1dc4	-0.06841615
222	0xbd6a5a12	-0.057214804
223	0xbd5a3e17	-0.05328187
224	0xbd402d05	-0.046917934
225	0x3d99c89b	0.075089656
226	0xbd71ec5a	-0.059063293
227	0x3cef2242	0.02919114
228	0x3d87e1ce	0.06634866
229	0x3d1021b6	0.0351884
230	0xbd7ecf67	-0.062209513
231	0x3d7a41a3	0.061097752
232	0x3c7d756f	0.015469893
233	0x3d54cdcf	0.051954087
234	0xbd9a772f	-0.07542264
235	0x3c18acd6	0.009318551
236	0x3cc00296	0.023438733
237	0x3dafa349	0.08576066
238	0x3d73f81f	0.0595628
239	0xbce56b29	-0.0280052
240	0x3d7c6e50	0.06162864
241	0x3ca5f160	0.020256698
242	0x3c7d9647	0.015477723
243	0x3d71bcc9	0.05901793
244	0xbd822e21	-0.06356455
245	0xbd8e4b34	-0.069479376
246	0x3dcc2cb3	0.09969463
247	0x3ca0fd4f	0.019652037
248	0xbdbc0db3	-0.091823004
249	0xbd725a93	-0.05916841
250	0x3d772cb5	0.06034537
251	0xbd62375a	-0.05522857
252	0xbd85a5df	-0.06525778
253	0xbd936ea6	-0.07198839
254	0xbd742e3f	-0.059614416
255	0xba1fb16e	-0.0006091808

cls.2.weight f4 [256]
0	0x3f6eea8c	0.9332664
1	0x3f79bbf0	0.97552395
2	0x3f66969b	0.90073556
3	0x3f34b0d9	0.7058235
4	0x3f5d52fa	0.8645474
5	0x3f70d91a	0.9408127
6	0x3f52edeb	0.82394284
7	0x3f6c5175	0.92311794
8	0x3f7a0512	0.97663987
9	0x3f803d37	1.0018681
10	0x3f66ff33	0.90233153
11	0x3f716f12	0.94310105
12	0x3f6608f2	0.898574
13	0x3f730afe	0.9493865
14	0x3f5a14d5	0.8518804
15	0x3f7267c1	0.94689566
16	0x3f681920	0.9066334
17	0x3f65f3f8	0.8982539
18	0x3f708871	0.93958193
19	0x3f6f43e0	0.93462944
20	0x3f6752d0	0.90360737
21	0x3f5699d1	0.83828455
22	0x3f765985	0.96230346
23	0x3f5d4820	0.8643818
24	0x3f5f65bd	0.87264615
25	0x3f76a080	0.96338654
26	0x3f76a169	0.9634004
27	0x3f737092	0.95093644
28	0x3f664e8e	0.89963615
29	0x3f61a070	0.88135433
30	0x3f736af9	0.950851
31	0x3f871b39	1.0555183
32	0x3f32d504	0.69856286
33	0x3faf0653	1.3673805
34	0x3f56b1c7	0.83865017
35	0x3f72ab6c	0.9479282
36	0x3f7a22bf	0.9770927
37	0x3f6bbe29	0.92087036
38	0x3f75ba58	0.95987463
39	0x3f5f7855	0.8729299
40	0x3f76f014	0.9646008
41	0x3f849ce5	1.036038
42	0x3f7ebdf0	0.9950857
43	0x3f7bf354	0.98418164
44	0x3f5b5dfd	0.8569029
45	0x3f237ecd	0.6386536
46	0x3f4a95bb	0.7913472
47	0x3f6eb2ab	0.93241376
48	0x3f6ca78a	0.92443144
49	0x3f7e9729	0.994494
50	0x3f70879e	0.93956935
51	0x3f7719cc	0.9652374
52	0x3f773c80	0.9657669
53	0x3f614d6e	0.88008773
54	0x3f75c743	0.96007174
55	0x3f76018e	0.9609612
56	0x3f6b79bc	0.91982627
57	0x3f6712ce	0.9026307
58	0x3f4a8a05	0.7911685
59	0x3f68edb7	0.90987724
60	0x3f438464	0.7637389
61	0x3f5939ab	0.8485362
62	0x3f7295f5	0.94760066
63	0x3f90ed17	1.1322354
64	0x3f665c44	0.89984536
65	0x3f753688	0.95786333
66	0x3f7029b8	0.9381366
67	0x3f5c6e3e	0.86105716
68	0x3fb3c74d	1.4045197
69	0x3f4bd444	0.79620767
70	0x3f9c131b	1.219333
71	0x3f66fba9	0.9022775
72	0x3f723acb	0.9462096
73	0x3f71867b	0.94345826
74	0x3f6f618f	0.9350824
75	0x3f40baef	0.7528524
76	0x3f75fbac	0.96087146
77	0x3f2317bd	0.63708097
78	0x3f53aab7	0.82682365
79	0x3f64b448	0.8933759
80	0x3f968a42	1.1760943
81	0x3f73314a	0.94997084
82	0x3f56ece8	0.8395524
83	0x3f7891e4	0.9709761
84	0x3f68354a	0.9070631
85	0x3f5f3d2a	0.87202704
86	0x3f63125b	0.88699883
87	0x3f704ff4	0.93872
88	0x3f33bb15	0.7020734
89	0x3f62aba8	0.88543177
90	0x3f6e0b46	0.9298595
91	0x3f482cac	0.78193164
92	0x3f72a926	0.9478935
93	0x3f619b84	0.88127923
94	0x3f5f317e	0.87184894
95	0x3f72717b	0.9470441
96	0x3f6ab172	0.9167701
97	0x3f74cca6	0.9562477
98	0x3f71b866	0.94421995
99	0x3f6efbf4	0.933532
100	0x3f51862d	0.8184536
101	0x3f59eba8	0.8512521
102	0x3f45076c	0.7696445
103	0x3f455174	0.7707741
104	0x3f7e1d9e	0.9926394
105	0x3f674b66	0.90349424
106	0x3f403eaa	0.7509562
107	0x3f2d806a	0.6777407
108	0x3f309b39	0.6898685
109	0x3f654874	0.8956368
110	0x3f36e558	0.714437
111	0x3f4d2a14	0.8014233
112	0x3f48c1f3	0.78420943
113	0x3f7a41ef	0.97756857
114	0x3f6109c4	0.87905526
115	0x3f52f6b1	0.8240767
116	0x3f67e0f9	0.90577656
117	0x3f7521a5	0.9575446
118	0x3f68ffc4	0.9101527
119	0x3f6d788b	0.9276206
120	0x3f64ae3b	0.89328355
121	0x3f776cb3	0.96650237
122	0x3f8c2a50	1.0950413
123	0x3f717b01	0.94328314
124	0x3f5e426d	0.8682011
125	0x3f6a9df1	0.9164725
126	0x3f5bacc6	0.85810506
127	0x3f88d3c4	1.0689626
128	0x3f748ea9	0.9553018
129	0x3f711583	0.9417345
130	0x3f6f7f48	0.9355359
131	0x3f545d08	0.82954454
132	0x3f78c3d9	0.9717384
133	0x3f8c1604	1.0944219
134	0x3f2b853e	0.67000186
135	0x3f639111	0.8889323
136	0x3f580f3d	0.8439825
137	0x3f75bb38	0.959888
138	0x3f70fa84	0.94132257
139	0x3f7573ff	0.9588012
140	0x3f6fd42f	0.9368314
141	0x3f7542b0	0.9580488
142	0x3f6499bb	0.89297074
143	0x3f5570cb	0.83375233
144	0x3f7082aa	0.9394938
145	0x3f512a78	0.8170543
146	0x3f6b70c9	0.9196897
147	0x3f725cd4	0.94672894
148	0x3f7bc530	0.9834776
149	0x3f77eb10	0.9684305
150	0x3f83e28c	1.0303512
151	0x3f848f65	1.035626
152	0x3f65cde5	0.89767295
153	0x3f5bbabd	0.85831815
154	0x3f6c53e9	0.92315537
155	0x3f73b2e2	0.9519483
156	0x3f7c7d21	0.9862843
157	0x3f4c8b31	0.7989989
158	0x3f572d8c	0.84053874
159	0x3f45f9c2	0.77334225
160	0x3f6f62b4	0.93509984
161	0x3f19f9d5	0.6014684
162	0x3f76fcbc	0.9647939
163	0x3f686c07	0.90789837
164	0x3f77ecc9	0.9684568
165	0x3f8057d9	1.0026809
166	0x3f7b4f46	0.98167837
167	0x3f6c6808	0.9234624
168	0x3f6eb4fb	0.93244904
169	0x3f74b287	0.9558491
170	0x3f4de6c9	0.80430275
171	0x3f7f56f4	0.99742055
172	0x3fa3995b	1.2781175
173	0x3f6dc9aa	0.9288584
174	0x3f62040e	0.88287437
175	0x3f5412bd	0.8284109
176	0x3f6ba387	0.920464
177	0x3f3a35ec	0.7273853
178	0x3fa8e271	1.3194104
179	0x3f66128a	0.8987204
180	0x3f75f10a	0.9607092
181	0x3f38d50a	0.7220007
182	0x3f7a7657	0.9783682
183	0x3f7727b1	0.9654494
184	0x3f6a4378	0.915092
185	0x3f61f339	0.88261753
186	0x3f7f75ea	0.997893
187	0x3f612b7f	0.87956995
188	0x3f71f533	0.9451477
189	0x3f6d2e2f	0.92648596
190	0x3f543b12	0.82902634
191	0x3f71f833	0.94519347
192	0x3f5f1d3b	0.8715398
193	0x3f71a33c	0.943897
194	0x3f7d171f	0.98863405
195	0x3f5e0c3b	0.8673741
196	0x3f756365	0.9585479
197	0x3f6b3fce	0.91894233
198	0x3f5ec3c5	0.8701747
199	0x3f7cbba2	0.98723805
200	0x3f6da755	0.92833453
201	0x3f5a615b	0.853048
202	0x3f77e9c4	0.96841073
203	0x3f619427	0.8811669
204	0x3f797877	0.9744944
205	0x3f8298c6	1.0202873
206	0x3f76bc3c	0.9638097
207	0x3f60df0e	0.87840354
208	0x3f6c483e	0.9229773
209	0x3f6b6d44	0.919636
210	0x3f6a640d	0.91558915
211	0x3f7516ac	0.9573772
212	0x3f62c6dc	0.88584685
213	0x3f48b048	0.78393984
214	0x3fbc4037	1.4707097
215	0x3f4bd9d5	0.7962926
216	0x3f6c4730	0.92296124
217	0x3f60ab55	0.8776143
218	0x3f60dbdd	0.87835485
219	0x3f6c8a3f	0.92398447
220	0x3f4ecd9a	0.80782473
221	0x3f6fda3c	0.93692374
222	0x3f71d27c	0.944618
223	0x3f4dcb76	0.8038858
224	0x3f6d5dd2	0.92721283
225	0x3f3dff26	0.7421745
226	0x3f666324	0.89995027
227	0x3f6db8e2	0.92860234
228	0x3f7375d5	0.9510167
229	0x3f7af609	0.9803167
230	0x3f70fb38	0.9413333
231	0x3f71cdb1	0.94454485
232	0x3fa2ddba	1.2723916
233	0x3f5c02d0	0.8594179
234	0x3f82455a	1.0177414
235	0x3f7144f6	0.9424585
236	0x3f4b2437	0.79352134
237	0x3f450e2f	0.7697477
238	0x3f5f69bf	0.8727073
239	0x3f2c4cfd	0.67304975
240	0x3f5c4c43	0.86053866
241	0x3f93b8fc	1.1540828
242	0x3f66e991	0.90200144
243	0x3f738b45	0.95134383
244	0x3f72fee8	0.94920206
245	0x3f788fa9	0.9709421
246	0x3f7c1b2e	0.9847897
247	0x3f8c0d5e	1.0941579
248	0x3f76728e	0.96268547
249	0x3f57abc2	0.84246457
250	0x3f74a82d	0.95569116
251	0x3f688432	0.90826714
252	0x3f2bd30c	0.67118907
253	0x3f6d228d	0.92630845
254	0x3f5de1d5	0.8667272
255	0x3f5e35e2	0.8680097
