医学影像/EV_GCN/save_models/ev_gcn/fold9.pth (torch, 543861 bytes, 20 tensors)

gconv.0.weight f4 [3, 2000, 16]
00000000: 4286 7abc 4d9b 143c 4ca9 4ebd b399 d33c
00000010: 5778 23bd e668 183d aaa8 afbd b9f3 dfbc
00000020: 1570 5cbd ae1a 9bbd 086e 1f3e d352 0bbd
00000030: 721b d53c a3d2 c1bd 55a9 c0bd 604d 2a3e
00000040: 5b05 a3bd 0109 bfbc 893c c73d f024 c7bc
00000050: 64a4 d8bd 480d a03c 25ce 22bd bce6 153d
00000060: 8ce2 10bd d5d9 90bc d2e7 84bd 483a 5fbc
00000070: 97a3 a33d e44a 32bd 5fc9 71bd 6040 a33d
00000080: 0ffb e73b 7c62 88bd cc02 5abd 0128 a2bc
00000090: d017 96bd 8fa3 4b3d 161e 0fbd d1bb e63b
000000a0: 6468 b4bd 73ac 5ebd 8aff c6bc 7142 4abd
000000b0: 48e8 ab3b 147a dbbd ff43 fabd 19ef 9c3d
000000c0: 15fc aebd a6cf e53c ea04 0b3e 1d9b 8f3c
000000d0: beee 82bd c388 a83c 2c83 d3bd 5323 833d
000000e0: 4ced 22bd 2ff8 5d3e 4782 0ebd f2e2 36bd
000000f0: a047 6d3d 5eb5 b93d 5300 b8bd 701f 1e3e
00000100: 84e8 94bc d341 be3d 106b 933d 340f 9bbc
00000110: 58ec ccbc 447c 953d b63e 40bd fc65 d53d
00000120: b808 88bd 4fa8 7d3d d340 92bd 7cc9 59bd
00000130: 33ef bc3d c369 a73d b082 90bd 0006 b63d
00000140: f341 a03b 30f3 79bc aa4f 893d 3bb4 473d
00000150: c16d afbd 0c83 8b3c 6bf5 43bd 4d0f cd3d
00000160: 1f02 6ebd 8030 9a3c 9c58 b73b b75e cebd
00000170: f635 13bd 865a 98bd fa9e babd 7065 8c3a
00000180: 3fde a03d 0297 42bd 10c8 f53c c992 b33b
00000190: c91e cdbd c017 1b3d 3758 e4bd b539 94bd
000001a0: 2bdc 903c cb59 2fbd 38fc 5b3c 1638 1e3d
000001b0: 6a35 583a 4ff7 b0bc 9eaf 8abd 06c1 d4bd
000001c0: 4b6b 8fbd 5e00 6d3c 8f81 8e3d 7303 643d
000001d0: 6080 eabc e78a 003e b8ca cabd 8d01 eb3d
000001e0: 7a0d 463d 03ef 983d 8a72 b6bc 32a4 90bd
000001f0: c711 8f3d 1b9f 50bc 691a 803d 8879 1fbd
00000200: 3e86 a4bd fd16 963d d34f b53d 03a9 7ebc
00000210: 4920 a4bd 45af b23d 2365 63bd 2100 d73d
00000220: 129e 43bd 7781 d63d 1e8b 10bd ea69 d0bc
00000230: 5330 923d 01bf 8a3c a481 f3bc 1761 1d3d
00000240: 7f98 1abe 4c5f 593d a6a8 363d 1aa5 c63c
00000250: d9d2 9bbc 1de7 f13d 81f2 d9bd cf5d 2f3d
00000260: 2d8a ebbd c838 da3d 5587 04bd 4aac b7bd
00000270: 5202 fd3d 42e5 bb3d 3aaf 1abd ae3d f33c
00000280: aa45 90bd 1754 9abd 8e6c ee3d bb29 f83c
00000290: 8821 a9bd ee53 283e acd7 c6bd f795 b23d
000002a0: c265 67bb ffce 7d3d bf3c bfbd f2d0 fabd
000002b0: 2687 fd3d 1b00 a63d 0ad8 82bc de3b bfbd
000002c0: 4cc1 16be 4f53 203d 5746 8e3d 214c 9c3b
000002d0: 3328 893b 6647 ac3d f34a 59bd 0545 d93d
000002e0: c701 383d 9a5d e73d 45dc 94bd 0ed1 26bd
000002f0: 3165 f43d bbcd 8e3d 7abb 18bd 110f 11be
00000300: 238d e9bd 4cd9 baba 37aa 903d 4bc2 b5bc
00000310: 49bf 28bd 5ab5 d83d ece4 2cbc 2b70 d83d
00000320: 566c 26bd 2827 043e 9c9d 2d3d 2e0c f3bd
00000330: aaa4 243d 634a c83d a805 90bd 0aef 5abd
00000340: 87d1 d4bd f5c9 b43d 2ff0 d93d 3d8e 813c
00000350: 0aa2 86bd 8168 e33d 6df7 f4bc 6c87 623d
00000360: e2b9 cfbd 4a17 8f3d 25d0 99bc 3e25 f1bd
00000370: 456a 8e3d 0bd9 ad3c 36de 8dbd b625 8c3d
00000380: bc10 1bbe 0b9c efbb 7d84 023e bca1 ccba
00000390: 2f4a c3bd 77fa fb3d b8d0 d1bd 5a13 ba3d
000003a0: b5b8 94bd 2ac7 dc3d 1366 3cbd 1d4a 72bd
000003b0: f499 c13d 84d6 b73d 9946 eb3c e784 52bc
000003c0: 8dbb 15be bc0c bcbd dc5d 273e 7869 8d3d
000003d0: 05b6 35bc e7b1 273e 2276 00be 3373 c83d
000003e0: 1813 b63c 74f5 a2bc 6c2a e5bc e484 c8bd
000003f0: ab5c 193e 4b94 22bd 8927 dc3c f986 24be
-0.015290799 0.00907023 -0.050454423 0.025830125 -0.039909687 0.037209414 -0.08577092 -0.027337896
-0.053817827 -0.07573448 0.15569317 -0.034014534 0.026014064 -0.09464004 -0.094072975 0.16631079
-0.07960006 -0.023319723 0.09728343 -0.024309605 -0.1057823 0.019537583 -0.039747376 0.036597
-0.035372302 -0.017681995 -0.06489529 -0.013624735 0.07990187 -0.043528453 -0.059029933 0.07971263
0.007079489 -0.066594094 -0.053225324 -0.019794466 -0.073287606 0.04971653 -0.0349408 0.0070414324
-0.088089734 -0.05436368 -0.024291772 -0.04937977 0.005246196 -0.10716644 -0.122200005 0.07662792
-0.085441746 0.028053116 0.13576093 0.017530018 -0.06393193 0.020573026 -0.103277534 0.06403222
-0.039777085 0.21676706 -0.03479221 -0.044650026 0.057929635 0.09067796 -0.08984437 0.1544168
-0.018177278 0.09289899 0.07198155 -0.018928148 -0.025015041 0.072990924 -0.046934806 0.104198426
-0.06642288 0.06192809 -0.071412705 -0.053170666 0.09225311 0.08174469 -0.07056177 0.08887863
0.0048906743 -0.015255734 0.06704648 0.048755866 -0.08565856 0.017030261 -0.04784147 0.10012684
-0.05810749 0.018821955 0.00559528 -0.10076659 -0.035940133 -0.07439141 -0.091123536 0.0010711383
0.0785489 -0.047507294 0.030002624 0.0054801446 -0.100156374 0.037864447 -0.11149638 -0.07237569
0.01768311 -0.042810243 0.013426833 0.038627706 0.00082477054 -0.0216023 -0.067717776 -0.10388379
-0.070028864 0.01446542 0.06958305 0.055667352 -0.028625667 0.12552987 -0.09901947 0.11474905
0.048352696 0.07467463 -0.022271413 -0.07062568 0.06985813 -0.012733246 0.06255037 -0.03893426
-0.08033417 0.073286034 0.08853116 -0.015543225 -0.080139704 0.08724836 -0.055516373 0.104980715
-0.04775817 0.10473912 -0.035288922 -0.025441129 0.07138123 0.01693678 -0.029724903 0.03842267
-0.15097235 0.053069398 0.04459443 0.024248648 -0.019021438 0.118116595 -0.10641957 0.042814072
-0.11500964 0.106553614 -0.032355625 -0.089684084 0.12353958 0.09174587 -0.037764765 0.029692497
-0.07044537 -0.0753557 0.11641799 0.030293336 -0.08258349 0.16438267 -0.09709105 0.0872001
-0.0035308455 0.061964985 -0.09337758 -0.122468844 0.12379293 0.08105489 -0.015972156 -0.09337591
-0.14722174 0.03914195 0.0694701 0.0047698175 0.0041857003 0.08412056 -0.053049993 0.106088676
0.04492357 0.1129715 -0.072685756 -0.040726714 0.11933363 0.06972834 -0.037288167 -0.14165904
-0.11403873 -0.0014255433 0.07063716 -0.022187373 -0.04119805 0.10581465 -0.010552626 0.10568269
-0.04063066 0.12905562 0.042386636 -0.118675575 0.0401961 0.09779813 -0.07032329 -0.05345062
-0.10391527 0.08827583 0.106415145 0.015814895 -0.06573875 0.11103917 -0.029903138 0.05530493
-0.10142876 0.06986864 -0.018776009 -0.117746815 0.06953863 0.021221658 -0.06927149 0.0684313
-0.15143102 -0.007312303 0.12745853 -0.0015612165 -0.09535634 0.12303632 -0.10244888 0.09085722
-0.072617926 0.10780175 -0.045995783 -0.05915271 0.09453192 0.089764625 0.028720187 -0.012849069
-0.14622326 -0.091821164 0.16344398 0.06904882 -0.01109076 0.16376458 -0.12545064 0.097875975
0.022225901 -0.019892432 -0.02797433 -0.09790972 0.14976756 -0.039692204 0.02687432 -0.16067113

gconv.1.weight f4 [3, 16, 16]
00000000: d472 2d3e bda6 553e c1fd 04be ac95 a9bd
00000010: cc7c 1abe 0fcf 9c3d abea 4a3e ec45 d3be
00000020: 37b4 783e ec58 933e e38d f73d f084 f83d
00000030: f1f4 c1bd 4074 d73d 6d86 ffbe aacb a13e
00000040: c690 b13c 03ee e9be 38e9 b33e b4f8 ae3e
00000050: b9fe f43c ef05 68be 3bf2 983e 173f 21be
00000060: 1eff 4fbe f2a7 b3be e181 653e 09be 8b3e
00000070: 6d5f e8be 0dc1 17be 72b1 70be 39d1 723e
00000080: 14ea 96bd 4dcf fcbd 2ece a73d 0006 c1bd
00000090: 9089 883c 06f2 2c3d 142e cdbe a30b cb3e
000000a0: 6ab5 0b3d 2fca 28bc 6747 d23e e036 683e
000000b0: 00fe 18be 0b83 cd3e 14f9 1f3e 7714 f53d
000000c0: 636d fabb faa7 8bbd 6953 bfbe 200d 3cbe
000000d0: 6138 1fbe 6d6b 8b3e 322f b9be d320 dc3d
000000e0: 53e9 653d 4048 823e a952 dabe cf49 a0be
000000f0: 9dce d0be a5c1 bc3e 4c96 87be 6f89 5dbe
00000100: 4db0 4b3d 316f 31be f963 e33e 0e32 90be
00000110: 3764 38be 794b 7d3e 32e4 813e 269f 62be
00000120: 9a63 5cbe 46ff 58be 833e 7b3e 738c 46be
00000130: bf75 b63d 1ae2 c2bb 250e 833e 51f7 84bd
00000140: f4d0 693d c159 d23d 74bc 213e cdd3 813d
00000150: 8e84 b1be 0078 a93e 4c2a bc3c c5c3 9b3e
00000160: 61fa b2be 1ada d5be f174 cf3d 6116 f3be
00000170: bebc e03c 0121 dfbe df90 e8be 6c98 d5be
00000180: 3f2d d63d a431 3e3e c3a0 9cbe 9013 6abe
00000190: 6cfb 73be cea2 bbbe dcfd 143d 6953 bcbe
000001a0: 101c dd3d 4cfb 1d3e 2e99 b9bd 29db 723e
000001b0: 1e27 63be 7cd7 863e 3d92 873e 3706 ab3e
000001c0: d3e0 bcbd a319 08be 1395 08bd 5fda 00be
000001d0: b011 3abe 9ba3 9ebe b202 08be d709 973e
000001e0: 8a96 27be c139 48be fa7b 9cbe 0539 603e
000001f0: 10a8 953e 551c b23e 9ddf b5be 4f06 b23e
00000200: 3781 a83e 3759 ff3d 0711 2a3d 8aef 943c
00000210: 5474 b43d 95d6 15bd e525 a5bd 9fb3 d4be
00000220: 5896 cf3d 8267 d83d a8b2 773e db35 04be
00000230: eef0 103e d565 a8be 5dae eebe 6925 8abe
00000240: 3aa1 413e f8ff 59be 2aa4 f73c 5c2f 2e3e
00000250: 8f5a 81be faa1 783e 116e 0b3e e11c 0cbd
00000260: 293e acbe 41c3 eb3d 1234 6b3e c9aa 74be
00000270: 6f03 cd3d 7aeb 07bf 6678 cb3e 969e 56be
00000280: 5db5 c23e 662b 10bc 2312 dbbd 7040 f9be
00000290: 3d30 2abd 9636 fcbd 63e4 8ebe b68b d53d
000002a0: 787b c43e 3635 4c3e 4088 8ebe a5c5 17be
000002b0: 276e 68be 4f9b 183e c87f 7f3e 5613 5fbd
000002c0: dd1c 343e 206f 47bd fcc7 46be 8ac4 c5be
000002d0: 7a81 e8be 4211 cfbd 27e0 11be 04be bcbd
000002e0: f3c7 d7bd 6423 3bbe f85e 0dbf 5000 ac3e
000002f0: 3f45 7ebc f0ef 99bd c2ba 9bbe e1a6 65be
00000300: 894d 593e 775d f2be 2fd6 c4bd dafd 853e
00000310: 1ec3 94be a8b2 d13e 0ff8 26be 6f1b a93e
00000320: 101e a9be 421f 2c3e 9684 803e 49b8 a8be
00000330: 0c69 d6be 85ba 81bd cce0 5d3e cea7 de3c
00000340: f347 4cbe a703 fc3d 8d72 233e b7de 2ebd
00000350: 557d 22be 2dd5 5dbe e448 a5be 9858 d13e
00000360: 3fba 82be ec09 c83d c7ac 513e 1b69 a9be
00000370: d886 b8be e915 a33e 6db5 533c dcc9 eb3d
00000380: 64e6 a9be 49c5 1abe c4df 64be f1f7 c63d
00000390: 3052 cebd 06ef cd3d f894 98be 5d78 ae3c
000003a0: 3172 d5bd a102 213e 15b3 9dbd b185 a83e
000003b0: 46bc ed3d 38fc 1a3e c709 e23d 06eb 10be
000003c0: 33df 08bd b7e0 6cbc 61c7 053e bc72 f8be
000003d0: 4576 2a3e 79cf b5be 654d bb3e 109f 7d3e
000003e0: 6983 f03c d6c1 8dbe 7f7e 4ebe 4a34 72be
000003f0: 364d 913c 4a8d 64be 78e7 693e 90fa 4dbe
0.16938335 0.20864387 -0.12987424 -0.08280501 -0.15086669 0.07656681 0.19816081 -0.41264284
0.24287497 0.2877878 0.120876096 0.12134731 -0.09470547 0.1052022 -0.49907246 0.31600696
0.021675479 -0.456894 0.3513887 0.3417412 0.029906617 -0.22658513 0.29872307 -0.15746723
-0.20312163 -0.3508907 0.22412826 0.27293423 -0.45385304 -0.14819737 -0.2350519 0.23712625
-0.073688656 -0.12344227 0.081936225 -0.094249725 0.016667157 0.042223 -0.40074217 0.39657316
0.034108557 -0.010302111 0.410701 0.22677183 -0.14940643 0.4013904 0.1562236 0.11966794
-0.0076424344 -0.06819148 -0.37368324 -0.18364382 -0.1554885 0.27230397 -0.3616882 0.10748448
0.05613072 0.25445747 -0.4264119 -0.3130631 -0.40782633 0.3686649 -0.26481855 -0.21634458
0.04972868 -0.17327572 0.4441221 -0.2816319 -0.18006979 0.24735822 0.25369412 -0.22131023
-0.2152237 -0.21191129 0.24535565 -0.19389515 0.08909177 -0.0059473636 0.2559673 -0.06492484
0.05708404 0.102710254 0.15794545 0.06339226 -0.34671444 0.33099365 0.022969387 0.30422798
-0.3495665 -0.4176796 0.10129727 -0.4747801 0.02743375 -0.43579867 -0.45423028 -0.4171785
0.10457849 0.18573624 -0.305914 -0.22859025 -0.23826379 -0.36647648 0.03637491 -0.36782387
0.10796368 0.15427893 -0.0906242 0.23716415 -0.22182891 0.26336277 0.26478758 0.3340318
-0.09222569 -0.1329103 -0.033345293 -0.12583302 -0.1817081 -0.30984196 -0.13282278 0.29499695
-0.1636602 -0.19553281 -0.30563337 0.21896751 0.29229784 0.3478724 -0.35522166 0.34770438
0.32911083 0.12468188 0.041520145 0.018180627 0.0881125 -0.036581594 -0.080638684 -0.4154329
0.10136098 0.105666175 0.24189246 -0.12911169 0.14154407 -0.32890192 -0.46617404 -0.26981667
0.1890916 -0.2128905 0.030229647 0.17010254 -0.25264403 0.24280539 0.13616206 -0.03420723
-0.33641174 0.11511851 0.22969082 -0.23893274 0.100104205 -0.53093684 0.39740294 -0.20958933
0.38028994 -0.0087994095 -0.10696819 -0.48681974 -0.04154991 -0.12315099 -0.2790862 0.10427038
0.3837545 0.19942173 -0.27838326 -0.14821489 -0.2269827 0.14902996 0.24951088 -0.0544618
0.17589135 -0.04868996 -0.19412225 -0.3862651 -0.45411283 -0.101107135 -0.14245664 -0.0921593
-0.10536184 -0.18275219 -0.55223036 0.33593988 -0.015519439 -0.075164676 -0.30415922 -0.2242694
0.21220984 -0.47336933 -0.09611165 0.26170236 -0.29055113 0.40956616 -0.16305564 0.33028743
-0.33030748 0.16808799 0.25101155 -0.32953098 -0.4187702 -0.06334404 0.21667784 0.027179625
-0.19949321 0.12305384 0.15961666 -0.042692866 -0.15868123 -0.21663351 -0.32282174 0.40887904
-0.2553272 0.097675174 0.20476066 -0.33088002 -0.36040378 0.31852654 0.012921673 0.11513111
-0.33183587 -0.15114321 -0.22350985 0.0971526 -0.1007427 0.10055356 -0.29801154 0.021297628
-0.10422171 0.15723659 -0.07700173 0.32914498 0.11608176 0.15135276 0.11037021 -0.14152154
-0.033415984 -0.014457873 0.13064338 -0.48525035 0.16646679 -0.35509852 0.36582485 0.24767709
0.029359536 -0.27686948 -0.20165442 -0.23652759 0.017737012 -0.22319523 0.22842205 -0.20115113

gconv.2.weight f4 [3, 16, 16]
00000000: 8d3a 65be 7424 633e 14a8 c6be da36 7e3e
00000010: e0be 973e df1c 143d b8ec 90bd 46e8 a2be
00000020: 9ab2 e63c f2a4 cfbe 57eb 5d3e d3e9 153e
00000030: 998c 3abc 9228 033e cd8b afbe abbe c33e
00000040: 6a27 d33e 678a 7f3d 1b84 7d3e fca2 963d
00000050: 9dbb a83e 9a04 093e 451d 68be dcb4 6a3c
00000060: b62b 6dbe 42e4 33bd ae0d 32bd 9d20 e0bd
00000070: 99f2 85be add3 a33e 658e a9be b945 623e
00000080: 9c6a 993e d628 603d 291f 6fbd d18c 843e
00000090: bee2 953e cb62 1a3e 86e1 46be 496b b0be
000000a0: 9456 24be 1ae1 82bd 0493 eb3e 0b54 c63e
000000b0: 9879 833e 0d13 893d 8bcf 313d e2e6 3ebe
000000c0: bea1 a33d bd23 a4be c247 73be f351 c4be
000000d0: cda5 f1be f67d 9d3d dd96 5cbe 7578 983e
000000e0: 527b af3d 3e91 05be 7ebe 29be e03d d63d
000000f0: e490 143e afc8 21be fd53 cabc 914b cbbd
00000100: ac9d 15be baa7 45be 56d3 173e 6077 5dbe
00000110: 5075 fabc f269 aa3d 97d2 2b3e b5c0 1b3b
00000120: c6b1 3c3e cfe3 7bbb dd1d 563d 024c c7bd
00000130: 2e98 863e b2f5 82bd 4f48 bf3e 84ba e1bc
00000140: 3ec2 b1be 74b5 9ebd 7f15 d0be e43a 313d
00000150: ee38 d6be f4d8 87be aa23 64be fe99 873e
00000160: 8d38 cfbe 1095 c33c 5a63 9dbe 6c25 fd3d
00000170: 259b 45be 3b52 26be 6801 73be 7bbc a2be
00000180: 5b8c 9fbe 96e0 d5bd 459e fbbc 6016 1dbe
00000190: bc15 35be 5360 f5be 52c7 bf3c fbb3 963e
000001a0: c01f ac3a ae75 96be c2cf 01be 6dc3 a03e
000001b0: 20e3 8f3e 7cf5 c03e fa3c 883e 5537 b13e
000001c0: 6d63 f6be 385b 6a3c b0b2 203e 8c4c 943b
000001d0: e9df c3bd 529e 813e 84df c43e 7483 75be
000001e0: e059 873e 78dd 933e 3687 9e3d 34ba 703e
000001f0: 162e c13c 89b2 d1be 247f 15be 7353 c83e
00000200: 8651 b33c a944 103e 32ea 93be c370 853e
00000210: 60bc 1cbe ff40 74be 425e 08be 1f7d 21be
00000220: 059f e13e c449 dbbe 8ef7 d13d 8a78 4a3e
00000230: 578e 1f3e f1aa 1fbd ccc6 ddbe 2129 dfbe
00000240: fb6b bbbc a698 0bbe 9cdc 26be 1cae 9a3e
00000250: 763a b8be c911 d43d 07f9 c13e 94b1 24bd
00000260: 833c 6cbe 33dd bcbe d260 efbd 7fc9 ddbe
00000270: 0ac6 eebe fff1 74be f1f2 1a3e 79a2 30be
00000280: 7165 38bd 7b6c 71be 55e1 5bbe bb63 243c
00000290: b9ea ab3d 88c2 b63e 82d7 39be f3e8 703d
000002a0: 1b93 8c3e 31db 38be 8ebf 5e3e 44da b43e
000002b0: e99e 04be 80a3 913c 6d1c bbbe 52c3 1ebd
000002c0: 832b a13e 660a 313e 230c 753b 7310 e43e
000002d0: fdf7 833e 00da a6be 6611 1abe 18e5 673e
000002e0: 0bef 2bbe 04a6 f3bd e344 4a3e 2aba a9bd
000002f0: 02c5 06be 8e67 fcbd c479 9a3e 8224 91be
00000300: bbb3 073e 2961 ecbe 2dee 5cbe e26f 8ebe
00000310: cd04 fbbc 0a44 c3be c1b2 46be e775 8f3e
00000320: 545d c23c 70e7 89be d798 5f3c 9e06 9c3e
00000330: aa9e da3d 59d5 97be 6299 c93e 4535 8ebe
00000340: c6eb cfbd d7fb 92be 2322 9f3e 1e68 c4bd
00000350: ba64 a6be 4662 00be 5b54 ef3d eb38 3abe
00000360: 9a0a 003e fee2 a7be eb63 d5be a470 a43e
00000370: 074a 993c b6a5 b63d 2633 6bbe 8eea 36be
00000380: 8f58 043e 2dea 21be 1df1 023c 3ad9 b83d
00000390: 6f7b 5bbe 4556 993d f049 4d3e 2a2f b33e
000003a0: 7bc8 4bbd 3941 2d3e 4196 5fbe 7840 43bd
000003b0: 6c7b b93e 776d 8bbe 6a80 8dbe a1a7 b93e
000003c0: 913b 873e ba37 01bf f4fa 6a3e 5167 9f3e
000003d0: acbd acbd 50d1 24be 577e 783e 747e 24be
000003e0: 9f1f a9be 86c2 8f3e d5fe 383e 5831 fe3d
000003f0: 3c1a d3be def7 83be 226c 76bd cdb6 06bc
-0.22385617 0.22181875 -0.38800108 0.24825612 0.29637814 0.036160346 -0.070764005 -0.31817836
0.028161336 -0.4055553 0.21671806 0.14639978 -0.01138606 0.12808445 -0.34286347 0.38231406
0.41241008 0.06238785 0.24757425 0.073553056 0.32955638 0.13380662 -0.22667415 0.014325347
-0.23161206 -0.043918855 -0.043470077 -0.109437205 -0.2616165 0.31997433 -0.3311645 0.2209691
0.2996415 0.054726444 -0.058379326 0.25888684 0.29274553 0.15076749 -0.19421968 -0.34456852
-0.16048652 -0.06390591 0.46010602 0.38735995 0.25678706 0.06693087 0.04341082 -0.18642762
0.07989834 -0.32058516 -0.23757842 -0.38343772 -0.47196808 0.07690041 -0.21541925 0.297794
0.08568443 -0.13043687 -0.16576573 0.104610205 0.14508396 -0.15799211 -0.024698252 -0.099265225
-0.14610928 -0.19302264 0.14826712 -0.21627569 -0.030573517 0.08320989 0.16779552 0.0023765985
0.1842719 -0.0038435345 0.052274574 -0.09731294 0.2628798 -0.06394519 0.37359855 -0.027554758
-0.34718508 -0.07749453 -0.406414 0.043269053 -0.4184031 -0.2653271 -0.2227923 0.26484674
-0.40472832 0.02387479 -0.30739862 0.12360653 -0.19297464 -0.16242306 -0.23731005 -0.31784424
-0.3116177 -0.10443227 -0.030715117 -0.15340567 -0.17684072 -0.47925052 0.023410473 0.2943419
0.0013132021 -0.29386657 -0.1267691 0.31399098 0.2810297 0.3768729 0.2660902 0.34612527
-0.4812273 0.014303975 0.15693164 0.0045257267 -0.09564192 0.253161 0.3845178 -0.23975927
0.26435757 0.28879905 0.07740633 0.23508531 0.023581546 -0.40956524 -0.14599282 0.39126167
0.02188946 0.14088692 -0.28889614 0.26062593 -0.15306234 -0.23852919 -0.13317207 -0.15770386
0.44066635 -0.42829716 0.102522954 0.19772545 0.15581642 -0.03898138 -0.43315732 -0.43586066
-0.022878638 -0.1363245 -0.16295093 0.3021096 -0.35982102 0.10354955 0.37885305 -0.040208414
-0.23069958 -0.36887512 -0.11688389 -0.43317792 -0.46635467 -0.23920439 0.15131737 -0.17249478
-0.045018617 -0.23576538 -0.21472676 0.010033543 0.08394379 0.3569529 -0.18148616 0.058815908
0.27455983 -0.18052365 0.2175276 0.35322773 -0.12951244 0.017778158 -0.36545125 -0.03876049
0.3147851 0.17289123 0.0037391267 0.445438 0.25775138 -0.32588196 -0.150457 0.22645986
-0.16790406 -0.11896899 0.1975284 -0.08287461 -0.1316109 -0.12324439 0.30171025 -0.28348166
0.13252155 -0.46167877 -0.21575232 -0.27819735 -0.030641938 -0.38137847 -0.19404127 0.2801964
0.023726143 -0.26934385 0.01364728 0.304738 0.10674794 -0.2965496 0.39374834 -0.27775016
-0.10152392 -0.28707764 0.31080732 -0.09590171 -0.32498723 -0.12537488 0.116860114 -0.18185775
0.12504044 -0.3279037 -0.41677794 0.32117188 0.018712057 0.089183256 -0.2296873 -0.17862913
0.12924407 -0.15811987 0.007992056 0.09025808 -0.21433805 0.07487158 0.20047736 0.3499692
-0.04975174 0.16919412 -0.21834661 -0.047668904 0.36226976 -0.27231953 -0.27637035 0.36260703
0.26412633 -0.50475657 0.22947294 0.31133512 -0.084346145 -0.16095471 0.24266945 -0.16063863
-0.33031937 0.28078097 0.1806596 0.12411755 -0.41230953 -0.25775045 -0.060161717 -0.008222294

gconv.3.weight f4 [3, 16, 16]
00000000: 88a5 c2bd a2e2 3ebe 815b 263d a0d9 473e
00000010: b2d6 c9bd 4404 e13e fb19 8d3e e9ca 5e3e
00000020: 99d4 2e3e 2949 843e 787d 9dbe 1aef 9d3e
00000030: aaaf c23e 5e06 733e 3249 f6bc cbf8 5c3e
00000040: 4f53 913d 4a99 0bbe 78ad 0ebe 490d 1b3e
00000050: 2c13 173e 9a3d 0f3d d304 07be 2df1 a0be
00000060: 3d50 4bbd feda 77be f67e c03d 3b9d 44bc
00000070: 3d80 903c 47c4 753e 8217 02bd 4d2c a13e
00000080: cd03 e8bd dea8 a4be 7e0c 06be b57d d8be
00000090: 699c d73d 91cf b73e 0433 fe3d 78bd c0be
000000a0: 7731 b4be 58a6 5fbe d91e 323e c35c b8be
000000b0: afd9 2dbe 8ab3 e13e a65b a23e 3626 29bd
000000c0: c77d c13d 3cb9 d2be 06d6 5b3e a674 533e
000000d0: 079f b1be 7328 49be 257b 86be d011 cebe
000000e0: 07ca c9be 1adf 33be cdf2 97bd d3a2 9e3e
000000f0: 1ebb f3bb 8d7b 743e e523 833e de1a dd3e
00000100: ac01 a23d a0dd 38be eace 543e 99f2 043e
00000110: 3123 693e 7f30 8e3d 9951 0f3d c399 0b3e
00000120: e256 6b3d 02bc a5be 6fd6 763e f9d2 ca3d
00000130: 9539 b93e 81f5 d23e 5835 703e 816a 89be
00000140: d452 05bd 27e4 c7be b878 823e bd3d c7be
00000150: 3261 4bbc 080c 943e f185 48be 9426 abbe
00000160: 3e1b e8bd 07fa 9ebe 93d6 833d 5797 bdbc
00000170: db6d 86be 8818 cbbd 888a 62be 54c2 4f3e
00000180: 5d61 0b3e db43 22bd 3dee 78be 769e 7e3e
00000190: 9bda 183e 76b1 a93e 0fc7 b9be 7181 bf3e
000001a0: 9f05 8dbe 2777 e6be c72e 3bbb 78da df3e
000001b0: 73c2 063e a5db b7be 785d 8d3d 2d75 10be
000001c0: 02f4 763e 3f6c 553c fb9b ba3e ca20 68bd
000001d0: be4d c7bd f872 933d dc82 5fbe eb8b 833e
000001e0: e06b 07bf 7c9c 813e 5d32 a4bd 4c2e 9dbd
000001f0: 52b9 9c3e cc84 b33e 8227 afbe a3f4 a5be
00000200: 3d3d 1d3e 8789 833e 6787 95bd 7282 04be
00000210: a726 d63e 890c e3be b54e 8fbe fdf9 e63d
00000220: 8678 973d 1e98 13be b050 6f3e ca3d da3d
00000230: cd13 a13e 26bd d83b ac2b 653e 97d3 0d3e
00000240: a4d2 0d3d 4baf e0be 01a0 68be 7d73 323e
00000250: 71dc 7abe 0ecf b6be 4498 73be 3745 12be
00000260: 6dcb 1d3e 2fa1 edbe ce69 ffbe ffce 4c3d
00000270: 3e65 203e 2155 68be f7a4 843e f9fc 6b3e
00000280: e3db 57be e419 c43e 5912 c63d 87cd a8be
00000290: fc55 a4be 1625 8ebd 0c28 a9be 9c11 943d
000002a0: e591 203e c5d1 8a3d 4188 f1bd 38b4 363e
000002b0: ffc5 a9be be47 3cbe 2640 e33e 901b 9bbe
000002c0: 2e48 28be 5c2f 4dbe 50f5 e63e 25b9 8dbe
000002d0: 7746 13be 1c35 92be e280 82be 0195 fdbd
000002e0: e54b 87be 2cca 30be 154f fdbe b9c0 32bd
000002f0: d91d 40be 8546 64be be95 bd3e 0ec6 4abe
00000300: a996 ce3e 001f 8e3e dd83 ba3d 60fb 543e
00000310: 0b84 b6be fd34 8f3e 4741 9c3e 2fed 8f3d
00000320: 8d8a a03e 66c1 173e 33c2 653e bbeb c5be
00000330: 7143 6abe d389 c0bc 97fd aabe d467 8a3e
00000340: 2731 923e a02c a43e 4f69 c83c 74fb 903e
00000350: 333e 713d 2d2d 8abe a0b0 85be 0b68 29be
00000360: 4fd6 b53c b7f2 5a3e 0a0b d0bd 1840 47be
00000370: 8efa c23c 0822 88bb 293c acbe 01f4 38be
00000380: d715 3dbe 3bfe cfbe 9016 bf3d e641 2abe
00000390: 8a48 fd3d b4c7 1cbe de04 6fbe 9fcc ce3d
000003a0: 0836 8d3e 04f8 833d 41f3 ebbd 50c0 febd
000003b0: ade4 493d 15d8 f53d 360c 57be fa6a b2be
000003c0: 46a6 98bc d92f b93d 3abe 203e 87fb 33be
000003d0: d870 eb3d 9a61 ddbe acaf af3e 44c1 87be
000003e0: 99d2 43bc 4fde 623e 4931 c1be bd84 a43e
000003f0: bdc7 b53e adaf b63e 256e b7be a815 bf3d
-0.09504229 -0.18641141 0.04061461 0.19516611 -0.09855403 0.43948567 0.27558884 0.21757092
0.17073287 0.25837067 -0.30759788 0.30846483 0.38024646 0.23732898 -0.0300642 0.21579282
0.07095968 -0.13632694 -0.1393336 0.15141787 0.14753407 0.034970857 -0.13185434 -0.31434003
-0.049637068 -0.24204633 0.09399216 -0.012000377 0.017639274 0.24000655 -0.0317607 0.3147911
-0.1132885 -0.32160085 -0.13090703 -0.42283407 0.1052788 0.35900548 0.12412074 -0.37644553
-0.3519399 -0.21840799 0.1739458 -0.36008272 -0.16977571 0.4408229 0.31710547 -0.041296206
0.09447818 -0.41156948 0.21468362 0.20649967 -0.3469164 -0.19644336 -0.26265827 -0.40247965
-0.39411947 -0.17565575 -0.074193574 0.309836 -0.0074380776 0.23875256 0.25613323 0.4318456
0.07910475 -0.18053293 0.20782056 0.12983169 0.2276733 0.06942844 0.034989927 0.13632874
0.057455905 -0.3237 0.24105237 0.09903521 0.36176744 0.4120293 0.23457849 -0.2683907
-0.032549694 -0.39041254 0.25482726 -0.3891429 -0.01241331 0.2891543 -0.19582345 -0.3342787
-0.11333321 -0.3105013 0.06437411 -0.023143454 -0.26255688 -0.09916788 -0.22123158 0.20288974
0.1361136 -0.039615493 -0.2430963 0.24865136 0.14927141 0.33143204 -0.36284682 0.37403443
-0.2754335 -0.4501278 -0.0028561817 0.43721366 0.13160114 -0.35909763 0.069025934 -0.14107199
0.24116519 0.013026296 0.3644713 -0.056671895 -0.09731625 0.07199663 -0.21827263 0.25692686
-0.5289898 0.253147 -0.080174185 -0.07674846 0.30610138 0.35062253 -0.3420983 -0.32413206
0.15355392 0.25690863 -0.073012166 -0.12940386 0.41826364 -0.443455 -0.27989736 0.1127815
0.07396035 -0.14413497 0.23370624 0.106563166 0.3146042 0.006614345 0.22379941 0.13850246
0.03462471 -0.43883738 -0.22717287 0.17426868 -0.24498154 -0.35704845 -0.23788553 -0.14284216
0.15409632 -0.46412036 -0.4988541 0.050002094 0.15663621 -0.22688724 0.25907108 0.2304572
-0.21079974 0.38301003 0.09671468 -0.32969305 -0.3209685 -0.06940667 -0.33038366 0.07229921
0.15680654 0.067782916 -0.117935665 0.17842185 -0.33158872 -0.18386742 0.4438488 -0.30294466
-0.16433784 -0.20037597 0.45109034 -0.27680317 -0.14382349 -0.28556144 -0.25488955 -0.12381936
-0.2642509 -0.17264622 -0.49474397 -0.043640826 -0.18761386 -0.22292526 0.37028307 -0.19802114
0.4034932 0.27758026 0.09107182 0.20799017 -0.35647616 0.27970114 0.30518553 0.07027661
0.31355706 0.1481987 0.22437362 -0.3865641 -0.2287729 -0.02350322 -0.333966 0.2703234
0.28553125 0.32065296 0.024464278 0.28316844 0.05889721 -0.2698759 -0.26111317 -0.16543595
0.022196917 0.21381651 -0.101583555 -0.19458044 0.023801114 -0.0041544475 -0.3363965 -0.1806183
-0.18465362 -0.4062365 0.09330475 -0.16626701 0.12367351 -0.15310556 -0.233417 0.10097622
0.27580285 0.064437896 -0.115210064 -0.124390244 0.049290348 0.12004105 -0.21000752 -0.34847242
-0.018633973 0.09042329 0.15697566 -0.17576419 0.114961326 -0.43238527 0.34313715 -0.26514637
-0.011952066 0.22155116 -0.37732914 0.3213252 0.3550395 0.35680905 -0.3582622 0.093303025

cls.0.weight f4 [256, 64]
00000000: 2077 933d a070 21be 5e3b 053d ecb3 693e
00000010: 3915 97bd 1e4b 993b fdd9 b53d 7892 f4bc
00000020: 98f1 6cbc 67fa 3abe cfc0 953d 9309 a63d
00000030: 24ae 753e b50d f23c ddde db3d 3957 cabd
00000040: 9734 ecbe 2b59 353b b6ed e2bd a079 83bd
00000050: 4906 60bb 7753 ab3d 3284 353e aaec cebb
00000060: 1af3 f4bd 07cc 91bd 7416 34bd c988 c5b9
00000070: 4ba5 973d ce18 8cbe a054 59be c96e 60be
00000080: c41d eabd e6fa d23d 2567 dcbc 5cb3 70be
00000090: 8356 8dbd 61d7 573d b041 2abd 3b7a 913e
000000a0: 4152 d13d 24a5 aa3c 7938 b43d 60ba 34be
000000b0: 756f 15be 955f a0be 1f3d ed3d 7338 413d
000000c0: c12b 253e 4688 0ebd d2e8 a3bc a4af 56bc
000000d0: 020a 0dbf ac7a 1abe ca49 d4bc 54dd 32be
000000e0: 464d a73d 93a6 8abe cb35 fdbd 7bcf 87bc
000000f0: 0761 913e 882b 083d 9336 82be 2b7d 3cbe
00000100: b3c8 3d3c a9fe 2fbd 4262 82be 1d25 e6be
00000110: a399 1d3c 1920 e13d 4424 a83c f8f0 bc3d
00000120: 6f32 b53e 1bfe f33d 0d47 363c 0bec 9c3d
00000130: bdb4 02be 8d7b 003d c104 9ebe 5285 edbc
00000140: e3ab 9c3e 8e82 123e dc5c 5b3d 6ba8 a6bc
00000150: 6315 763c 6594 71be 2dd8 bc3e f29e cebd
00000160: e3df 1b3c 9bb4 443e ba57 df3d f2a8 603d
00000170: 94c6 f03d 2779 01be 0e55 83be d1f9 513e
00000180: 6674 363e 9c8f bfbc def2 483e d563 9c3d
00000190: 62b0 e9bd 4d36 933e 326e d03d 3568 14be
000001a0: 580a eb3c 9d2b 5abd b96c 1a3e b28f ab3d
000001b0: 5c76 48bd db6f 1bbd e04a bcbc 5261 1c3e
000001c0: 9bdf 053e 9159 633d ddce 3b3e 0731 373e
000001d0: bfb4 6c3e 1055 523e bad1 f43d d50a ac3d
000001e0: ab30 c73d 6cd3 79bc b4f3 acbb 44b8 a23d
000001f0: 1fe7 903e a5a5 f53c 95e1 c4bd 3191 5abc
00000200: 0b7d e83c 8494 603d 8494 03be e1eb 263e
00000210: a399 4fbd 4db8 90be 4602 0a3e 4118 a8bd
00000220: 9f75 263e 3cea b4bd 95a5 3c3e d267 93bd
00000230: 3316 d63e cbd2 16bd 51d8 0f3e ba47 5dbe
00000240: ab42 563e c2e7 863d d389 923d f016 8cbd
00000250: 274c b03d 9ab2 39bc 848a c03c 004f 18be
00000260: c5c6 d13d e4d5 b83e 0d09 1dbe 40b0 483c
00000270: 6adb d1bd 9e88 733d 9aa2 79bd 60b7 d63d
00000280: 688a 993c 3234 7cbe 8c1e 103e 71d5 d7bc
00000290: 3562 70bd f633 c7bc 3ee6 f3bd d67e 3dbd
000002a0: 6cb3 723e 69d6 263e 7f52 04be 332e 493e
000002b0: 74b4 b73e f14f 1fbe 5247 ff3d 43a9 643e
000002c0: 1eae 3b3e ca73 90be 1a36 d23d 9cfb 373c
000002d0: 93b8 303e de8a 54bc f485 11bd c416 a03e
000002e0: c816 4dbe ba95 55bd 78a4 883e 8d21 1b3c
000002f0: 1b89 f23d c4b3 643c 3a77 4e3e 61f8 a9bd
00000300: cf7b 55be 16af 1c3e 0c7b 00bd 3b70 a2bd
00000310: cdcd 003d d636 be3b 9e6a 06be d443 2dbe
00000320: 14e3 143e 5d52 183d 0875 91bd 3536 22be
00000330: 8aee 7f3c 98d2 f63c 17b4 4e3e 6873 913e
00000340: b154 803e b7e3 003e 4341 533e 322d 5c3d
00000350: 2b95 933c e77b 9e3d 8c6e 11be 1c96 2e3e
00000360: e154 a03e fbbc c93d c572 f43d 6dd1 c1bd
00000370: cf15 9ebc ed9e 91be 78c6 54be 5d21 3bbe
00000380: c43c 13be 6090 603e 5148 5cbb a287 10bd
00000390: 7120 853d 55dc 343e d781 93bd 0ac1 2d3c
000003a0: 1c73 4e3e f809 a23e 02d2 963d d86b 913d
000003b0: 183b 0b3e 3f48 34be 4611 e13d 33df b33e
000003c0: ca21 a0be bc40 1bbe ce66 a83e 72c6 44bd
000003d0: 2a12 36be 5767 de3d 3dc7 363e b101 4e3e
000003e0: edcf b33d ba74 1abe 4e48 d43c a462 893e
000003f0: ca01 67bd 7b34 153e 66bc 13be 516b 48be
0.07200456 -0.1576562 0.03252732 0.22822541 -0.07377095 0.004678144 0.088794686 -0.029854998
-0.014461897 -0.18259583 0.07312166 0.08107295 0.2399221 0.029547552 0.10735867 -0.09879918
-0.46133873 0.0027671556 -0.11080496 -0.064196825 -0.0034183434 0.08365529 0.1772621 -0.0063148336
-0.119604304 -0.07118993 -0.043966725 -0.0003767668 0.07404574 -0.27362674 -0.21223688 -0.21917261
-0.114314586 0.10301761 -0.026904652 -0.2350592 -0.069012664 0.052695636 -0.04156655 0.28413567
0.10220767 0.020830698 0.08799834 -0.17649221 -0.14593299 -0.31322923 0.115839235 0.047172975
0.16129972 -0.03479793 -0.020008478 -0.013103399 -0.55093396 -0.15085858 -0.025914092 -0.17467242
0.081690356 -0.2708021 -0.12363776 -0.016578427 0.28394338 0.03324464 -0.25432262 -0.18407123
0.011583495 -0.042967472 -0.2546559 -0.4495019 0.009619149 0.1099245 0.020525105 0.09225649
0.3539004 0.11913701 0.011125338 0.07662209 -0.12764259 0.031367827 -0.30863002 -0.028994236
0.3059989 0.14307615 0.053555354 -0.02034398 0.015019747 -0.23591764 0.3688368 -0.1008891
0.009513828 0.1920952 0.109054044 0.05484862 0.11756626 -0.12643872 -0.2565083 0.20505454
0.1781784 -0.023383908 0.19623896 0.07636229 -0.114105955 0.28752366 0.10177268 -0.14492877
0.028691456 -0.05326425 0.15080537 0.08377017 -0.048941 -0.03794847 -0.022984922 0.152715
0.1307358 0.05550534 0.18340631 0.17889796 0.23115824 0.20540261 0.11954065 0.084005035
0.097260796 -0.015248161 -0.005278075 0.07945302 0.2830133 0.029986212 -0.09613339 -0.01334028
0.028379938 0.054829136 -0.12849623 0.16300918 -0.05068363 -0.2826561 0.1347743 -0.08207751
0.16255806 -0.08833739 0.1842254 -0.071975365 0.41813812 -0.03682212 0.14047362 -0.21609393
0.2092387 0.06587173 0.07155194 -0.068403125 0.08608275 -0.011334086 0.02350355 -0.14873886
0.102429904 0.36100686 -0.15335484 0.0122490525 -0.10246928 0.05945646 -0.060946085 0.10484195
0.018742755 -0.24629286 0.14074153 -0.026346894 -0.058687408 -0.02431677 -0.119091496 -0.04626354
0.23701257 0.16292728 -0.12922095 0.1964653 0.35879862 -0.15557839 0.12464775 0.22330193
0.18328139 -0.2821334 0.10264225 0.011229422 0.1725791 -0.012972562 -0.03552814 0.3126737
-0.20028222 -0.052144744 0.2668798 0.009468448 0.11842557 0.013958875 0.20162669 -0.08299328
-0.2084801 0.15301165 -0.031367347 -0.079315625 0.031446267 0.005804877 -0.13126609 -0.16920406
0.14539748 0.037187923 -0.071024 -0.15840991 0.015620837 0.030129716 0.20185886 0.2840836
0.25064614 0.12586866 0.20630364 0.05375404 0.018015465 0.07738476 -0.14202327 0.1704945
0.31314757 0.09850498 0.11935953 -0.09463773 -0.019297509 -0.28441563 -0.20778835 -0.18274446
-0.14378649 0.21930075 -0.003361244 -0.0352856 0.06500328 0.17662175 -0.07202499 0.010605106
0.20161098 0.3164823 0.073642746 0.07100648 0.13596761 -0.17605685 0.10989623 0.35131225
-0.3127578 -0.15161413 0.32890934 -0.048040815 -0.17780367 0.10859554 0.17849441 0.20117833
0.08779893 -0.1508359 0.025913384 0.2683307 -0.05639819 0.14570801 -0.14427337 -0.19572188

cls.0.bias f4 [256]
00000000: 5d8c a7bd 97de 2c3c 74f3 22bd 5c33 313a
00000010: 8065 013d b59b 7a3d a0c5 aabd dce2 5a3d
00000020: 03e4 833d 8a59 67bd abca 6a3d 02ba fe3c
00000030: 69d6 3abd cf74 86bd 5f90 91bd e0a7 6fbd
00000040: 7dcf ef3b 0de5 65bd bf49 5c3d 465f 48bd
00000050: 868b 9ebd 6811 573d 7072 c8bc 5bed 6e3d
00000060: 4785 82bd 5a78 95bd 8e56 883d fa19 b1bd
00000070: 2cfb acbd 7d01 6d3d 3948 82bd ce29 a53d
00000080: 5ea7 9fbd 01e6 92bd 1545 55bd 3aaa 6f3d
00000090: 3dad 523d ecd3 3f3d 02ba 8a3d 7109 60bd
000000a0: 0be2 a83c 377c bd3d 5df2 75bc e7a4 423c
000000b0: c8bb 273d 1ab4 fc3c 723b 9dbd f775 d1bb
000000c0: cc21 8bbd 5ee9 0bbd d63d 67bc e6e2 a2bd
000000d0: a979 a6bc cd0e 833d eebb 983d 6cb6 9dbd
000000e0: cc5c c33c e809 a1bd da7d 0abd 3cdc 99bd
000000f0: 2e6a 83bd a009 c9bd 9b32 86bd f5bc f8ba
00000100: 9a5b 693d 2f50 4e3d 75ac 6a3c a601 8fbd
00000110: f958 6e3d 2357 363d ee49 713d 30e7 dc3a
00000120: 4d39 453b 5935 373d f98a c43c 44a8 863d
00000130: 9223 5c3c 807d 6d3d cbf7 9ebd de44 b43c
00000140: 7b86 d53c 638d c6bc 0d38 dbbd 2a69 773d
00000150: 5f65 89bd 3b5e 033d db7b a4bd bccc b1bd
00000160: c889 8c3d 73ad 6f3d c606 6b3d c4ae 833d
00000170: ef9e 283c 50e8 693d c9d8 bebc 7f6d b3bd
00000180: 15da 703d dfe5 9abd be3c 83bd 2c20 6ebd
00000190: d456 103d aced 3ebd 8260 5abd 0f96 a1bd
000001a0: c5d6 5b3d 47f7 7a3d 40de 7abd ffcd 0e3d
000001b0: e778 50bd 0857 673d dd7a ab3d 1406 65bc
000001c0: d2a9 94bd d1d2 89bd 436e c5bd a626 a23d
000001d0: 5b88 533c ec49 853d c5d8 78bb 0adc 6ebd
000001e0: 031e aebd fa2a 5e3d ae1b 41bc 3b87 35bd
000001f0: acbb 0a3d fa3d 17bc 4261 85bd 1b05 863d
00000200: f7d5 c7bd a717 aebd 52e1 81bd 3015 6d3d
00000210: 8de9 8e3d 1e7c 96bd 22c4 a2bd 32ee 773b
00000220: b019 d83c 82de 6a3d 67ea 2d3b e2fa e23c
00000230: a36d 8bbc e31e 193d 4c76 073d 09e5 79bd
00000240: 21cb 4fbd 941f aabd da43 9bbd 5b08 b63d
00000250: cd25 8a3d 881d 973d aabd 9a3d 9f3f 90bd
00000260: 5574 92bb 7de8 4bbd d4bc 71bd d5be 0f3d
00000270: 85fb 98bd 157a 69bd 3411 1ebd 17cc 913d
00000280: 0375 94bb ebe8 153d 5ebd 53bd a390 84bd
00000290: 1c44 8d3c c9c5 0dbc 1319 a1bd 645e afbd
000002a0: 46f2 2a3c c3cb 45bd 4ee4 aebd e8b1 22bd
000002b0: 8a66 53bd 2c19 6a3d 8c1c 863d 9aae 6e3d
000002c0: 595f 4cbd 1b3f adbc 20f6 bfbd 6aae 3dbd
000002d0: 2d91 79bd 7e1d 753d aa7e 26bd ff74 123d
000002e0: 7a95 76bd 1698 523d 7174 6dbd 4e37 78bd
000002f0: 1e21 86bd 8e05 39bc 4bd8 04bd 88cf 89bc
00000300: 7025 40bd 35e5 89bd 1334 b9bc e85c 753d
00000310: a352 4bbd 100f 7a3d 9131 463d b929 af3d
00000320: 53a6 fa3c 2ad7 71bd e13d 79bd 2cf1 ccbd
00000330: cb2d 5fbb a849 37bd fb35 af3c f0e0 50bc
00000340: a02e bcbd 0b08 6ebd 44b7 923d 67d9 4f3c
00000350: b173 cc3c 8469 0b3d fd48 1ebd 1224 8fbd
00000360: 80bf 7d3d c7fd 8b3d 5bc7 8339 8654 8cbd
00000370: c8c9 83bd 44fa 74bc ac12 63bd 0f61 68bd
00000380: 7dd7 1fbd 25c7 813d 43dc abbd 508d a33c
00000390: 0b4a 073d 16ed 7ebd 1f7d bfbc 0ba1 85bc
000003a0: c93c 6ebd aafb c23b 9091 a6bd 4235 eabc
000003b0: ddf9 0f3d b4f2 373d 2991 553d 548f 8e3d
000003c0: dafa 66bd 43a6 f5bc d3ff 093d 8752 793d
000003d0: 24b2 85bd 4c6a 6c3d f863 933d 79ea 623d
000003e0: 90dc 6dbd 2af8 4d3d 02dd 333d 141f 8a3d
000003f0: 58bb 0b3d 7f35 01bd cb8b 67bd 12c5 82bd
-0.08181069 0.010551116 -0.039782956 0.00067596673 0.03159094 0.06118365 -0.08338475 0.053439006
0.06439974 -0.056481875 0.057322185 0.031094555 -0.045614634 -0.06565248 -0.07107615 -0.058509707
0.0073184357 -0.056126643 0.053781267 -0.048918985 -0.07741456 0.052506834 -0.02446863 0.05833183
-0.06373077 -0.07298346 0.06657134 -0.08647533 -0.08446345 0.057862747 -0.06361432 0.08064614
-0.07795595 -0.07172776 -0.052067835 0.05851195 0.051434744 0.046832964 0.067737594 -0.054696504
0.020615598 0.09252208 -0.015011397 0.011880136 0.040950567 0.030847598 -0.07677354 -0.0063922363
-0.067935556 -0.034158103 -0.014113864 -0.07953434 -0.020321684 0.063993074 0.0745772 -0.0770081
0.02384796 -0.078632176 -0.033811428 -0.075127095 -0.064167365 -0.09816289 -0.06552621 -0.0018977212
0.056972124 0.050369438 0.0143233435 -0.06982736 0.05819032 0.044516694 0.058908395 0.0016853567
0.0030093968 0.04472861 0.023992049 0.06575063 0.013436215 0.057981014 -0.077621065 0.022005495
0.026065102 -0.02423734 -0.1070405 0.060403027 -0.06708788 0.032072287 -0.08031436 -0.08681628
0.06862217 0.058515023 0.057379507 0.06429818 0.010291799 0.057106316 -0.02329673 -0.08761119
0.05880173 -0.07563376 -0.0640807 -0.05813615 0.035239056 -0.04661338 -0.053314693 -0.078899495
0.053671617 0.06127098 -0.06124711 0.034864422 -0.05089655 0.056479484 0.08373044 -0.0139785
-0.07258953 -0.06729663 -0.096401714 0.07917528 0.012910928 0.0650824 -0.0037971002 -0.058315314
-0.08501818 0.054240204 -0.0117863845 -0.04431842 0.033870384 -0.009231085 -0.06512691 0.065439425
-0.097576074 -0.08500605 -0.063418046 0.057881534 0.0697814 -0.07347892 -0.079475656 0.0037831184
0.026379436 0.057341106 0.002653742 0.02770752 -0.017020052 0.03738297 0.0330718 -0.06100944
-0.05073083 -0.08306804 -0.07581301 0.088883124 0.06745491 0.073786795 0.07555707 -0.07043385
-0.0044694343 -0.049782265 -0.05901797 0.0350941 -0.074698485 -0.057001192 -0.038590625 0.07119005
-0.0045305504 0.03659908 -0.051694266 -0.064729 0.017244391 -0.008653113 -0.07866111 -0.085629255
0.010433739 -0.048290025 -0.085396394 -0.039720446 -0.05161146 0.057152912 0.06548414 0.05827198
-0.049895618 -0.021148255 -0.093731165 -0.046308912 -0.060929466 0.05984258 -0.04064814 0.035756107
-0.060201146 0.05141457 -0.057972375 -0.060599618 -0.06549285 -0.011292828 -0.032432836 -0.016822591
-0.046910703 -0.06733171 -0.022607839 0.059903055 -0.049639355 0.06104952 0.048387114 0.0855288
0.030596888 -0.059043087 -0.060850028 -0.100069374 -0.0034054394 -0.04474798 0.021388045 -0.012748942
-0.091885805 -0.05811314 0.071638614 0.01268611 0.02495751 0.034036174 -0.038643826 -0.06989302
0.061950207 0.068355136 0.00025134798 -0.06852059 -0.06434971 -0.014952246 -0.05543773 -0.056733187
-0.039023865 0.06336812 -0.08391621 0.019964844 0.033029597 -0.06223782 -0.023375092 -0.016312143
-0.058163438 0.005950411 -0.081332326 -0.028589848 0.035150398 0.044909194 0.05214039 0.069609314
-0.056391574 -0.029986506 0.03369124 0.06086972 -0.06528118 0.05771856 0.07196802 0.05539939
-0.058071673 0.050285496 0.04391194 0.06744209 0.03411421 -0.03154516 -0.0565298 -0.063852444

cls.2.weight f4 [256]
00000000: 8c80 5c3f e8c6 7b3f dd14 743f fd74 7c3f
00000010: 4f44 593f 3c37 563f cc4f 683f 4982 7d3f
00000020: 8158 6f3f e2c3 803f cec3 733f 30ff 753f
00000030: c867 783f 7db4 633f 1c17 653f ca4c 683f
00000040: 38f5 923f 593c 723f 1874 763f 4d09 743f
00000050: 449b 653f 94c0 773f b9df 663f 39e2 7a3f
00000060: 2645 7a3f e6c6 743f 5b25 7f3f 5c2c 5a3f
00000070: 6f81 7b3f 00bc 793f f37e 793f 9028 663f
00000080: c71b 623f 7d73 743f 7082 733f 5920 793f
00000090: c7e3 793f 18d4 743f acc8 6d3f 8cc2 783f
000000a0: 2143 743f b915 863f c472 783f c14b 763f
000000b0: 738c 833f 86f1 6c3f e6f0 773f a562 773f
000000c0: 629a 693f 390b 703f c27c 6d3f fd4f 7c3f
000000d0: b2c4 6a3f 54a2 733f 5734 793f cf83 733f
000000e0: 530f 733f 1703 353f 834b 6b3f 75b9 713f
000000f0: 8e4f 703f cd2b 6f3f e21e 693f 1884 753f
00000100: ed40 7e3f 3b9d 703f 54f2 7b3f 15dd 753f
00000110: 33ed 6e3f cf5d 8b3f 3cfc 6e3f e7c6 763f
00000120: f21c 8b3f 4766 6f3f afd1 6e3f 6958 7b3f
00000130: 7337 7e3f caa4 793f 48fe 6e3f 0343 7f3f
00000140: baf9 703f e6eb 633f 9a30 773f 3be2 7c3f
00000150: a083 6c3f 4450 573f 8fd1 6d3f a620 643f
00000160: 07a7 7b3f 7f5b 7b3f 76af 783f 2ddd 593f
00000170: efbe 7a3f d5dc 7d3f edb2 683f 0b28 673f
00000180: 8f80 7a3f 2252 7a3f 8e79 5a3f 5830 843f
00000190: 5aa0 823f cfab 753f 08c4 633f b481 713f
000001a0: 5c1c 6d3f 23bb 653f d4a2 7b3f 1972 793f
000001b0: ad1e 723f 0439 743f 6b89 843f f094 783f
000001c0: 637e 6d3f 58eb 373f 1fd2 7c3f 46ee 753f
000001d0: 988b 7a3f a7e1 803f 65a6 5e3f 0915 503f
000001e0: 7c87 733f 5f62 7f3f 77e1 703f eccd 6a3f
000001f0: 2fef 843f b81f 723f 8c63 643f bfd3 7a3f
00000200: e4ab 663f 69fc 653f 2378 5d3f 980a 673f
00000210: f10a 813f 223d 5b3f dd74 683f 12d2 723f
00000220: 1991 723f 5420 783f 3d05 703f fc1a 633f
00000230: d084 713f 8268 7d3f 3b82 6b3f efb0 783f
00000240: 4469 7e3f 0eb9 6f3f 2065 713f a64a 733f
00000250: 23c3 7c3f dd89 673f babe 7b3f 74fb 763f
00000260: 9bdf 7f3f ccb3 753f 7337 4d3f 03de 7f3f
00000270: eb53 763f 93fa 6c3f 0d94 833f f062 703f
00000280: 7c72 803f 729d 643f 9434 783f d94b 7d3f
00000290: e9d3 7c3f 3d5b 603f 24cc 713f 3443 5d3f
000002a0: a532 913f 7658 7a3f 605e 753f 648b 683f
000002b0: 35f8 783f c361 743f 74d7 7b3f ba52 7a3f
000002c0: 1ad4 613f e9dc 463f b513 6d3f d830 6e3f
000002d0: 765e 683f 17ac 783f a1c0 7d3f 1e94 773f
000002e0: 7a92 5e3f 8232 873f 0a52 683f cb08 603f
000002f0: 80ab 703f dfc0 673f 125e 703f 9911 7e3f
00000300: 4f0c 663f 888e 5b3f 4778 6a3f d409 7b3f
00000310: 5aed 743f 75a1 673f a68c 7f3f ce47 7c3f
00000320: 8341 823f 0ff6 633f 6abc 763f 680f 673f
00000330: 732c 743f 288c 773f 99d2 653f b17e 773f
00000340: bf4d 773f c9d8 2c3f 9044 6a3f c74b 863f
00000350: 429e 793f e618 6f3f de2f 763f 8e47 7a3f
00000360: c5eb 703f 2a6f 7e3f 8103 7a3f 6c8d 663f
00000370: e42b 7b3f 16b9 743f 5f51 673f c580 603f
00000380: f4d6 703f a6c9 6a3f c01c 6a3f 0777 723f
00000390: 5a7b 723f 8528 783f a651 7c3f 82f2 7f3f
000003a0: 95ee 573f dcbf 803f 23e9 663f fce9 7b3f
000003b0: 0a12 763f 1d10 7f3f c56a 633f 4afd 753f
000003c0: d008 7b3f 5214 723f 8d16 803f 00c1 773f
000003d0: 15dc 703f adf4 783f 046b 7b3f d773 773f
000003e0: ef0c 2f3f 62ac 793f 22d0 723f a2b1 703f
000003f0: 85b9 803f f3c9 6f3f ae2c 5a3f 9175 5f3f
0.86133647 0.9835038 0.95344335 0.9861601 0.84869856 0.8367803 0.9074676 0.99026924
0.9349442 1.0059779 0.9522065 0.9609251 0.9703336 0.8894728 0.8948839 0.9074217
1.1481085 0.94623333 0.96270895 0.9532669 0.8969004 0.96778226 0.90185124 0.9800144
0.9776176 0.95615995 0.99666375 0.8522394 0.98244375 0.9755249 0.97459334 0.89905643
0.88323635 0.9548872 0.95120907 0.97314984 0.97613186 0.9563613 0.92884326 0.97171855
0.9541493 1.0475379 0.9705012 0.9620934 1.0277237 0.92556036 0.96851957 0.96634895
0.91251194 0.93767124 0.9276849 0.9855955 0.91706383 0.9516957 0.9734549 0.95123
0.9494526 0.7070784 0.91912097 0.9442361 0.9387139 0.9342621 0.9106275 0.95904684
0.9931782 0.93989915 0.9841664 0.9604047 0.9333069 1.0888003 0.9335363 0.9639725
1.0868208 0.9351544 0.932887 0.9818178 0.9930336 0.97517073 0.9335675 0.99711627
0.9413105 0.8903183 0.96558535 0.987827 0.92388344 0.8410685 0.92897886 0.8911232
0.9830174 0.98186487 0.9714273 0.8510311 0.9794759 0.9916509 0.9089802 0.90295476
0.97852415 0.97781575 0.8534173 1.0327253 1.0205185 0.95965284 0.88970995 0.94338536
0.926214 0.8973867 0.9829533 0.97439724 0.9457806 0.953995 1.0354437 0.9710226
0.92770976 0.7184348 0.9875812 0.960667 0.97869253 1.0068864 0.8697265 0.812821
0.9512861 0.9975948 0.9409403 0.9172046 1.0385493 0.9457965 0.89214396 0.9797935
0.90106034 0.8983827 0.8651144 0.9025054 1.0081464 0.85640156 0.9080332 0.9485179
0.9475265 0.9692433 0.93757993 0.8871305 0.9434328 0.9898759 0.9199559 0.9714498
0.9937937 0.93641746 0.9429493 0.9503578 0.98735255 0.9044474 0.983379 0.96477437
0.9995057 0.95977473 0.80162734 0.9994814 0.962218 0.92569846 1.0279557 0.93900967
1.0034938 0.8930274 0.9695523 0.9894386 0.9876085 0.8763922 0.9445212 0.8643067
1.134358 0.9779123 0.9584713 0.90837693 0.97253734 0.9546167 0.9837563 0.9778248
0.88214266 0.7768083 0.92608196 0.9304328 0.90769136 0.9713759 0.99122053 0.96710384
0.86942255 1.0562289 0.9075018 0.87513417 0.9401169 0.9052867 0.9389354 0.992456
0.8986253 0.8576436 0.9158978 0.9806187 0.9567467 0.9048074 0.9982399 0.98547065
1.0176243 0.8904733 0.9638125 0.90257883 0.95380324 0.96698236 0.8977447 0.9667769
0.96603006 0.6751829 0.9151087 1.0491875 0.9750711 0.93397367 0.9616679 0.97765434
0.94109756 0.9938837 0.97661597 0.9005954 0.98113847 0.9559492 0.9035854 0.87696487
0.9407799 0.9171394 0.9145012 0.9471287 0.9471947 0.9693683 0.98562086 0.9997941
0.8434842 1.0058551 0.9019949 0.98403907 0.96121275 0.9963396 0.8883479 0.96089613
0.9806032 0.94562256 1.0006882 0.9677887 0.9408582 0.97248346 0.9821017 0.9666113
0.6837911 0.9752866 0.94848835 0.94021046 1.0056616 0.93667525 0.85224426 0.8728877

cls.2.bias f4 [256]
00000000: e853 203d d2c4 583c 715d bb3c e10f 593c
00000010: ab58 923c 8358 ebbc 8712 903c aed5 1cbc
00000020: 0c1d 67bc e97a 023c 725b aebc 0758 ed3b
00000030: e981 753c 78ea 293c 3fd4 a9bc b328 3e3d
00000040: bd11 433c cd1c 36bc acfb a5bc f002 49bc
00000050: da7c 643d 2753 2dbc a89b 91bd 8d17 edbb
00000060: d2df fa3b f6c4 853c 3627 463c d995 4cbc
00000070: 5a56 34bc d28c 2abc 75d5 56bc 7f40 1bbd
00000080: 167b a33c b08a 1bbd fb7e 0dbc 7d05 b43b
00000090: f019 41bc 2e5a 52bc 8b86 fbbc 06d6 f13b
000000a0: b7a3 09bd aca3 ac3a 3a68 af3c 847e a3bc
000000b0: 822d 29bb 4c13 cfbb 7533 48bc 5aa2 9b3c
000000c0: 4c96 5b3d 3e6f 76bc 38f4 4dbb 5771 46bc
000000d0: a5f2 753b b708 acbc 84bb 14bc f2f1 c03c
000000e0: 5e7c 17bc 8191 0bbd 5cce debc 7df7 8dbb
000000f0: b534 91bc f4e2 62bc a8e7 13bd 9c9f 44bc
00000100: 7c56 4b3c 2c47 93bc 38ae b8bb 94df 9c3c
00000110: 7ba4 ebbc 6053 86bb 8aa5 0ebd c342 8e3c
00000120: 2c4a 36bb 64fe b93c 0fdc 403d 0ac2 bbba
00000130: e172 4b3c 68fb 18bc 679d dfbc 5f4f 9e3b
00000140: 4446 bebb a269 513d 75dc 543c 358f 30bc
00000150: 9acc 97bc da55 a03c a501 d1ba 4766 f6bc
00000160: 5a8a 0ebb 9032 c8bb 0aeb 52bb 4d02 3cbc
00000170: 5ed0 acbb c852 af3b 4b74 aebc a95d bfbc
00000180: abe1 1ebc 9ab0 44bc db31 ce3c fe08 8a39
00000190: d57c 673a 56b3 783c 7dd9 59bd e689 6ebc
000001a0: 195f adbc be1f e8bc a372 2a3c d953 953c
000001b0: 6f3c 4a3c 7a4f 9ebc 3b8f 04bc 9717 8e3c
000001c0: a527 c7bc a18b 6cbc 80a5 29bc 82cf 6cbc
000001d0: e1fc 653c 2b43 75bc 240a 6e3d ee9e d2bb
000001e0: c197 3fbd 1d06 1abc 776d fe3b 8038 d7bc
000001f0: 01b9 1d3c ce99 73bc 56bd 26bd 0f44 88bb
00000200: 24c9 efbc 994e b83c d58e 40bd b3eb b0bc
00000210: 5fbe 10bc ba2b 753d 02d3 5ebd ea29 95bc
00000220: b61d 893c fedb d2bc eecd 03bb e27e 3cbd
00000230: 73c0 2d3c 0868 d33b 7e74 333d 3e3a 3cbc
00000240: abd7 97bb ecf9 313c c69c cebc aee2 92bc
00000250: 1760 523c 1886 ccbc 34a8 4abb 9233 2e3c
00000260: d85b cd38 b015 933c e22d b8bc a0bb 6abc
00000270: cab0 a4bc b929 91bc 1fca a9bb 2cee a3bc
00000280: 41c0 b13a ca33 10bd b10a 21bc 3ecb 03bc
00000290: 9324 83bb 4804 803c a827 cebc 2e45 113d
000002a0: 59ca f5bb d63e 753c 9691 513c c682 d439
000002b0: 2765 43bc 3fc0 acbc 7e21 f1bc 718d 38bc
000002c0: a366 c43c 1ad0 bbba cc49 b63c 550a bf3c
000002d0: 770e 36bd 9187 6e3c 1667 433c eaf7 983c
000002e0: e18f f83c 3d8c 1c3c 92ac 39bd df62 0f3d
000002f0: d7bc a33c f5c1 f03c 65c2 363c 3fbe e33b
00000300: ec01 35bd 481c 63bd bb5e bc3c 2e60 353b
00000310: 6842 c53c 9d20 363d 8c31 cabb e314 ec3a
00000320: afab 033c 0662 27bd 282e 533c 6450 b7bc
00000330: 6ca4 7a3c ab08 773c 5af3 29bc e328 9a3c
00000340: 8378 3e3c 447a 743c 521e ff3b fe49 4fbc
00000350: 788d 80bd de23 b5bc ca48 9b3c 2297 35bc
00000360: 1c86 cfbc 10a7 0ebc 3ead 4bbc 8e79 2dbd
00000370: 7c00 e63b 06d8 523c e15d d0bc 0aaf a5bc
00000380: 5a29 d5bc f856 9d3c 820c 183d 02fc 803c
00000390: a75e c03c d786 3ebc 4348 403c 0ff5 e5bb
000003a0: e6b4 683c 6232 273c 1f7f 9dbc 292c fe3c
000003b0: 8a51 483c c84d 2a3c 4dcd 863a 8ec9 883b
000003c0: c797 383c 7926 163d 092d 1f3c e09d 9c3c
000003d0: 8597 cbbc 4fbd 74bc bb35 3b3c 6de3 673c
000003e0: b516 8a3c 256a 573c aa40 183c 3c4b 9ebc
000003f0: 4796 323c 318e eb3c a177 89bd a881 4fbd
0.03914252 0.013230519 0.022871705 0.013248415 0.017864546 -0.02872873 0.01758696 -0.00957243
-0.014106046 0.007963874 -0.021283839 0.0072431597 0.014984586 0.010370843 -0.02073109 0.046425533
0.011906085 -0.011115265 -0.020261608 -0.012268767 0.05578313 -0.010578907 -0.07109767 -0.0072354735
0.007656076 0.01632927 0.01209431 -0.012486898 -0.011006916 -0.010409551 -0.013112416 -0.037903305
0.019956153 -0.03797406 -0.0086362315 0.0054938183 -0.011785969 -0.012838883 -0.030703804 0.00738025
-0.033603396 0.0013171337 0.021412004 -0.019957788 -0.0025814478 -0.006319439 -0.0122193 0.018998314
0.05361013 -0.015041171 -0.0031426083 -0.012111983 0.003752866 -0.02100025 -0.00907791 0.023552869
-0.00924596 -0.03407431 -0.02719801 -0.0043324814 -0.017725328 -0.013848055 -0.036109596 -0.012000944
0.012410756 -0.017978273 -0.005636003 0.01914958 -0.028764954 -0.0040992945 -0.03482584 0.017365819
-0.0027815206 0.02270431 0.047084864 -0.0014324796 0.012417526 -0.009337284 -0.027296735 0.004831239
-0.005806716 0.05112613 0.012992014 -0.010776331 -0.018530179 0.019572187 -0.0015945925 -0.030078067
-0.0021749944 -0.006109543 -0.0032183551 -0.011475158 -0.0052738627 0.0053504445 -0.021295687 -0.02336009
-0.009697358 -0.012004996 0.025170257 0.0002632811 0.0008830552 0.015179476 -0.05318593 -0.014559245
-0.02116351 -0.028335448 0.010403308 0.018228458 0.01234351 -0.019325007 -0.008090789 0.017345233
-0.024310896 -0.014437587 -0.0103544 -0.014453771 0.014037342 -0.014969627 0.05811514 -0.0064276373
-0.046775583 -0.009400872 0.007764514 -0.026272058 0.009626628 -0.014868213 -0.04070791 -0.004158504
-0.029270716 0.022498416 -0.047011215 -0.021596765 -0.0088344505 0.059856154 -0.05440045 -0.018208463
0.0167378 -0.025739666 -0.0020111757 -0.046019442 0.0106049655 0.0064516105 0.043812267 -0.011488495
-0.004633864 0.010862809 -0.02522124 -0.017930355 0.012840292 -0.024966285 -0.003092301 0.0106324125
9.792269e-05 0.017954677 -0.022482816 -0.01432696 -0.02010383 -0.01772009 -0.0051815654 -0.02001103
0.0013561324 -0.03520564 -0.009829209 -0.008044062 -0.0040021627 0.015627041 -0.025165394 0.035466366
-0.0075009284 0.014968595 0.012791058 0.00040533225 -0.011925972 -0.021087764 -0.029434916 -0.011264191
0.023974722 -0.0014328987 0.022251986 0.023320356 -0.04444739 0.014558689 0.011926433 0.018672902
0.030342044 0.00955492 -0.04533059 0.0350064 0.019987507 0.02938936 0.011154746 0.0069501693
-0.044191286 -0.055446893 0.02299439 0.0027675736 0.024079517 0.044464696 -0.006170457 0.0018011596
0.008036538 -0.040864967 0.0128894225 -0.0223772 0.01529799 0.01507775 -0.010372961 0.018818324
0.011625412 0.0149217285 0.007785597 -0.012651918 -0.06276983 -0.02211183 0.018955607 -0.011083396
-0.025332503 -0.008706823 -0.012431441 -0.04235225 0.0070191007 0.012868887 -0.02543539 -0.020225067
-0.026020695 0.019206509 0.037121303 0.015745167 0.023482634 -0.011628828 0.011735979 -0.0070177387
0.014203286 0.010204883 -0.019225655 0.031026917 0.012226472 0.010394521 0.0010284573 0.004174418
0.011266655 0.036657784 0.009715327 0.01911825 -0.024852524 -0.014937713 0.011426385 0.014153344
0.01685653 0.013147865 0.009292761 -0.019322984 0.010900087 0.028754326 -0.067122705 -0.05066076
