医学影像/EV_GCN/save_models/ev_gcn/fold1.pth (torch, 543861 bytes, 20 tensors)

gconv.0.weight f4 [3, 2000, 16]
00000000: 2c16 4cbd 329c aabd 766b a63d af99 a5bd
00000010: 7c86 50bc 1070 ed3c 771c 5d3c 74e0 a03d
00000020: f67f 853d e8d4 acbd 6963 8cbd 8fbc 05bd
00000030: d64c bebd 725a 7c3d 222b b33b 3f0b 3bbd
00000040: 3db2 aebd afb7 2fbd a399 183d 645a 8dbd
00000050: 96c5 a0bd 677d 983d a02e 8fbc b578 ac3d
00000060: d61d 473d 8155 a9bc f94a 1ebc 023f 67bd
00000070: bbfe 22bc 8ae0 42bd ef43 223c 07a9 13bd
00000080: 90f3 30bd a180 6ebd 180a 703d a6aa b9bb
00000090: 57c0 9c3c 9aeb e13c 9e6f 8abc 5456 d53d
000000a0: e995 aa3d f6d4 a9bc faf5 e3bc 694d a5bc
000000b0: 428e 4cbb 37e0 983c ff32 b53c 7122 96bd
000000c0: 9bd6 5ebd 4f30 4f3a d9c5 1b3d b8ea d9bb
000000d0: 1c4a bbbc 3821 423d 9e6a eaba a318 473d
000000e0: 477c c73c 86bb 8c3a f1db 40bd a742 8abd
000000f0: ab2e 0fbd 661e 87bc a245 4d3c f449 b3bc
00000100: c5e7 44ba fca7 56bd 019f 0f3d ee89 7ebd
00000110: 9ca7 063d bc7e 133d 8cbd bebb 0690 573c
00000120: df31 983d cfad 8fbd 9bcb 91bd c2c1 aabd
00000130: 8c46 8ebd 2df9 1a3d 3340 b23d 4249 bebd
00000140: cc05 71bd 1520 d3bb 8ba3 a43d 6165 6fbd
00000150: 7e32 a7bb 8ef2 bf3b 3d70 49bd e424 853d
00000160: bb8a 913d e514 7fbd c0d9 0ebd c092 b6bc
00000170: 0bc3 0fbd a02c 563d 561f d93d 4179 98bd
00000180: c6e9 93bc 0cbf 9abb ce46 b03d facd 63bd
00000190: 00fc 96bc 10b0 fc3c 7e5f 3c3c 07a4 8d3d
000001a0: e6e2 6bbc 1835 f7bc 2306 51bd de38 efbc
000001b0: 87ec 72bd d4be 3cbd 3c04 123d 3aee 19bc
000001c0: 0fb6 683c 7e25 86bd ec87 a23d 8b2c 69bd
000001d0: 3376 c8bc 8376 8a3c 002d 5c3c e1d3 a03c
000001e0: 3692 b13d cad8 f1bc b93f a0bd f4ea a7bd
000001f0: 4dd5 eebc 785f c93c 96f9 9c3d 5384 5abc
00000200: 8375 acbd 6150 113c be66 a53d 7943 cdbc
00000210: 9d70 6fbd bbb7 523d 8a52 c3bc 6cc0 1a3d
00000220: 78cb e4bb dc66 79bc 2f3c 74bb f905 75bd
00000230: 947b 59bd f8f1 f53a 5ca9 533b 82dc 21bd
00000240: 9379 a7bd c2b3 babd 1c4d c03d 18a1 93bc
00000250: c332 c63b 8562 d33c b229 0bbd d95c 8a3d
00000260: 3495 f23a 6e7f e7bb f5c6 b9bd f504 41bd
00000270: f7bc 66bd 5483 7f3c 33b7 673d c8e1 97ba
00000280: 1f29 96bd d110 3dbd e17a 8a3d 6107 29bd
00000290: 1763 a0bc 7613 ab3d 9e54 e3bc 75b9 a93d
000002a0: 4f8f 89bc c94a c3bd c88e a0bd 8b6b 94bc
000002b0: 39da 843a 9694 583d 39ed 3a3d 8708 2a3c
000002c0: 8e7f 9abd 5b65 e83b 1eae e93c 85b6 8dbd
000002d0: 3dc3 ad3c 931b 80bb e631 acbc 9d1e 523d
000002e0: b77a 803d 0269 3ebc 2d81 18bc b9a8 b0bd
000002f0: 535d 23bd 4169 8ebc f896 743d f272 12bd
00000300: 753b 1abd 642b fabc 3cd2 b03d cb88 78bd
00000310: b963 00bd d51e ad3b ee3a cebd 8728 cd3d
00000320: c0a2 d33c d526 01bc 8ea4 23bd c891 38bc
00000330: e862 36bd 0096 453d 9c65 a93d 58db 9fbc
00000340: 6793 20bb f2e2 c13b 3d98 b63c cc99 6a3b
00000350: d1df e4ba 39f1 053d e0d7 cabc 7192 103d
00000360: fa10 a53d 9367 89bd dd68 6dbd 1f31 2cbd
00000370: dbad 52bc 4d5f d83c 4588 543d 9ca3 65bc
00000380: 5a56 853d f185 87bc 7e5b bf3c 724e 9bbd
00000390: b08d cfbd b168 333d be3c edbc 98c5 063d
000003a0: 5fcf ad3d 5893 88bd 0189 09bd ffbc a0bd
000003b0: 1a5f 8fbd 6b81 783d 6649 b53d e93d fdbc
000003c0: 3ebb eabc f2b6 c2bd 760c 633d 7b39 86bd
000003d0: c0f3 a6bd c3c5 923d edba 9abd d4cd b63d
000003e0: 594c 003d 0f0d 37bd 57e3 f7bc 6601 d3bc
000003f0: c654 dcbb f70f 623d 38ff 203d 7989 45bd
-0.049825832 -0.08330573 0.08125965 -0.080859534 -0.012727376 0.0289841 0.013495556 0.07855311
0.06518547 -0.08439046 -0.068548985 -0.032650527 -0.09291999 0.061609693 0.0054677883 -0.045665022
-0.0853009 -0.042899784 0.037255894 -0.06902006 -0.078501865 0.074457936 -0.017478287 0.084214605
0.04861244 -0.020670654 -0.00966143 -0.056456573 -0.009948428 -0.04757742 0.009903892 -0.03604987
-0.04320103 -0.05822814 0.058603376 -0.005666095 0.019134684 0.027578164 -0.016898926 0.104168564
0.08329374 -0.02073143 -0.027827252 -0.020178514 -0.0031212722 0.018661601 0.022119043 -0.07330788
-0.054403882 0.0007903622 0.03803048 -0.006650295 -0.022862487 0.04739496 -0.0017884558 0.04860748
0.024351252 0.0010737039 -0.047084752 -0.06750994 -0.034956615 -0.016493987 0.012528809 -0.02188585
-0.0007511343 -0.052406296 0.035063747 -0.06214326 0.03287469 0.036009535 -0.0058209356 0.013156896
0.07431387 -0.07015573 -0.07118913 -0.083377376 -0.069470495 0.03783529 0.08703651 -0.092913166
-0.05884342 -0.0064430335 0.08039006 -0.05844629 -0.0051024547 0.005857772 -0.049179304 0.06501177
0.07106539 -0.062275786 -0.03487563 -0.022286773 -0.035098117 0.05228865 0.1060168 -0.07445002
-0.018055808 -0.0047224816 0.08607255 -0.055616356 -0.01843071 0.030845672 0.0114973765 0.06916051
-0.0143973585 -0.030176684 -0.051031243 -0.029201921 -0.0593076 -0.046080425 0.03564857 -0.009395177
0.014203562 -0.0655012 0.07936081 -0.056927245 -0.024470424 0.016902214 0.013438463 0.019632282
0.08670466 -0.029522318 -0.07824654 -0.081991106 -0.029154444 0.024581656 0.07664792 -0.013337213
-0.08420851 0.0088692615 0.08076237 -0.025056588 -0.058457006 0.05144475 -0.023843069 0.037781164
-0.006982263 -0.0152222775 -0.0037267318 -0.05982015 -0.05309637 0.0018764129 0.003229699 -0.039516933
-0.08177485 -0.09116317 0.093897074 -0.018021151 0.0060485317 0.025803814 -0.03397531 0.067559905
0.0018507601 -0.0070647513 -0.09071151 -0.047123868 -0.056332555 0.015595276 0.056571197 -0.0011587674
-0.07332062 -0.046158615 0.067617185 -0.041266803 -0.0195785 0.08353321 -0.02775031 0.08287326
-0.016791968 -0.095357485 -0.07839733 -0.018117687 0.0010135836 0.052876078 0.04563639 0.01037801
-0.075438604 0.0070921606 0.028525408 -0.069195785 0.02121126 -0.003909537 -0.021019887 0.051298726
0.06273406 -0.0116217155 -0.009308142 -0.08625931 -0.039883923 -0.017384173 0.059714288 -0.03575415
-0.03765436 -0.030538268 0.08633849 -0.06067733 -0.031345103 0.0052832165 -0.10069834 0.100174956
0.025834441 -0.007882793 -0.039951853 -0.011265226 -0.044527918 0.048238754 0.082713336 -0.019513771
-0.002450192 0.0059169466 0.02228939 0.0035797236 -0.0017461722 0.03270075 -0.02476114 0.035295907
0.08059879 -0.06709208 -0.057961334 -0.042039033 -0.012858833 0.02641263 0.05188777 -0.014016058
0.06510611 -0.01654336 0.023359057 -0.07583322 -0.101344466 0.043801013 -0.028959628 0.032903284
0.084868185 -0.066687286 -0.033577923 -0.07848548 -0.07000561 0.060670298 0.0885189 -0.03091331
-0.028653737 -0.0950755 0.055431806 -0.06553932 -0.081519604 0.07166626 -0.075551845 0.08925977
0.03132281 -0.044690188 -0.030259771 -0.025757503 -0.006723973 0.055191007 0.039305896 -0.048226807

gconv.1.weight f4 [3, 16, 16]
00000000: 8d3b 5a3e bc3d 7f3e 8dff e03d c159 933d
00000010: f858 6b3d 46ed f4bc 5656 88be 6c76 8fbe
00000020: 6e22 b3bd 3838 61be 1b31 a9be 8ebd f1be
00000030: 0bf1 27bd cfac d5bd 0bca 8fbe 8a39 9cbe
00000040: 16f6 e0be c1d6 533e e7b6 80be 2207 a23e
00000050: 3497 8cbd 1e0c a93e 115e 3f3e 6d02 3d3e
00000060: c075 98be b743 99bd 1a88 843e 5f6b 7d3e
00000070: c34a 923e a130 c1bd f7f2 43be 0fb3 2a3d
00000080: 24bc eb3d c80e b5be 84b0 043e 4601 c93e
00000090: 4180 e43e e5ba 9b3e c767 b9be bb7a dd3d
000000a0: 6064 a0be afd1 01be 5d89 ae3c 4505 833e
000000b0: bd54 903e 9a50 903e e8a5 4e3e 3088 743e
000000c0: d422 913e 68ad e8bd 0bb6 c2bb 62b6 5b3e
000000d0: 3baf 5c3d c168 d0be fdc5 1f3d 5832 39be
000000e0: f314 c33e 2639 9e3e 77b1 97be e976 9a3e
000000f0: 435e 7ebe 7abf a13d 89ba 6e3e 96d1 3bbe
00000100: dbd1 493e 4798 4d3d b889 1f3e ebd9 62be
00000110: 01e1 a8be 3772 c9be fad3 78be 657b 733e
00000120: 6baf 9e3e 5f4a 15be 4866 0d3e 00a9 f13e
00000130: 80a1 92be 4500 b33e 619c 393e 64db 523d
00000140: 9a22 46be 964d 423e 0912 c53d cc1e 223e
00000150: 28d1 8fbe e890 88be 0cb7 d2be c58d a9be
00000160: 76de cf3e 7888 f9be 8378 373d 37a3 47be
00000170: 8969 be3e 0d16 3abe 8948 c0be 909f b73e
00000180: 6876 a43e f0be 993d d51a a03e c83e 9c3e
00000190: 49d1 993d 236b 77bd f462 1bbe eef1 333d
000001a0: 359f cc3e aa6c c23e 78be a2be 14b9 9dbe
000001b0: adee 683d a5c9 abbe a0e4 ac3d fb17 213e
000001c0: 0144 34be 0920 233e e6b6 60bc bcbe 533e
000001d0: 136d b23e 31c2 153e 496e ba3e b3e5 14bd
000001e0: 6cc5 e5bd 44f5 583d 8144 c53e 3ab5 bebb
000001f0: 669d a93e b96c 9a3e 6111 273e 65ea 6a3e
00000200: d6da f3bd 4ef4 54be 11e5 d93e 8fc3 c4be
00000210: 8d00 ff3d a96c bbbd a7e9 4c3e 2d11 be3e
00000220: 4cae 2dbe 230f 863e 65a3 9cbe 2227 e3be
00000230: b6db 39be 833b cb3e 6bfa 9cbd 617b a93e
00000240: 5ada 783e 0dc0 6f3e 4c40 68be d95d 953e
00000250: 4d58 893e 7b9d 55be b51d 0cbe f77f 1fbe
00000260: fdaa d1be 274e 34be f1b9 8dbe 8fd8 ea3e
00000270: e996 0abe e816 be3e be58 48be 798f 68be
00000280: 1f05 233e c874 e13d 7259 0dbd 023d 72be
00000290: 5f31 5d3e e73a 1f3e 4848 ad3e e957 b93e
000002a0: 18b7 62be f53a b13e f2a4 80bd e4cf af3e
000002b0: c2ec f03e ea1b 153e 42ab b6be 798b c2be
000002c0: 0db8 d0be 282f 463e dd5a 4dbd 4c2b e63e
000002d0: adc2 b93e c835 c3bd 4310 9dbd 87fe 6e3e
000002e0: ad85 c73e 481e 88bc b235 c7be 7e2c cd3c
000002f0: cc9c e63e 3d03 09be 7447 5c3e f240 c33e
00000300: 4007 ebbe e585 c2be 4b83 e13e 7bbd 9fbe
00000310: e338 b33d 2280 8e3e d115 b1bd 132a b3be
00000320: c809 acbe 0903 803e f227 23be c547 ca3d
00000330: 0fe4 f83d 6452 b0be 2677 b53e 9572 663e
00000340: 8c45 6d3e 7427 d2be c0d2 17be 0d0a ba3e
00000350: 182f d03e 8902 2bbe 984f 793e 6146 95be
00000360: ba33 a6be 968a 6b3e 0352 a43e ebc4 e4bd
00000370: 9005 a83e 7c99 743e f10f c2be 23e7 9a3e
00000380: 3100 5f3e 2ea8 803e 0bdc 4dbe 1d13 50be
00000390: 8dba debb 8b4f e23e 9421 80be f558 2f3d
000003a0: 5d50 743e a6a7 e83e ba89 663e dad0 bebe
000003b0: b441 17be 295d 0abe 24bd d9be f86f 303e
000003c0: b5ac 673d b8fe 853d 36b4 90bd ff70 993e
000003d0: 14af d4bd ca08 9e3e d003 b13e 14da b93e
000003e0: 711e 1d3e 33b4 d23e d085 50be 4d66 4e3e
000003f0: 8ee9 e43e 3438 35be 2349 933e 485a a83e
0.2131178 0.24925894 0.109862424 0.071948536 0.057457894 -0.029898297 -0.2662837 -0.28020036
-0.08746801 -0.21994102 -0.33045277 -0.4721493 -0.04100136 -0.10433351 -0.28083834 -0.3051265
-0.4393775 0.20687391 -0.25139543 0.31646067 -0.06864777 0.33017057 0.18688227 0.18457957
-0.29777336 -0.07483619 0.25885087 0.2474799 0.28572664 -0.09433103 -0.19135652 0.04167467
0.11510494 -0.3536284 0.1295796 0.39258784 0.446291 0.30416027 -0.36211988 0.108144246
-0.3132658 -0.12677644 0.021305734 0.25589958 0.2818965 0.28186494 0.20180476 0.23880076
0.28346884 -0.113611996 -0.0059421114 0.21456292 0.05387805 -0.4070492 0.039007176 -0.18085611
0.3810192 0.30902976 -0.29627582 0.30168846 -0.24840645 0.078978494 0.23313345 -0.1834167
0.1970896 0.05019405 0.1557988 -0.22153442 -0.32984164 -0.39344952 -0.24299613 0.2377754
0.30993208 -0.14579152 0.13808548 0.4719925 -0.2863884 0.34961143 0.1812606 0.05147876
-0.19349137 0.18974909 0.096225806 0.1583206 -0.2808926 -0.26673055 -0.4115528 -0.33115974
0.40599412 -0.4873693 0.044792663 -0.19495855 0.37189892 -0.18172474 -0.3755534 0.35863924
0.32121587 0.075071216 0.3127047 0.30516648 0.07510621 -0.060404908 -0.15174466 0.043931894
0.39965215 0.3797353 -0.3178594 -0.30805266 0.056868244 -0.3355228 0.08442044 0.15731804
-0.17604066 0.15930189 -0.013715481 0.20678228 0.34848842 0.1462486 0.36412266 -0.03635187
-0.11219296 0.05296828 0.38528827 -0.0058199437 0.33127898 0.30161074 0.16315223 0.22940977
-0.11906974 -0.2079632 0.42557576 -0.3843045 0.12451277 -0.09151585 0.20011006 0.3712248
-0.1696102 0.26183423 -0.3059341 -0.44365793 -0.1815022 0.3969384 -0.07664951 0.33101943
0.24302045 0.23413105 -0.22680777 0.29173163 0.2682518 -0.20860855 -0.13683207 -0.15576158
-0.40950766 -0.17607938 -0.27680925 0.45868346 -0.1353413 0.3712685 -0.19565102 -0.2271098
0.15919922 0.110086024 -0.03450913 -0.23656085 0.21600865 0.15549813 0.3384421 0.36199883
-0.22140157 0.34615293 -0.06281461 0.34338295 0.47055632 0.1456143 -0.35677534 -0.37997034
-0.4076542 0.19353926 -0.050135482 0.44954908 0.36281338 -0.09531742 -0.07669117 0.23339282
0.38969174 -0.016616002 -0.38908154 0.02504563 0.45041502 -0.13380142 0.21511632 0.38135487
-0.4590397 -0.37992778 0.4404548 -0.3119925 0.08751085 0.27832133 -0.08646739 -0.34993038
-0.33601213 0.25002316 -0.15933207 0.0987697 0.12152874 -0.3443786 0.35442466 0.22504647
0.23171061 -0.41045725 -0.14826488 0.36335793 0.4066093 -0.16700186 0.24346769 -0.29155257
-0.3246134 0.23002085 0.3209382 -0.111703716 0.32816744 0.23886675 -0.37902787 0.30254468
0.21777417 0.2512831 -0.20103471 -0.20319791 -0.006797141 0.4420131 -0.25025618 0.042809445
0.23858781 0.45440406 0.22513476 -0.37268716 -0.14771158 -0.135121 -0.42527115 0.17230213
0.05656119 0.06542724 -0.070656225 0.29969022 -0.10384956 0.3086608 0.3457322 0.36299193
0.15343644 0.41153106 -0.20363545 0.20156212 0.44709438 -0.17697221 0.28766736 0.3288138

gconv.2.weight f4 [3, 16, 16]
00000000: 4207 bcbe 4492 0b3e eddd 18be 4c30 8cbe
00000010: b8d9 073c e780 75be 8482 c5be 0a1f c33e
00000020: 4125 79be b632 473e 2bcd 28be 41a4 bf3e
00000030: 7979 6ebd c0ac b1bd 22b6 80bd cb3f d13e
00000040: b008 843e 5a4f eebc 43c0 8f3e d4af a5be
00000050: 0473 cdbe b043 73be 8048 b2be 8819 b2be
00000060: a967 24be 12f8 883d e851 3fbd 3702 48bb
00000070: b003 9fbe ae67 0c3e 52c1 853e 623f 233e
00000080: a9ac 98be 9f80 953e 4e7e a73d 7ac1 a9be
00000090: 47d5 1b3e 64f9 e4be bd85 613d ecba 853d
000000a0: d52e 253e b0f6 8a3e f4e9 2a3e c728 9abe
000000b0: 4139 4dbe 2076 babd 1a7e 81bd 47e7 2bbe
000000c0: 83cd 443e 6b88 83be 5f65 223e 4248 9dbe
000000d0: 3ead 483e 8162 ef3d 67d3 b8bd 9788 70be
000000e0: cd98 2abe e658 cbbe 6548 74bd c4d0 943e
000000f0: 5683 c7be 7159 87be 2254 51bd 4f7d 993c
00000100: d2cf bcbd 0eef 5f3e b20a 913e c0ba afbe
00000110: d4ce c33d ed03 b6be 9328 4e3e ab00 423e
00000120: c945 e63e 1f2e c63e 3a39 83be fd12 443d
00000130: f3e0 d4be e848 a83e 99f2 e83e c438 213c
00000140: e0b6 953d 93fc 8b3d d86c f2be 1b10 fcbd
00000150: c66d 3ebe 3b7a 463e c988 22bd 56e4 613d
00000160: faf1 8bbe f9da b9bd 4654 273e df29 06be
00000170: b4bc 0abd d2da 0abe e891 bebc 3f34 a7bd
00000180: e07e 6c3e da8f 793e 311f 3bbe 458e 853e
00000190: cb45 05bd 9004 20be 5827 b03d 14f0 77bd
000001a0: 9f6b f13d ccc2 ea3e ee74 d83d 29ff c8bd
000001b0: d3ae 613e 25d1 8dbe 9e64 cdbe fc13 89be
000001c0: 4eaa 22be 5b8f 32be 4ea2 fe3d ec28 723e
000001d0: 8d98 593e 0376 8c3e a74d 87be 538f 18bc
000001e0: 7558 b13e 9032 473e 8068 3cbc 2c15 ed3d
000001f0: ac0d 2abd c61c fa3d 4deb 09be d9a1 17be
00000200: 6e45 1b3e d09c a6be 2634 2b3e 9779 b0be
00000210: b3a8 a43e fa8d 933e 90f3 25be 2b72 43be
00000220: 9aec c63e a4e3 91be a0d6 adbd 4ee6 c03e
00000230: e427 b13e 9042 afbe d53d 093e 6071 c83d
00000240: 18fe 053d 6caa 96be 9fba 603e 743b 283d
00000250: 9225 43bd 22ed c23d 34ee c7be f412 99be
00000260: 782f 3e3e cc7a b0be 330c 0cbc ca01 b53e
00000270: 7e54 44be ec8d 393e c0a2 c1be 0c9a a93e
00000280: 18c3 c33b 9b91 303c 0ed0 b53e 3ae5 273e
00000290: 21d4 9dbd 6c70 9e3e 0d6a b93d 4a79 3dbd
000002a0: 4de7 8d3e 340f 9bbe a9d3 043c d673 e13e
000002b0: 10c3 8a3e fc7b 0dbd 2693 6f3e cde0 a0be
000002c0: 5eab 253e 6e02 84be 328c 0f3e efd0 8f3e
000002d0: 34a4 85be 3c27 a03e 3b5b 9fbe 4ca4 e23d
000002e0: 3bc9 b53e 25e7 4c3c 617d 463e efae a4be
000002f0: 7ffe 9fbe f622 e93d 7038 9bbe 8983 a63e
00000300: 4826 f43e e58f b53e 6c93 babe 3b2b 8cbe
00000310: 073d 233e f55e 05be 75a1 5cbe 1ab6 3ebe
00000320: f4f8 803e 35b6 50be f791 66be 8770 c7be
00000330: 020f 2fbd e0b4 b53d c4b2 2e3d b9db 8e3d
00000340: 28cc 733e c87a 23bd d723 b8be 4cbe e3bd
00000350: 74f6 e4be 641a c4be 5d4a 323e 7976 81be
00000360: 9e6f 5e3e d8a6 9dbd 3d5a f0bd a88e 07bc
00000370: 3604 3abd bb14 cf3e 9ffa acbd 5ed1 4c3e
00000380: 0fd8 8b3e 08eb 8abd 335b 7a3d 2555 f1bd
00000390: f875 ad3e 3beb 7dbe 4b8d 9ebe 36b0 90bd
000003a0: 8e8a 8b3e 88f4 73be 5b74 973e 8698 7d3e
000003b0: 506e ebbd fd54 8dbe 06d9 90bd d47d 673e
000003c0: 4e94 3f3d 1583 2abd 086d 55bd 7a2e 4c3e
000003d0: 061f 85be 6ea2 89be 0ac4 b0be ec74 2c3d
000003e0: 927e 6c3e 5cf4 b9be 1af0 10be d828 8b3e
000003f0: bfd9 2fbe 0a86 a0bc 019a e6bd 14d4 e13e
-0.36724287 0.13630015 -0.14928408 -0.27380598 0.008291654 -0.23974954 -0.38576138 0.38109618
-0.24330617 0.19452938 -0.16484515 0.37430003 -0.058221314 -0.086755276 -0.06284739 0.40868983
0.25787878 -0.029090572 0.28076372 -0.3236071 -0.40126812 -0.2375629 -0.34820938 -0.34785104
-0.16055168 0.06687941 -0.04670897 -0.0030518898 -0.310575 0.13711426 0.26124054 0.15942147
-0.2981923 0.29199693 0.081783876 -0.33155423 0.15218078 -0.4472152 0.055059183 0.06529793
0.16131146 0.27141333 0.16690809 -0.30109236 -0.20041372 -0.09104562 -0.0632288 -0.16787444
0.19219021 -0.25690016 0.15858983 -0.3071919 0.19597337 0.1168871 -0.09024697 -0.23489605
-0.16659851 -0.39716262 -0.059639353 0.29065526 -0.3896739 -0.26435426 -0.051105626 0.01873651
-0.09219326 0.21868536 0.28328472 -0.34322166 0.09560934 -0.3554987 0.20132665 0.18945567
0.44975117 0.38707063 -0.25629598 0.04786967 -0.41577873 0.32868123 0.45497587 0.009840194
0.07310271 0.06835284 -0.47348666 -0.123077594 -0.18596563 0.19382565 -0.03968123 0.0551494
-0.2733305 -0.09074969 0.16340742 -0.1310191 -0.033871368 -0.13560036 -0.023262933 -0.08164262
0.23095274 0.24371281 -0.18273617 0.26085106 -0.032537263 -0.1562674 0.08601254 -0.06053169
0.11788105 0.45851743 0.105691776 -0.09814293 0.22039346 -0.27698627 -0.40115827 -0.2677306
-0.15885279 -0.17437498 0.12433301 0.23648423 0.212496 0.27433786 -0.26426432 -0.009311515
0.346378 0.19452882 -0.011499524 0.11576304 -0.041516945 0.12212519 -0.13468666 -0.14807834
0.15163204 -0.32541513 0.16719112 -0.34467766 0.32159957 0.28819257 -0.16206193 -0.1908652
0.38852388 -0.2849399 -0.08488202 0.3767571 0.34600747 -0.3423047 0.13402493 0.097872496
0.032713026 -0.29426897 0.2194619 0.041072324 -0.04764325 0.09517886 -0.39048922 -0.29897273
0.18572795 -0.34468687 -0.00854783 0.35352927 -0.19172856 0.18120545 -0.3781948 0.3312534
0.0059741847 0.010776903 0.35510296 0.16396037 -0.07706476 0.30945146 0.09053431 -0.04625825
0.2771553 -0.30285037 0.008107104 0.44033688 0.27101946 -0.03454207 0.23395976 -0.3142151
0.16178653 -0.25783104 0.14018324 0.2808909 -0.2610184 0.31279933 -0.3112429 0.110664934
0.3550509 0.012506281 0.19383766 -0.32164714 -0.31248853 0.113836214 -0.30316496 0.32522228
0.47685456 0.35461345 -0.364406 -0.27376732 0.15941249 -0.13024504 -0.21545966 -0.18624154
0.25189936 -0.20382006 -0.22516619 -0.3895304 -0.042738922 0.0887239 0.042650953 0.069755025
0.23808348 -0.039912015 -0.35964844 -0.111202806 -0.4471928 -0.38301384 0.1741118 -0.252857
0.21722266 -0.076978385 -0.117359616 -0.008273758 -0.045414172 0.40445504 -0.0844624 0.20001742
0.27313277 -0.0678311 0.06112213 -0.11783818 0.33879066 -0.24796765 -0.30967173 -0.070648596
0.27254146 -0.2382375 0.2958096 0.24765214 -0.1149565 -0.27603903 -0.07072644 0.22606593
0.046772294 -0.041628916 -0.052105933 0.19939604 -0.26000232 -0.26881737 -0.34524566 0.042103693
0.23095158 -0.36319244 -0.14154091 0.271796 -0.17172907 -0.019595165 -0.11259843 0.44107115

gconv.3.weight f4 [3, 16, 16]
00000000: 5b33 ac3e a847 65be f518 243e 344a 973e
00000010: d211 c5bd 3a92 3e3e dacb 1dbe 9f90 923e
00000020: 117e 96be 960d 43bd 8044 9e3e fa1d 90be
00000030: 390c 41bd 4674 91be fb7d e13c 63f6 303e
00000040: dfff 69be 3465 76be eee8 b5be 0e2c 993b
00000050: c781 fbbe b64b bdbc 5110 593e db84 cfbb
00000060: 3121 8f3e 7033 9fbe f882 953c 3b62 b63e
00000070: 5611 90be be37 afbe 3b7d 553e 62a0 933e
00000080: aac8 a2be 0b72 b2bc 400a 7c3e 808f f2bc
00000090: 0121 a4be adfd aebe dc0a b03d 51fd 5e3e
000000a0: 8ff0 cebc c6fa 20be 87a8 34be 4633 a9bc
000000b0: ee26 66be 90ee ba3c 63c3 dfbd 3f61 62bd
000000c0: 967b 963e 1a9f 11be 704f 8bbc 0bd2 c8bc
000000d0: 0e18 c3bd 5053 babe 6777 973e 0443 4fbd
000000e0: bae4 21bb 4b05 28bd b72f 883d 1c45 d4bd
000000f0: 7653 263e 831f 6bbe 688b 643e eb71 41be
00000100: cb4e febd 377c ac3d 7e8a 6cbe 4500 323e
00000110: 8261 383d 84ab 033e e361 02be 4c6c 1b3e
00000120: 4503 943e 793a dd3d fdb1 683e ef4b b83e
00000130: 976b 0dbe f37d 363c c694 05bd 7cf8 d93c
00000140: 868b 3e3e 77b1 413d 946a 89bd 1b91 a93d
00000150: 54b5 05bd dafe 50be 7655 db3e cb64 53be
00000160: 88bd 123e b13f 76be fd3d 13bb 43db cf3e
00000170: 9ff8 08bd 087b d3bd 675a cb3e 2739 ca3e
00000180: 3464 c2be e583 aabe c9fd 8abd bd8a 213e
00000190: 46df bbbe cb37 02bd 8ee4 b73d a859 90be
000001a0: fd2f 43be 1c3c adbe 612c c43e e15d 12be
000001b0: c2fd 3bbe 15f8 b73b 5ed7 643e 29c6 79be
000001c0: 66d6 8b3d 1718 b13e a2cf c03e 9f63 a63e
000001d0: 06ab 933e d4cd 4fbe defe 653e 9dfe 7d3e
000001e0: ddae 3abe 6045 cd39 6bee 8abe f45e 033e
000001f0: 1916 b83e 72a2 4abe 8743 9cbd 94b5 7dbe
00000200: adf7 d53d 218d ba3e 6232 68be 125a 7dbe
00000210: 36a1 cdbe 9c5c 1e3d b201 abbe 65a8 4abd
00000220: 4e13 49be 549f d0be 12d9 20be e7ad 723e
00000230: 262a 9c3d 8a66 e9bd f2fc 10be c193 843e
00000240: 4301 fdbd 030f d93e 2011 21be 89ec 73be
00000250: 6a96 cd3c b6dc cc3e af21 2bbe 00ac cabe
00000260: cc1e a0bd 5bb9 823e 3353 f6bd f5ff d33d
00000270: b30b 15be e13a 44be 358f 7f3e 5caf be3e
00000280: 7345 ffbc 1631 a03c b8cf f93a fd91 ac3d
00000290: 03ec c23e 4882 93be d744 2cbd 8db9 18be
000002a0: f2d9 703d 7ac2 25be ce2c a2be 5471 a53e
000002b0: 866a cf3e df26 903e ee6a a63d ca48 d0be
000002c0: e98a 103c 2e51 893e 2b7e 3ebc 2527 d2be
000002d0: c20d 0e3e 6f70 c53e 6920 9c3e 79fa d73e
000002e0: 842e 55bb 1c20 7c3e 987e 993d 422b 86be
000002f0: 5cfa ed3d 0da4 d93e d864 4bbe 2599 d93e
00000300: 29fd 59bd 05e6 dbbd 2b1b 76be 7bcc 12be
00000310: 76a5 dabe b73b de3e f814 82be 5965 b2be
00000320: 37ae a9be 240f 2abd 6aaf f83c 6028 be3e
00000330: 60d5 99bd bf06 95be 8796 4b3e a817 64bd
00000340: 383c b3be 8b56 283e 5e97 803d d4c9 873e
00000350: ffd9 b03d 3293 68be 93df c63e 2e31 82be
00000360: 471d 753d 3c83 eb3e c121 18bd a463 a4be
00000370: e3b4 39be f984 433e 452e 333e 3f23 73bd
00000380: 8147 8bbe 9949 9f3e 6fca a93e 10bd 563d
00000390: 6d1c ffbc b27b d3bd 78d9 97bd ae0a 513e
000003a0: 4c15 88be d1b9 75be e7df d1be 2daf b23e
000003b0: 2dca 9f3e f37c c2bd 93d1 a43e a64a 5dbe
000003c0: c715 b9be decd dd3e 4ad4 bcbe d87f 9a3e
000003d0: 3664 a2be 95b2 ea3d d909 9abe 4001 09be
000003e0: 7e9d 413e 9ed7 46bc 1b1e 6fbe d84e c1be
000003f0: 68f6 77be 8160 a6be e2d6 d43e 7523 083e
0.3363293 -0.22390616 0.16025145 0.295488 -0.096225396 0.18610469 -0.15409794 0.28625962
-0.29393056 -0.04762038 0.30911636 -0.2814787 -0.047130797 -0.28409022 0.027525892 0.17281489
-0.22851513 -0.24062043 -0.35529274 0.004674441 -0.4912245 -0.02310739 0.2119763 -0.0063329763
0.2795501 -0.3109393 0.018250927 0.3562182 -0.28138226 -0.34222215 0.20848553 0.288333
-0.3179372 -0.021782896 0.24613285 -0.029609442 -0.3205643 -0.34177914 0.08595821 0.2177632
-0.025261192 -0.15720662 -0.17642413 -0.020654332 -0.22475788 0.022818834 -0.10925939 -0.055268522
0.29391164 -0.14220849 -0.017005652 -0.024514219 -0.095260724 -0.36391687 0.29583284 -0.05060102
-0.0024702982 -0.041020673 0.06649726 -0.10364744 0.16242775 -0.2296124 0.22318804 -0.18891113
-0.12417372 0.084221296 -0.23099706 0.17382915 0.045014866 0.12858397 -0.12732653 0.1517803
0.28908744 0.108021684 0.22724147 0.35995433 -0.13810574 0.011138427 -0.032612585 0.026607744
0.18607911 0.047288384 -0.06709781 0.0827963 -0.03264363 -0.20409718 0.4283864 -0.20643918
0.14330113 -0.24047734 -0.0022467368 0.4059697 -0.03344023 -0.10326201 0.3971741 0.3949673
-0.37967074 -0.33303753 -0.06786687 0.1577558 -0.36693782 -0.03179149 0.0897914 -0.28193402
-0.19061275 -0.33834922 0.38315108 -0.14293624 -0.1835852 0.0056142905 0.22347781 -0.24391998
0.06828003 0.34588692 0.3765841 0.3249788 0.28841418 -0.20293361 0.22460505 0.24804159
-0.18230768 0.00039152335 -0.27135023 0.1282919 0.3595436 -0.1978853 -0.07630067 -0.24776298
0.10447631 0.36435798 -0.2267547 -0.2474139 -0.40162057 0.038662538 -0.3339973 -0.049477
-0.1963627 -0.40746558 -0.15707806 0.23699151 0.07625227 -0.11396511 -0.14158991 0.25893977
-0.12353756 0.42394266 -0.15729189 -0.238207 0.025096137 0.4001214 -0.16712068 -0.3958435
-0.07818374 0.2553204 -0.12027588 0.10351554 -0.14555244 -0.19163086 0.24956973 0.37243164
-0.031161046 0.019554656 0.0019059097 0.084262826 0.38070688 -0.28810334 -0.04205784 -0.14914532
0.0588016 -0.16187468 -0.31674808 0.32313025 0.40510958 0.28154656 0.08125864 -0.40680534
0.008822181 0.26819748 -0.0116267605 -0.4104549 0.13872436 0.38562343 0.30493477 0.42183283
-0.0032528946 0.24621624 0.07494849 -0.26204878 0.11620018 0.42507973 -0.19862688 0.42499653
-0.053219948 -0.10737232 -0.24033801 -0.14335816 -0.42704362 0.43404934 -0.25406623 -0.34842947
-0.33140728 -0.041518345 0.030357081 0.3714018 -0.07511401 -0.2910671 0.1988164 -0.055686623
-0.3500688 0.16439264 0.06278871 0.2652117 0.086353295 -0.227124 0.3884245 -0.25428146
0.059842374 0.4599856 -0.037141565 -0.3210727 -0.18135409 0.19093694 0.17498119 -0.059359785
-0.2720299 0.31110838 0.33162257 0.052426398 -0.031141484 -0.103263274 -0.07414526 0.2041423
-0.26578748 -0.23996665 -0.40991136 0.34899274 0.31208935 -0.094964884 0.32191142 -0.21610507
-0.36149427 0.43321127 -0.36880714 0.30175662 -0.3171708 0.11459843 -0.30085638 -0.13379383
0.18907735 -0.012136368 -0.23351328 -0.37755466 -0.2421509 -0.32495502 0.41570193 0.13294776

cls.0.weight f4 [256, 64]
00000000: cb03 b9bd f7ac a13e 2b46 fe3d 4a99 45be
00000010: 78ea a63e 3d4e 9e3e 7a3e fc3d 6ec1 1abe
00000020: 67b6 b2bd 2d96 9bbd c6a4 bb3e 257a f8bb
00000030: 766f d93c e61a 42bd 9981 c3be aa7c 2c3e
00000040: 28ec 323e 07cd 78bd 391b c43d 325b 66bd
00000050: e55c 0fbe e3dc 01be 8ba4 7cbd eb24 763e
00000060: 338a c0bb cdc0 833d dec9 2cbd 2963 0fbd
00000070: c38e cabe ed6d 8d3e 4fac d3bc a937 313d
00000080: 13aa 65be 456c 0fbb f32d ed3d cb7f 48be
00000090: 5d91 75bd 8308 19bd bb67 d2bd c050 ad3e
000000a0: 69aa 793e cd28 62be 5543 2c3e 8987 b2bd
000000b0: 84e7 4abe 0145 813e 802e 46bc 7cc5 0a3e
000000c0: 94a9 563e fde4 b2bd cf25 63be 22a2 0bbd
000000d0: d876 dbbc 87e9 e9bd 627c 733e ddad d2bb
000000e0: a7ee e73c 3431 243e f0c1 9c3c 5841 e23d
000000f0: 61da 25bd ed12 3c3e 5c89 d5bd 38f3 773d
00000100: 472b d5bd cf45 ac3d 71c2 c7bd 82bb c0bc
00000110: 5c55 00be 6ef9 3c3e f2f5 a2bd 2159 533e
00000120: 2b06 b13d a5d3 f63d 4e2c 563d d3fe bd3e
00000130: a511 d5bd cb13 893e e23b 87be 6ffa 4ebe
00000140: b5b8 8d3e 4964 0bbe cf15 8b3e d8d0 683e
00000150: f64e c83d 23b1 233e f188 a13e 44d0 11bd
00000160: 4988 05be a4bc c43d dcb5 d43d 6b2e 7e3e
00000170: 559d 1ebe 1d72 83be 592c 673c 8507 c43e
00000180: e6b4 a03e 4e8f 9a3e 2cc4 1d3b 1d1d 073e
00000190: edc2 d6bd 5e0b a2be 7ae6 3bbe 22eb 25be
000001a0: 78fd 1ebc 0b94 9abd b917 013d a6e2 783e
000001b0: bfba 3fbe dbac a7bd 43bd d4bd 7db8 95be
000001c0: a411 873d bdc1 8dbc 90f9 f6bd 2ca1 9e3e
000001d0: f700 b5bd c5e2 20be f20b 76bd 1a6f 89be
000001e0: 757b 453e ff89 e5bd c0df d63d 5c72 803d
000001f0: 97e8 403d e7a7 173b c0ad babc 6590 d63d
00000200: 3269 debd 78c4 7cbd 0509 b6bd 4b04 b0bd
00000210: 0608 ac3e a7cf 323e 1b50 d93e 6907 653d
00000220: 3a9d 5f3e 12e7 213e 4128 43be d0f0 94bc
00000230: 4335 29be a6cc 2ebd cce9 92be eae8 aa3d
00000240: 4894 c1be 24ac 00be c27f a5bd d02c 2a3d
00000250: b64d 1d3f c44a 6b3e bc95 14be 9114 923d
00000260: 65f7 dfbd ef53 1dbe 56b4 02be 2514 40bd
00000270: be62 bfbe 108a 38be 5b4c 94bd 1ea9 153e
00000280: ac64 c0bd 65d1 b73c 8dbc ee3d e074 8bbe
00000290: d46d 673d df8b 463e ea59 a6be 11df 6b3e
000002a0: 86b6 7e3d 4ba8 a4bd b17e d9bd 6a78 aabc
000002b0: ebb0 e73e ee7b 7dbe 64e1 c93b 2806 32bd
000002c0: e90f 9f3d 8808 e03d 0f58 33be 2996 28be
000002d0: aa09 4abe 2ede 4f3e afd7 f0bd 04ff b4bc
000002e0: 2ec1 0fbe 920f 8a3e d6cd c5be b235 733d
000002f0: b7f8 69be c45a 8bbd 126a 933e 9ad8 88bd
00000300: e092 d8bd 1257 b3bd d529 303e 680e 9ebd
00000310: 71ba 8fbc d028 d43a bfd5 e33c 75d3 7cbd
00000320: 8961 06be ed60 3a3c c81e 923e ac04 1d3e
00000330: b57e 98bd 7086 8e3e b680 a7bd 9b79 d73e
00000340: 1326 ddbb 7d6d 8e3e b6e9 51be 4a15 3c3e
00000350: 12ca 87bd c885 1ebe 9ab9 4fbc 230e 293d
00000360: d5cc 10be d126 fbbc 1cae db3e b6ab 2d3e
00000370: abb8 80be aed4 e63d e438 d7bd 6725 393e
00000380: 71ae c93e 6aa8 d6be b7d5 c93e 2538 eb3a
00000390: 3a8f 78bd b504 613e f60a bbbe 838d 8dbd
000003a0: bc07 0b3d 7073 2bbd 9279 43bd 2b4c 473e
000003b0: 73e5 7fbe 0aa9 44be fbfc 2c3e a6d8 923d
000003c0: 0196 d3bc 3d18 53bb cbfd c23d 5c41 36be
000003d0: e2f2 d1bd 2fe8 8d3d 40ce c73b 2367 403e
000003e0: cbef f03c c5a3 ca3d 3427 bc3c 2cf4 813e
000003f0: 4da5 09be ced9 a1bd e7c9 56bd 9f4b 1abe
-0.090339266 0.31577274 0.12415727 -0.19296756 0.3260076 0.30919066 0.12316604 -0.1511285
-0.08726197 -0.07597003 0.3664915 -0.00758292 0.026542407 -0.047388934 -0.38184813 0.1684443
0.17472899 -0.060742404 0.09575505 -0.056239314 -0.1400028 -0.12681918 -0.061680358 0.2403752
-0.0058758496 0.06433258 -0.042184703 -0.035006676 -0.39562044 0.2762293 -0.025839 0.043265972
-0.2242816 -0.0021884602 0.1158103 -0.19579999 -0.059953082 -0.037361633 -0.10273691 0.3385067
0.24381413 -0.22085877 0.1682256 -0.087172575 -0.19814879 0.25247958 -0.012096047 0.13551897
0.20963126 -0.08735082 -0.22182392 -0.03409017 -0.026790068 -0.11421495 0.23777917 -0.0064294175
0.02831204 0.16034395 0.019135445 0.110476196 -0.040491465 0.18366595 -0.1042659 0.060534686
-0.10408645 0.084117524 -0.09753884 -0.02352691 -0.12532562 0.18454525 -0.079570666 0.20639469
0.086437546 0.12052087 0.052288346 0.37108478 -0.10403756 0.26772913 -0.26412874 -0.2021272
0.27679983 -0.13612475 0.27165076 0.22735918 0.097806856 0.15985541 0.3154979 -0.03559901
-0.1304027 0.09606293 0.103862494 0.24822395 -0.15489705 -0.25673 0.014109694 0.38286987
0.31388015 0.30187458 0.0024073226 0.131947 -0.10486398 -0.31649297 -0.18349639 -0.16202977
-0.009703986 -0.07547768 0.031516764 0.2430521 -0.18723582 -0.081872664 -0.10387661 -0.29242316
0.065951616 -0.017304296 -0.12059319 0.3098234 -0.08838075 -0.15711506 -0.060069986 -0.26842576
0.19285376 -0.11207961 0.10491896 0.06271812 0.047096815 0.002314085 -0.022787929 0.1047676
-0.10859908 -0.061710805 -0.08888439 -0.08594569 0.3359987 0.17462026 0.42443928 0.05591527
0.21837321 0.15810803 -0.19058324 -0.018181235 -0.16524224 -0.042675637 -0.28693998 0.08345206
-0.37808442 -0.12565666 -0.080810085 0.041546643 0.614467 0.2297774 -0.14510244 0.07132829
-0.10935859 -0.1536405 -0.12764105 -0.04689421 -0.37380022 -0.18021417 -0.07241126 0.14615294
-0.09394202 0.022438714 0.11657057 -0.27237606 0.056501225 0.19389294 -0.32490474 0.23034312
0.062185787 -0.08039912 -0.106198676 -0.020809371 0.45252165 -0.24754307 0.006160902 -0.043462902
0.077667065 0.10939127 -0.1751406 -0.16463532 -0.19730249 0.20299599 -0.117598884 -0.022094257
-0.14038536 0.26965004 -0.38633603 0.05937738 -0.22848783 -0.068044215 0.28791863 -0.066819385
-0.10574889 -0.08756842 0.17203458 -0.077175915 -0.017544957 0.001618648 0.027811883 -0.0617251
-0.13123144 0.011375648 0.2853911 0.15333813 -0.074460424 0.27836943 -0.081788465 0.42084965
-0.0067489236 0.27817908 -0.2049931 0.18367496 -0.06630339 -0.15480721 -0.012678528 0.041273247
-0.14140637 -0.030658158 0.42906272 0.16960034 -0.2514089 0.11271034 -0.10508898 0.18080674
0.393909 -0.41925365 0.39420864 0.001794581 -0.060683466 0.21974452 -0.365318 -0.06911757
0.033942923 -0.041858137 -0.04772336 0.1946265 -0.24989872 -0.19205108 0.1689338 0.07170229
-0.025828363 -0.0032210492 0.095210634 -0.1779837 -0.10251404 0.06929051 0.006097585 0.18789344
0.029411217 0.09894518 0.022967912 0.253816 -0.13441963 -0.07902871 -0.052438643 -0.1506791

cls.0.bias f4 [256]
00000000: d10f 033d 4a31 31bd ee6b abbc ccde 173d
00000010: 14b5 073d 8a96 49bd f75c 243d 1808 0d3d
00000020: c627 93bd ad48 5fbd efce 333d b8ce 233d
00000030: 8a80 1a3d caaf 8b3b 4184 533d 11ba 8e3c
00000040: 4321 5dbd 980d 293d 0039 333d 826f 653d
00000050: abed e0bc 5bc1 19bd cd9d 7ebd 95c3 1bbd
00000060: d729 133d 4c6b 28bd ae08 323d 1f9d 1fbd
00000070: d291 29bd e19e 103d 4196 103d bb1a 5a3d
00000080: ebd6 9cbb e96f 32bd 2f2a 8fba 3193 c43c
00000090: 1433 33bc bb79 2fbd cafa 36bd 86dc 2cbd
000000a0: ab26 28bd 614a bdbc 6c4c 273c 0ae4 ce3c
000000b0: 1fe6 223d a8f9 2c3d d65c 213d 041c 3bbd
000000c0: 4060 1cbd 700e 363d 5235 1f3d 4d9f 29bd
000000d0: 1d61 36bd 74e8 2bbd 70ca 30bd b9a4 583d
000000e0: cfec 283d 0b2b 2ebd 43db 78bd 381c 2d3d
000000f0: 1a41 cabc 57da 353d 89bb 593d ab8b 1d3d
00000100: 487e 2d3d b7c1 1537 556a 333d 9fac 34bd
00000110: 518e 38bd 2be0 34bd 1cb8 47bd 926d 32bd
00000120: 42c4 313d 7dc4 d5bc 0092 32bd d89f 273d
00000130: 6e54 1f3d 8eff 503d da74 36bd 104d 25bd
00000140: 5147 2cbd b217 343d bbef 32bd b749 31bd
00000150: c392 13bd 4d76 01bd 6acf 9d3c 160c 45bd
00000160: c3d6 34bd 1a13 3bbd 28f6 e4bc 832a 94bb
00000170: 3a29 43bd 3f9b fa3c a8d4 24bd 9143 4ebd
00000180: c6eb aabc 84c4 14bd e9e1 30bd 8c5c d33c
00000190: a3a9 9fbc a105 10bd 5b47 dabc 272d 323d
000001a0: 8448 313d 9c41 35bd 5ee2 873c ffe9 b03b
000001b0: 216d 3dbd 2d05 323d 22a3 33bd 2be6 46bd
000001c0: fb43 323d 1313 313d a3dc 823c 12dd c3bc
000001d0: 5758 35bd 077c 51bd 875c 66b9 5f82 2dbd
000001e0: cdcd 2abd b72d 1d3d 1143 353d be32 de3c
000001f0: 33ea 47bc 5e2e 1fbd fa0f 33bd d289 3a3d
00000200: 4f6a 31bd fae3 1b3d d01a 30bd 2a8e 2a3d
00000210: 781b 3dbd 1540 2bbd 2653 b83c 55b8 36bd
00000220: 6e2c 2a3d a169 323d 385c 83bd 52d1 2abd
00000230: 84dc 35bd 3d4c 32bd 6285 413d 25dd 32bd
00000240: 95d7 26bc da4e 47bd 78f1 293d ebab 1f3d
00000250: cdfb b63c a683 19bd 274b 58bc add6 34bd
00000260: 1eed 2fbd 941a 073d 2dd6 43bd fa6f 32bd
00000270: eb72 b5bc 753e 323d 91f6 42bd 9c93 4cbd
00000280: d06b 32bd ee90 23bd dc34 2fbd 51f1 863c
00000290: 1d4b 96bc deba 253d 104f 2cbd 26fc 2dbd
000002a0: e2d7 1e3d 95d0 3c3d 3fa9 24bd 198a 1bbd
000002b0: 9cca 5bbc 94e9 0e3d e251 3dbd b1ea 073d
000002c0: fda9 d43c 3b0b 003d 38e7 363d 0b41 493d
000002d0: fb69 313d f96d 333d e6eb 36bd ea64 343d
000002e0: 1b88 d0bc d2f2 283d 8f32 3fbd 0bf6 33bd
000002f0: 820e fe3c b84b fc3b 2c6d 32bd 368d 34bd
00000300: b91e d53c 4a61 a1ba 8acc 283d 8ace 213d
00000310: 44ea 203d f337 353d 7155 f6bc 1404 be3c
00000320: b6f4 223d 706e 32bd 1b07 d03c 1eb1 47bd
00000330: be39 42bd c8dc 223d a0b1 0bbd dfcc 753c
00000340: 57d1 073d 414a 513d b48f 313d 332e 3a3d
00000350: 403f 4b3d c160 39bd c5b0 f7bc c43c 3b3d
00000360: 8b04 293d e565 313d 2e97 46bd 115e 333d
00000370: b825 423d 4a96 313d 3517 9f3c 55d1 31bd
00000380: b0a0 29bd 06bf 523d c001 4ebd 8763 2abd
00000390: 124c 51bd 28f7 32bd 18d8 babc b5fa 313d
000003a0: d0b9 3b3d 41d5 30bd bb18 893c 93ed 34bd
000003b0: c613 2d3d 8696 323d eb3d 3dbd dde3 3cbd
000003c0: 9535 17bd aa31 933c 54ed 2e3d 600e 47bd
000003d0: af5f 323d fce6 1dbd a9b8 37bd baaf 323d
000003e0: 3d42 323d c66f 023d 7311 053d ae0e 343d
000003f0: a249 68bd 7450 80bd c189 213d e028 253d
0.031997506 -0.043259896 -0.020925488 0.03707771 0.033131674 -0.04921583 0.04012772 0.034431547
-0.071853206 -0.05451267 0.04389852 0.039992064 0.03772024 0.004262899 0.0516398 0.017422708
-0.0539868 0.04127273 0.04375553 0.056014545 -0.027457079 -0.037537914 -0.06216221 -0.03802832
0.035928573 -0.04111795 0.04346531 -0.0389682 -0.04139883 0.03530777 0.035299543 0.05324815
-0.0047863624 -0.043563757 -0.0010922606 0.023995968 -0.010937471 -0.0428407 -0.044672765 -0.042202495
-0.0410525 -0.023106756 0.0102110915 0.025255222 0.03977024 0.04223028 0.039395176 -0.045681015
-0.03817773 0.044447362 0.03886921 -0.041411687 -0.04452621 -0.04196973 -0.04316181 0.052891467
0.041241463 -0.042521518 -0.06075598 0.04226324 -0.024689246 0.04439768 0.053157363 0.038463276
0.04235676 8.926195e-06 0.043802578 -0.044109937 -0.0450576 -0.044159096 -0.048759565 -0.043561526
0.043400057 -0.02609467 -0.043596268 0.040923923 0.038898878 0.051024966 -0.044545032 -0.040356696
-0.0420602 0.04396791 -0.043685656 -0.04328319 -0.036028635 -0.03160696 0.019263942 -0.04810723
-0.044150125 -0.045672514 -0.027949408 -0.0045216694 -0.04764674 0.030591605 -0.040241867 -0.050357405
-0.020864379 -0.036320224 -0.043184195 0.025800966 -0.019490069 -0.03516162 -0.026645353 0.043500092
0.043282047 -0.044252023 0.016587432 0.0053989883 -0.04624665 0.043461967 -0.043856747 -0.04855935
0.043521862 0.04323108 0.015974348 -0.023909125 -0.0442737 -0.051143672 -0.00021968978 -0.04236066
-0.041700173 0.038373675 0.044253413 0.027123805 -0.012201834 -0.03886258 -0.04371641 0.045541592
-0.043314274 0.038059212 -0.04299432 0.041639484 -0.046168774 -0.04180916 0.022500586 -0.044609386
0.041546278 0.043557767 -0.06414074 -0.04170353 -0.044399753 -0.043529738 0.047246344 -0.04366793
-0.010183235 -0.048659183 0.04149005 0.038982313 0.022336865 -0.037479065 -0.013201511 -0.044150043
-0.042950742 0.03298433 -0.047811676 -0.04356382 -0.022149524 0.043516595 -0.047598425 -0.04994546
-0.04355985 -0.039933138 -0.04277502 0.01647249 -0.018346364 0.040461414 -0.042067587 -0.042476796
0.0387801 0.046097357 -0.04020047 -0.037973497 -0.013415005 0.034890726 -0.046220668 0.033182804
0.025959963 0.03126071 0.0446541 0.049134295 0.04331396 0.04380605 -0.044658564 0.04404155
-0.025455525 0.041247196 -0.046679076 -0.043935817 0.031012777 0.007699456 -0.043561146 -0.04407998
0.026015626 -0.001231232 0.04121069 0.03950361 0.039285913 0.04424281 -0.030070039 0.023195304
0.039784156 -0.043562353 0.025394013 -0.048752896 -0.04741835 0.039761335 -0.034104943 0.015002458
0.033158626 0.051096205 0.043349937 0.045454215 0.049620867 -0.045258287 -0.030235657 0.045712247
0.0412641 0.043310065 -0.04848402 0.04379088 0.047399253 0.043356217 0.019420246 -0.043412525
-0.04141301 0.051451705 -0.050294638 -0.041598823 -0.051097937 -0.043692738 -0.02280812 0.043451983
0.0458315 -0.043172125 0.016735425 -0.04417188 0.042255186 0.04360058 -0.046201628 -0.046115745
-0.036916334 0.017968018 0.042706802 -0.048597693 0.043548282 -0.038550362 -0.04485384 0.043624617
0.0435202 0.031844877 0.032487344 0.043959312 -0.056710847 -0.06265345 0.039438013 0.040322185

cls.2.weight f4 [256]
00000000: d34c 763f a8e7 7f3f dcf1 713f 0acc 773f
00000010: 56c8 753f 2e96 713f 9e62 7d3f ea50 7c3f
00000020: 5918 7a3f bb11 703f 366c 803f 7a29 813f
00000030: 233a 723f 18d3 753f c3cd 7f3f d32c 773f
00000040: 6b4b 783f d666 7b3f 09e6 7f3f 4d03 7a3f
00000050: bcd3 7a3f 934f 813f 5350 803f 8bdf 733f
00000060: ddbf 7f3f 0a96 7b3f be6d 823f 84c7 7d3f
00000070: df64 7d3f 5244 7e3f 9a72 7d3f 0b5a 7a3f
00000080: 1458 6e3f 25ca 643f 8c2b 713f 3bf1 713f
00000090: b814 733f 3803 7b3f 6d2a 7c3f 5eb8 803f
000000a0: d99b 7b3f 1a61 713f 70ec 743f c5da 753f
000000b0: ce9c 813f 10c0 7b3f 4817 7c3f 63bc 7a3f
000000c0: 24e4 7c3f e6c8 813f 02a5 813f 6a1d 7b3f
000000d0: 9abb 793f c9e1 7c3f cbc7 773f afcb 813f
000000e0: af77 7a3f b441 773f 23ec 6d3f 83aa 773f
000000f0: 812d 793f 8cc8 783f 9f43 813f b6a6 7f3f
00000100: f9cf 813f 60ce 793f def3 7a3f bacb 6c3f
00000110: 56d4 753f 41de 7d3f c94b 7a3f fd2c 643f
00000120: 0462 803f c1f9 7c3f 10fd 7e3f 1a7b 7b3f
00000130: 369e 7f3f 89b9 7d3f 3b15 723f 567d 743f
00000140: 5317 7e3f 3443 803f 1712 803f 5505 733f
00000150: 12e3 7d3f ba03 713f 7399 7e3f 8d2e 823f
00000160: 4d1f 7c3f 3dca 773f 1b2c 7c3f 2aaf 773f
00000170: c90c 713f f882 6d3f a818 7b3f 9201 783f
00000180: c6ff 7f3f 6412 7f3f c97e 773f 3fc2 793f
00000190: ac5a 7e3f b72b 763f 92f8 6d3f 1e3e 6e3f
000001a0: d81c 733f 243b 743f e1ab 793f f506 743f
000001b0: fb35 7b3f 5bee 633f 404b 783f ae9b 7f3f
000001c0: 3dbc 7c3f e737 833f 9f6f 793f 987c 6f3f
000001d0: 2f0a 7e3f 57ed 783f ccf0 753f a7c2 713f
000001e0: 1ece 783f 6e4a 713f c703 7f3f 7e31 7c3f
000001f0: e557 7e3f 1599 773f abce 6f3f 1f82 803f
00000200: 363e 6d3f fdc5 703f 93ba 803f db1f 7d3f
00000210: 3386 6f3f 02d6 7e3f 48c7 803f 2c50 793f
00000220: fd8b 833f 8de5 7e3f bab8 713f 8103 7c3f
00000230: 65ec 6a3f 6ab0 733f 97d6 783f cbb1 773f
00000240: 6c8f 743f f4e9 793f a06e 713f 7179 713f
00000250: 81c4 723f 4e02 773f aab4 703f 4fa1 7a3f
00000260: 0dd9 7b3f 7012 763f 412c 763f 6dd1 643f
00000270: 1dfc 7c3f 9f8e 783f 81d1 703f 2d0b 7a3f
00000280: 7f03 643f 1e4b 7f3f a0d0 7c3f 3d5a 783f
00000290: a44e 763f e6d3 803f 4292 753f 9617 803f
000002a0: 60f4 763f 1991 7c3f 9763 793f 55e4 783f
000002b0: fdc0 7c3f 725f 743f 6239 763f 250a 7a3f
000002c0: 6cd3 803f 15b2 7d3f a191 7d3f 086e 7a3f
000002d0: 01f0 813f 1da7 803f 07a4 803f 7a2c 803f
000002e0: 6870 7d3f 4efb 753f 16fd 6e3f 9fb2 783f
000002f0: 4900 773f 6011 783f 1473 673f 7ef1 783f
00000300: 1af1 7b3f 1ed8 793f 9dfc 813f cf92 803f
00000310: ea98 783f 7b84 7c3f a1eb 793f 7532 7f3f
00000320: 6cc8 6f3f 4b5a 7f3f a4d4 7b3f f9c2 713f
00000330: ce63 6c3f 69ab 793f 81a1 7d3f d4be 713f
00000340: fab2 773f b56d 753f 5e65 793f 0ba8 7a3f
00000350: 629a 7e3f c78a 7c3f 7d10 7f3f c721 7c3f
00000360: a341 813f 99bb 7d3f c792 653f ab9f 803f
00000370: 2da6 7f3f f10e 803f 9535 813f edae 7f3f
00000380: 5d97 793f 1626 7c3f 7a1c 713f 36c0 7e3f
00000390: 1a73 703f 2bef 7d3f 9e3e 7d3f 41f5 7e3f
000003a0: d679 7a3f af29 763f e03a 703f 3651 793f
000003b0: 9e0c 683f 3e79 7c3f bf72 783f 388e 7b3f
000003c0: 7f10 7f3f 970c 7c3f 6d05 803f 894d 7a3f
000003d0: 42e1 7d3f 3783 7d3f 86a5 743f 459f 743f
000003e0: ad7a 803f cda6 7e3f d666 823f 7515 803f
000003f0: fb43 7c3f 6baa 763f 560e 733f 1a95 7a3f
0.96210974 0.99962854 0.94509673 0.96795714 0.96008813 0.9436978 0.989786 0.98560965
0.976934 0.93777055 1.0033023 1.0090783 0.9461996 0.9602523 0.9992334 0.9655277
0.9699008 0.9820379 0.9996038 0.97661287 0.9797933 1.0102409 1.0024513 0.95262975
0.99902135 0.98275816 1.0189741 0.9913256 0.9898204 0.99323 0.99002993 0.97793645
0.93103147 0.8937095 0.9420707 0.94508713 0.9495349 0.98051786 0.98502237 1.0056264
0.9828468 0.9428879 0.95673275 0.9603694 1.0125978 0.9833994 0.98473024 0.97943705
0.98785615 1.0139434 1.0128481 0.9809176 0.9755188 0.9878202 0.96789235 1.0140284
0.9783887 0.9658463 0.9293844 0.96744555 0.9733506 0.9718101 1.0098761 0.99863756
1.0141593 0.9758053 0.9802836 0.9249836 0.96027124 0.9916726 0.9777189 0.89131147
1.0029912 0.98818594 0.9960489 0.98234713 0.99850786 0.9911123 0.94563645 0.9550375
0.9925434 1.0020509 1.000552 0.9493001 0.99174607 0.9414631 0.99452895 1.0170456
0.9848526 0.96792966 0.985048 0.96751654 0.94160134 0.9277797 0.980845 0.96877396
0.99999654 0.99637437 0.96677834 0.9756202 0.99357104 0.96160454 0.92957413 0.93063533
0.9496589 0.9540274 0.9752789 0.95323116 0.9812924 0.89035577 0.9698982 0.99846923
0.9872473 1.0251435 0.97435945 0.9354949 0.9923429 0.9723715 0.9607055 0.9443764
0.9718951 0.94254196 0.9961514 0.9851302 0.99352866 0.9671796 0.93674725 1.003971
0.9267305 0.94052106 1.0056938 0.9887673 0.93564147 0.995453 1.0060816 0.9738796
1.0277096 0.99569017 0.94422495 0.98442847 0.9176696 0.9519106 0.9720244 0.96755666
0.95531344 0.9762261 0.94309425 0.9432593 0.9483109 0.9648789 0.9402567 0.9790239
0.9837807 0.96121883 0.96161276 0.8938206 0.98822194 0.9709262 0.9406968 0.976733
0.89067835 0.99723995 0.98755836 0.9701269 0.96213746 1.0064666 0.95926297 1.0007198
0.96466637 0.986589 0.9741759 0.9722341 0.98731977 0.9545814 0.9618131 0.9767173
1.0064521 0.99099857 0.9905034 0.97824144 1.0151368 1.0050999 1.0050057 1.0013573
0.98999643 0.96086586 0.9335493 0.97147554 0.9648481 0.9690151 0.9040997 0.9724349
0.98414767 0.97595394 1.0155216 1.0044802 0.9710833 0.9863965 0.97625166 0.99686366
0.93665195 0.9974715 0.9837134 0.9443813 0.9233979 0.97527176 0.9907456 0.94431806
0.9675747 0.95870525 0.974203 0.97912663 0.9945432 0.9864926 0.99634534 0.9848904
1.0098156 0.99114376 0.8967709 1.0048727 0.9986294 1.000456 1.0094477 0.9987629
0.9749659 0.98495615 0.94184077 0.9951204 0.9392563 0.99193066 0.9892367 0.9959298
0.97842157 0.96157354 0.93839836 0.97389543 0.9064425 0.986225 0.9705009 0.98263884
0.99634546 0.9845671 1.0001656 0.9777456 0.9917184 0.9902834 0.9556507 0.95555526
1.0037438 0.9947327 1.0187633 1.0006548 0.9854123 0.9635379 0.9494375 0.9788376

cls.2.bias f4 [256]
00000000: 266f 97bc 2ea8 223c b01f ccbc 8ebc 68bc
00000010: 8c6b 8fbc 3e26 8d3c 24d6 19bc e556 10bc
00000020: dff5 10bc fc61 8dbd 4f28 0c3c 5692 adbb
00000030: cce3 65bc 3f41 07bd 70e5 00bc 81c9 96bc
00000040: d5fc f53c a33b b8bc 1be5 253c 0e23 2a3c
00000050: 6852 3bbc ae0c e73b b9f0 f13b 5057 9cbc
00000060: f5cd 953b ac39 37bc 1000 be3b d211 3c3c
00000070: dc4a 3d3c 03c1 5cbc 715c 10bc d033 33bc
00000080: 0014 3dbd 2e59 b93c 93f0 ad3c 1085 1bbd
00000090: 3577 733c 4bf5 523c e76f 233c 73ff 133c
000000a0: ce91 173c 2ea4 21bd f481 a8bc 0f9b a0bc
000000b0: 9ced 00bc dbe9 813c b695 9fbc b7df 3fbc
000000c0: 9765 ea3b 5894 28bc e695 fb3b bc2a 35bc
000000d0: da8e 3dbc 36cf 18bc 788d ac3c 03b0 cf3a
000000e0: aabb 34bc 68f6 b93c e236 16bd 8f57 043b
000000f0: fec8 273c eafd 54bc 5017 9c3b 8436 993a
00000100: 8582 28bc 7afe 1a3c 973c a0bc 90cb 973c
00000110: 4f28 6c3c 8657 0fbc 1113 36bc e4e7 213c
00000120: 2589 163c 16b4 cd3b 7278 353c 2b77 24bc
00000130: d419 0d3c afb7 203c 35eb 6ebd 3ddb 8f3c
00000140: a1d5 2e3c a442 ec3b 2e3b 223c 3ca7 4fbd
00000150: 7dc0 9d3b ef8a bcbc c788 023c 71e1 cd3b
00000160: 1156 1fbc abbe 6fbc a5f2 6fbc 01af bbbc
00000170: 0a74 27bd ed9e 97bc af3e 903c 7beb 64bc
00000180: 6ca9 333c 9cca 003c 6c10 543c 3b5e 023c
00000190: 3d52 503c e32e 963c b7fc 993c cbd4 2b3c
000001a0: 7e24 90bc 45bf adbc a9a3 70bc bddd b3bc
000001b0: 864d 403c 5cdf 9938 6b20 3bbc c93a 2b3c
000001c0: e563 123c b50d 0dbb dfdf feb9 8f41 33bd
000001d0: 6c7b 4f3c bd33 38bc ec7b 283d 0dd1 6e3d
000001e0: eef8 73bc a634 d0bc 00f4 1b3c 0eb3 9abc
000001f0: 8311 d33b 9eae 923c 4f5f 1c3d cb98 3dbc
00000200: 0e6c e5bc fffb 40bc a87d 1c3c 2448 debb
00000210: 3d5c 643d 0c81 2b3c b63b 00bc d6d7 403c
00000220: dfbc 9ebb 637c 1b3c 4d63 bb3c 9a38 09bc
00000230: 7826 2c3c 70df 29bd bf5d 52bc 7657 6e3c
00000240: 87a6 e0bb dc2d 2cbc cfd7 e73b becd 04bd
00000250: 7511 cebc d7f4 543c ac0e 6abd f449 1fbc
00000260: 9a9c 0c3c dc3d 0a3d 9f1c 87bc 2edb c03b
00000270: be25 f83b e3b2 98bc 7b76 99bc a8d9 2ebc
00000280: d105 1bbc 8f93 12bc 8e9b 313c 51dd f9bc
00000290: 4653 4dbc 52e1 79bb 7c19 17bd 1fdc 203c
000002a0: 9595 85bd be1c 77bc 3c7e 2fbc 2669 a23b
000002b0: 0273 483b 1869 4bbc 259a 923d ab7b 523c
000002c0: 83d4 24bc 4227 c83b 6c91 253c efef 91bc
000002d0: b22a b3bb bd27 003c 4d7b e9bb bfd7 103c
000002e0: 2e97 063c b5da 50bc f718 823c e2fd 35bc
000002f0: f5e6 6dbc ddb7 10bd 1352 a43c 1c11 59bc
00000300: f4fd 393c d35c 1cbc 2774 b5ba e2be fdbb
00000310: a417 63bc 485e 4e3c 6073 5ebc db00 e73b
00000320: 1eaf 0dbd 8ee1 263c a87a e73b 943e d0bc
00000330: 2cfa 123d b00e ccbb dd8e 393c 4ece d43c
00000340: 63bf 4d3d 4099 3c3c 82a0 96bc 0d3f 44bc
00000350: d696 3d3c b6a4 4c3c a6dd 4d3c 9f1a 0c3c
00000360: dcb2 883b e0ce 95bc 2867 253d 0c68 dd3b
00000370: 7877 153c a922 e4bb e231 0e3c f2c0 2a3c
00000380: c732 42bc fb7b 423c d22a 86bd c62d 2a3c
00000390: 6e6e 6fbd c52c 463c fac7 f93b d069 1f3c
000003a0: c86a 3fbc a97b b63c b711 89bc f703 34bc
000003b0: f696 8c3c 8b92 20bc 07c1 50bc 0379 2cbc
000003c0: b905 183c de30 953b 37f6 193c 3dc3 353c
000003d0: afcd 033c f108 1e3c 7b0c 4abc ce77 82bd
000003e0: 28c6 1b3c db36 eb3b 261b e53b a1ad 0f3c
000003f0: 0eee 37bc 2e37 9b3c a496 b7bc 5338 2c3c
-0.018485617 0.0099277925 -0.024917454 -0.014205111 -0.017507337 0.01723015 -0.009389434 -0.00880978
-0.008847683 -0.06903455 0.008554532 -0.0052969856 -0.014031362 -0.033021208 -0.007867202 -0.018406631
0.030027786 -0.022489375 0.010125424 0.010384334 -0.011433221 0.007051072 0.0073834327 -0.019084603
0.004571671 -0.011183184 0.0057983473 0.011478858 0.011553492 -0.013473752 -0.008811102 -0.010937646
-0.04616165 0.022625532 0.021232879 -0.037968695 0.014859964 0.012875865 0.00997541 0.009033072
0.009251071 -0.039463215 -0.020569779 -0.019605188 -0.0078691505 0.015858581 -0.019480567 -0.011711053
0.0071532237 -0.010289274 0.0076777814 -0.011057552 -0.011569703 -0.009326747 0.021063551 0.0015845302
-0.011031071 0.022700503 -0.036673434 0.002019379 0.010240791 -0.012999991 0.0047635213 0.001168922
-0.0102850245 0.009460086 -0.019560141 0.018529683 0.014413907 -0.008748895 -0.011112944 0.009881947
0.009187971 0.0062775714 0.01107608 -0.0100381775 0.008612115 0.009809419 -0.05832978 0.017560596
0.01067105 0.0072100926 0.009901805 -0.050696597 0.004814206 -0.023015467 0.007967181 0.006282978
-0.00972511 -0.014632861 -0.014645253 -0.022910597 -0.040882148 -0.018508399 0.017608015 -0.013972159
0.010965686 0.007860806 0.012943368 0.007957037 0.01271492 0.018332904 0.018797262 0.0104877455
-0.017595526 -0.021209368 -0.014687457 -0.021956319 0.011737233 7.3372124e-05 -0.011421303 0.010451027
0.0089349495 -0.0021523063 -0.00048613452 -0.043763693 0.012663703 -0.011242804 0.041133806 0.058304835
-0.014890892 -0.02541573 0.009518623 -0.018884208 0.0064412965 0.01790553 0.03817683 -0.011572073
-0.028005626 -0.011778831 0.009551443 -0.006783502 0.055752028 0.010467779 -0.007826736 0.011770209
-0.0048442925 0.009490105 0.022874499 -0.008375311 0.010507219 -0.041472852 -0.012839734 0.0145472195
-0.006855789 -0.010508981 0.007075287 -0.032422774 -0.025154809 0.0129978275 -0.0571429 -0.009722222
0.008582259 0.0337504 -0.01649314 0.0058855033 0.0075728586 -0.018639987 -0.018733254 -0.0106720105
-0.009461836 -0.0089463135 0.01084031 -0.03050104 -0.012532061 -0.0038128686 -0.03688954 0.009818106
-0.06522671 -0.015082536 -0.010711249 0.0049563823 0.0030586128 -0.012415193 0.07158307 0.012846868
-0.010060432 0.0061081955 0.010105472 -0.017814605 -0.005467736 0.007821974 -0.0071252943 0.0088405
0.008214755 -0.012747456 0.015881045 -0.011107894 -0.0145203965 -0.035331596 0.020058667 -0.013248708
0.011352051 -0.009543615 -0.001384382 -0.0077437023 -0.013860617 0.012595721 -0.013577312 0.0070496625
-0.034590833 0.010185612 0.0070641823 -0.025420465 0.035883114 -0.006227337 0.011325565 0.02597728
0.05023135 0.011511147 -0.018387083 -0.011977923 0.011571607 0.012490442 0.012565052 0.008551269
0.0041717123 -0.018287122 0.04038158 0.006756788 0.009122722 -0.0069621396 0.008678885 0.010421978
-0.011852927 0.01187038 -0.06551136 0.01038689 -0.058454923 0.012095635 0.007622716 0.0097298175
-0.0116831735 0.022275763 -0.01673208 -0.010987273 0.017161828 -0.009800564 -0.012741334 -0.010526898
0.009278708 0.0045529446 0.009397081 0.011093912 0.008044644 0.0096456865 -0.012332077 -0.06370507
0.009507693 0.00717817 0.0069917617 0.008769424 -0.01122619 0.01894721 -0.022410698 0.010511476
