医学影像/EV_GCN/save_models/ev_gcn/fold4.pth (torch, 543861 bytes, 20 tensors)

gconv.0.weight f4 [3, 2000, 16]
0	0xbc21c456	-0.00987347
1	0xbd61295f	-0.054971095
2	0xbce020b9	-0.027359353
3	0x3d4ac835	0.04950734
4	0xbdc92e11	-0.098232396
5	0x3dfc6db6	0.12325613
6	0xbd75fec0	-0.0600574
7	0xbd7bc5a7	-0.061467793
8	0xbc8365c4	-0.016039737
9	0xbddf04f4	-0.108896166
10	0x3d1493e8	0.036273867
11	0xbd4ea446	-0.050449632
12	0xbd2671d3	-0.040635895
13	0x3cb3b522	0.021936957
14	0x3cd563c7	0.026048554
15	0xbd8fe0af	-0.07025277
16	0x3d5e0d98	0.054212183
17	0xbcc11ef9	-0.02357434
18	0xbcc9bc1d	-0.024625832
19	0x3c93cf45	0.01804317
20	0xbda68a7b	-0.08131882
21	0x3dc79c24	0.09746578
22	0xbd6bda7a	-0.057581402
23	0x3d8d4bec	0.068992466
24	0xbd41f585	-0.047353286
25	0x3bfefd40	0.0077816546
26	0x3dc6d6c5	0.09708933
27	0xbce439ff	-0.027859686
28	0xbdb365a0	-0.08759618
29	0xbd7de8d9	-0.06198964
30	0xbdc4f5c8	-0.096171916
31	0x3e0e1240	0.1387415
32	0x3c4fdfca	0.012687633
33	0xbc2cc2de	-0.010544507
34	0xbdaf7232	-0.08566703
35	0x3dcf7bde	0.10131048
36	0xbcd8bfb1	-0.026458593
37	0x3d8bb25a	0.06821127
38	0xbd2265bc	-0.039647803
39	0x3d1ac1d8	0.03778252
40	0xbdae2654	-0.08503404
41	0xbd77e938	-0.06052515
42	0x3c8969f1	0.01677415
43	0xbc9bf0af	-0.019035665
44	0xbda9d14a	-0.08291872
45	0xbcccec82	-0.02501512
46	0xbdea5937	-0.11442798
47	0x3e41bf88	0.1892072
48	0x3d4c4ef5	0.049879987
49	0xbd456113	-0.04818828
50	0x3c7f11f2	0.015568243
51	0x3da317bd	0.07963512
52	0xbdc3b237	-0.09555476
53	0x3e13c8da	0.14432088
54	0xbd88b891	-0.06675828
55	0x3c04dbbd	0.00810903
56	0xbda47d70	-0.08031738
57	0xbbc4fab5	-0.006011332
58	0xba84332d	-0.0010086052
59	0xbd99438c	-0.07483587
60	0xbcd33502	-0.025782112
61	0x3d349a11	0.04409224
62	0x3d797a29	0.060907517
63	0xbdcd57ba	-0.10026498
64	0xbced8f35	-0.02899895
65	0xbdae07ef	-0.08497607
66	0xbca166a2	-0.01970226
67	0x3da1392b	0.07872232
68	0xbd228957	-0.03968176
69	0x3d29881e	0.041389577
70	0xbc20f568	-0.009824134
71	0x3d39803d	0.045288313
72	0xbda0b4d3	-0.078469895
73	0xbdbf9dbf	-0.093562596
74	0x3bad4546	0.005287799
75	0xbdaed828	-0.08537322
76	0xbcf3f310	-0.029778987
77	0x3d599a46	0.053125642
78	0x3b02eb56	0.0019976697
79	0x3d1bd395	0.038043577
80	0xbc3bed27	-0.011470116
81	0xbdbdcfae	-0.092681274
82	0xbd8a7aad	-0.0676168
83	0x3d559d0b	0.05215172
84	0xbdcd86a7	-0.100354485
85	0x3d9fa2bd	0.07794712
86	0xbd34363c	-0.043997034
87	0x3e04ce5d	0.12969346
88	0xbd3f18b2	-0.04665441
89	0xbd9be473	-0.076119326
90	0x3d1ca66c	0.03824465
91	0xbd20d9cd	-0.03927021
92	0xbc8cb74f	-0.017177252
93	0xbe411428	-0.18855345
94	0xbe78c04b	-0.24292104
95	0x3ebe1242	0.37123305
96	0x3d7b9719	0.061423395
97	0xbd9280d2	-0.07153477
98	0xbcc6f63a	-0.024287332
99	0xbcfed6d9	-0.031108307
100	0xbdcfc9a7	-0.10145884
101	0x3e00ad1c	0.12566036
102	0xbbcbd2e7	-0.00622021
103	0x3d185c29	0.037197266
104	0xbd0a5c16	-0.033779226
105	0xbd5c588d	-0.053795386
106	0x3b928606	0.0044715432
107	0xbc564040	-0.013076842
108	0xbbba567f	-0.0056865807
109	0xbd8dc33e	-0.06922005
110	0x3d521ab9	0.051295016
111	0xbc78f729	-0.015195646
112	0xbce52788	-0.027972952
113	0xbde113a7	-0.109900765
114	0xbcc8bf58	-0.024505302
115	0xbc843a17	-0.01614098
116	0xbda15e84	-0.078793555
117	0x3df147ab	0.11781248
118	0xbcaf4361	-0.021394433
119	0xbcd709ed	-0.02624985
120	0xbd8b5a2f	-0.068043105
121	0x3da0195e	0.078173384
122	0x3d061b5d	0.03274094
123	0xbd148d98	-0.036267847
124	0xbd894b4a	-0.067038134
125	0x3a2be92c	0.00065578776
126	0x3d5f4367	0.05450764
127	0xbdb485d2	-0.08814587
128	0xbc9968b5	-0.018726686
129	0xbda86081	-0.08221532
130	0xbca08203	-0.019593244
131	0x3da463aa	0.08026822
132	0xbd92bd58	-0.07165021
133	0x3e252927	0.1612898
134	0xbd3efdc4	-0.04662873
135	0x3ddc3049	0.10751397
136	0xbd358f43	-0.04432608
137	0xbd725cb0	-0.059170425
138	0x3d908a3d	0.07057617
139	0xbc7dd855	-0.015493472
140	0xbdc4cbeb	-0.09609207
141	0xbdbb7d04	-0.09154704
142	0xbdefd4e2	-0.11710526
143	0x3e26a19e	0.1627259
144	0x3d4cb372	0.04997582
145	0xbd55de73	-0.052214097
146	0xbbda00b9	-0.006652918
147	0x3dc567e6	0.09638958
148	0xbd5d19f0	-0.053979814
149	0xbc320b9c	-0.010867026
150	0xbd8457ba	-0.06462045
151	0x3df8f0b4	0.121552855
152	0xbdda9015	-0.10672013
153	0x3e20bd10	0.15697122
154	0x3d925b83	0.07146361
155	0xbd8a5656	-0.067547485
156	0xbd44a014	-0.048004225
157	0x3d13364b	0.03594045
158	0xbc992511	-0.018694432
159	0x3ead1261	0.33803084
160	0x3d1824eb	0.037144583
161	0xbdaf8278	-0.08569807
162	0xbda54aab	-0.080708824
163	0x3dbc79e0	0.09202933
164	0xbcefa3a0	-0.029252827
165	0x3d931522	0.07181765
166	0xbdc61f3c	-0.09673926
167	0x3d8ab3a0	0.06772542
168	0xbcd63c67	-0.026151849
169	0x3db2bc50	0.08727324
170	0x3dd2245f	0.102608435
171	0xbd5ff130	-0.054673374
172	0xbd0eaca9	-0.03483263
173	0xbcc813b9	-0.024423467
174	0xbe03a4d8	-0.12855852
175	0x3e545e9f	0.2073922
176	0x3d1e8d6f	0.0387091
177	0xbda73d8d	-0.08166037
178	0xbdfba602	-0.12287523
179	0x3c88a2cc	0.01667919
180	0xbdaba7da	-0.083816245
181	0xbe232b29	-0.15934433
182	0xbce54bcd	-0.027990246
183	0x3dfcb385	0.12338928
184	0xbbc3fd7a	-0.0059811445
185	0x3da5c3dc	0.08093998
186	0x3db14578	0.08655828
187	0xbbdd494a	-0.0067531215
188	0xbce8379c	-0.02834683
189	0xbdeadb32	-0.114675894
190	0xbe7da95b	-0.24771635
191	0x3ed06a9f	0.40706345
192	0x3d06ab1c	0.032878026
193	0xbdbfbabc	-0.09361789
194	0xbdfecffe	-0.12442015
195	0x3cefc831	0.029270263
196	0xbd912c0d	-0.0708848
197	0x3d90bcc2	0.07067253
198	0xbd6b0ab9	-0.057383273
199	0x3d84dd2d	0.064874984
200	0xbd931c6a	-0.07183154
201	0x3b6a6d10	0.0035770573
202	0x3d8430a2	0.064545885
203	0xbcb1b2f6	-0.02169178
204	0xbcd4b9c4	-0.025967486
205	0xbdb41466	-0.08792953
206	0xbe1a24d4	-0.15053111
207	0x3e568497	0.20949017
208	0x3d509807	0.050926235
209	0xbd7bc1f5	-0.06146427
210	0xbd1f0504	-0.038823143
211	0x3d3bde37	0.045866217
212	0xbd23dd6d	-0.04000609
213	0x3d317e5f	0.043333407
214	0xbd56a4bf	-0.052403208
215	0x3db9a9d6	0.09065597
216	0xbdc4c4e7	-0.09607869
217	0xbd4f8c49	-0.050670896
218	0x3d4ff00f	0.050766047
219	0xbd447bd8	-0.04796967
220	0xbd85dc7c	-0.06536195
221	0xbdd68709	-0.10474975
222	0xbd96e5b8	-0.07368034
223	0x3e15784e	0.14596674
224	0x3c9e7585	0.019343147
225	0xbdc8b167	-0.09799462
226	0xbdbd640a	-0.092475966
227	0x3d2f9504	0.04286672
228	0xbc181a72	-0.009283649
229	0x3d27f9d0	0.041009724
230	0xbd93a2f1	-0.07208813
231	0x3d37d56a	0.044881262
232	0xbdce2a81	-0.10066701
233	0x3d4282a1	0.04748786
234	0x3cc115cd	0.023569966
235	0xbd963941	-0.07335139
236	0xbd8e4d75	-0.069483675
237	0xbde3a596	-0.111155674
238	0xbe2566a1	-0.16152431
239	0x3e81c291	0.25343755
240	0xbc124f57	-0.008930049
241	0xbd8ffd02	-0.07030679
242	0xbd99faaf	-0.07518517
243	0x3d4c958d	0.04994731
244	0xbcdabf64	-0.02670259
245	0x3d47ce52	0.048780747
246	0xbdaa76a2	-0.08323409
247	0x3d1ccd0c	0.038281485
248	0xbdc6431e	-0.0968077
249	0x3cc4b41d	0.024011666
250	0x3d8df546	0.06931548
251	0xbdd85f64	-0.10565069
252	0xbd858238	-0.06518978
253	0xbcef9e13	-0.02925018
254	0xbdd372f9	-0.10324664
255	0x3e1d70c8	0.15375054

gconv.1.weight f4 [3, 16, 16]
0	0x3e916727	0.28399011
1	0xbf009293	-0.50223655
2	0x3c9af97a	0.018917788
3	0xbea1b52a	-0.3158353
4	0xbdcd88f4	-0.10035887
5	0x3e89ac2f	0.26889178
6	0x3ddacdef	0.1068381
7	0x3e2e2689	0.17006887
8	0xbde146ef	-0.10999858
9	0xbe3fe111	-0.187382
10	0xbe9f3d72	-0.31101567
11	0x3c4c7419	0.012478852
12	0x3e0254de	0.12727687
13	0x3e562779	0.20913495
14	0xbe9827ac	-0.29717767
15	0x3e47e125	0.1951948
16	0xbe979180	-0.29603195
17	0xbde08302	-0.10962488
18	0xbddfb976	-0.10924046
19	0xbda374b9	-0.079812475
20	0xbe1c954f	-0.15291332
21	0xbcbc8c8d	-0.023016239
22	0xbe4c4553	-0.1994832
23	0xbe96d0c8	-0.29456162
24	0xbe849dd5	-0.25901666
25	0x3e3f4b1b	0.18680994
26	0xbcec1262	-0.02881736
27	0x3e767ac4	0.24070269
28	0xbe860ce7	-0.2618172
29	0x3e87f57f	0.26554486
30	0x3eb117cf	0.34588477
31	0xbe7eec22	-0.24894765
32	0x3eac89bb	0.3369883
33	0xbe5d9ffa	-0.21643057
34	0xbef9c316	-0.4878165
35	0x3e9b91cf	0.3038468
36	0x3e95dc1b	0.2926949
37	0xbeabdd37	-0.3356721
38	0x3cf801e6	0.030274343
39	0xbd8c351a	-0.06846066
40	0x3f2485b3	0.6426651
41	0xbdee2423	-0.11627986
42	0xbef935e9	-0.48673943
43	0x3db417d1	0.08793605
44	0xbdacbcef	-0.08434474
45	0xbe4ba84e	-0.19888422
46	0xbe3d1e95	-0.18468697
47	0x3e497723	0.19674353
48	0xbed21866	-0.4103424
49	0xbe1eab2f	-0.15494989
50	0xbd21930e	-0.039446883
51	0x3e8e1af9	0.27754954
52	0xbec2cee4	-0.3804847
53	0x3e13f3f9	0.14448537
54	0x3dbe626b	0.092961155
55	0x3df71f8e	0.120665655
56	0xbe381f32	-0.1798065
57	0x3e1562a8	0.14588416
58	0xbcbc62b1	-0.022996278
59	0x3e668980	0.2251339
60	0x3e25d710	0.16195321
61	0x3d90d025	0.070709504
62	0xbd5a7109	-0.053330455
63	0x3c46c507	0.012131936
64	0xbea22fb1	-0.3167701
65	0xbea2bd7d	-0.31785193
66	0xbbaf5255	-0.005350391
67	0x3c09b96d	0.008406025
68	0xbe1e4c0d	-0.15458699
69	0xbe98d300	-0.2984848
70	0xbc941898	-0.018078133
71	0x3e636fe6	0.22210655
72	0xbe28b98c	-0.1647703
73	0x3e28709c	0.16449207
74	0x3c1948b0	0.009355709
75	0x3df35e84	0.11883262
76	0xbcdeb776	-0.02718709
77	0x3d9f5298	0.077794254
78	0xbeb64643	-0.3560048
79	0xbc459c03	-0.012061122
80	0xba662791	-0.00087796996
81	0xbe10592d	-0.14096518
82	0xbc483658	-0.012219988
83	0x3dbb32f5	0.09140579
84	0xbe4862fb	-0.19569008
85	0xbec81c34	-0.39084017
86	0xbf04aa61	-0.5182248
87	0xbebdab88	-0.3704493
88	0x3da5204c	0.08062801
89	0x3e6c5c57	0.230821
90	0xbe1f4b85	-0.15556152
91	0xbe1ea08f	-0.15490936
92	0xbc923b09	-0.017850416
93	0x3ea822ea	0.32839137
94	0x3d41322a	0.04716698
95	0x3e457d36	0.19286045
96	0x3e3b2a02	0.18277743
97	0x3dad5bdc	0.084647864
98	0x3e0ed4ca	0.1394836
99	0xbdcc25f1	-0.09968174
100	0x3e00c9fa	0.12577048
101	0x3e60247a	0.21888915
102	0x3eafd113	0.34339198
103	0xbce5516a	-0.027992923
104	0x3dba22a2	0.09088637
105	0x3e32b6b8	0.17452514
106	0xbe7bf93b	-0.24606793
107	0xbd4b2074	-0.049591497
108	0x3f09bcd6	0.53803766
109	0xbdf2a993	-0.1184875
110	0xbe8b1e06	-0.27171344
111	0x3e3869a7	0.18009053
112	0xbec97f8b	-0.3935512
113	0xbecddd6a	-0.40207988
114	0x3ecde6c5	0.40215126
115	0x3e818141	0.25293925
116	0xbe09e3ad	-0.13465758
117	0x3eab9790	0.3351407
118	0xbe849c95	-0.25900713
119	0xbe8446e1	-0.25835326
120	0xbd072e16	-0.033002935
121	0x3e8535c3	0.2601758
122	0xbd0336d1	-0.0320347
123	0x3dcd7bad	0.10033355
124	0xbe8fdc3a	-0.28097707
125	0xbdf558c1	-0.11979819
126	0x3e914eb7	0.28380367
127	0xbe80b1d3	-0.2513567
128	0x3df00b54	0.11720911
129	0x3e23a014	0.15979034
130	0x3c5d08e9	0.013490894
131	0xbd5a39ac	-0.053277656
132	0xbd6f49cd	-0.05841999
133	0x3e2cc7ac	0.16873044
134	0x3ea13fde	0.3149404
135	0xbeb801c9	-0.35938862
136	0xbe53ede2	-0.20696214
137	0x3e98a71d	0.29814997
138	0x3ea115ac	0.31461847
139	0xbe965e46	-0.293688
140	0xbe8b0e84	-0.27159512
141	0xbea93f6f	-0.33056208
142	0x3e8edcc6	0.27902812
143	0x3ebf5dd3	0.3737627
144	0x3d8b4600	0.06800461
145	0x3d124c00	0.03571701
146	0xbdf02cd1	-0.11727298
147	0xbe655d0a	-0.22398773
148	0xbe7bfc05	-0.24607857
149	0xbeb69f92	-0.35668617
150	0xbe8c8238	-0.274431
151	0xbe02977c	-0.12753099
152	0xbbfb3a3a	-0.0076668533
153	0x3e81ebf0	0.2537532
154	0xbe64367c	-0.22286409
155	0xbe677d93	-0.22606497
156	0xbd2e113c	-0.042496905
157	0xbc107c85	-0.00881875
158	0xbee8471c	-0.45366752
159	0x3e95f422	0.2928782
160	0x3ea061b5	0.31324545
161	0xbdb13a2f	-0.08653676
162	0x3d8c0d91	0.06838525
163	0xbea7e865	-0.3279449
164	0x3cab471b	0.02090793
165	0xbe0abb7c	-0.13548082
166	0xbe7e6d91	-0.24846484
167	0xbea8b6f3	-0.3295208
168	0xbe483391	-0.19550921
169	0x3ea92a2d	0.3303999
170	0xbe3ec3cf	-0.18629383
171	0xbe2fc634	-0.17165452
172	0x3dd8e5aa	0.1059068
173	0xbedf315b	-0.43592343
174	0xbdb553ac	-0.0885385
175	0x3e059183	0.1304379
176	0x3d6d2164	0.057893172
177	0xbda9cf28	-0.08291465
178	0xbdb3bd04	-0.08776286
179	0xbe0b3a93	-0.13596563
180	0xbddb5448	-0.10709435
181	0xbe46f13a	-0.19427958
182	0x3d32a564	0.04361476
183	0xbde99501	-0.11405373
184	0x3e47b3c8	0.19502175
185	0xbe201e43	-0.15636544
186	0xbbe08c63	-0.006852673
187	0xbca532d7	-0.020165844
188	0xbe00639f	-0.12538002
189	0xbe1b57ec	-0.15170258
190	0x3e4a1db6	0.19737896
191	0xbda13c9a	-0.07872887
192	0x3db5d236	0.08877985
193	0xbb029a42	-0.001992837
194	0x3d126bfe	0.03574752
195	0xbe5a55f0	-0.21321845
196	0xbb390c61	-0.0028236138
197	0xbd16cb0a	-0.036814727
198	0x3d0ede39	0.034879897
199	0xbdb73124	-0.0894492
200	0x3c36b5f5	0.01115178
201	0xbcd77b60	-0.026303947
202	0xbe0b764c	-0.13619345
203	0xbe2998e1	-0.16562225
204	0x39c43257	0.0003742154
205	0x3dc7d6e0	0.09757781
206	0xbe36a93c	-0.17837995
207	0xbe8d2062	-0.2756377
208	0xbe70989e	-0.23495719
209	0xbe4de06f	-0.20105146
210	0xbe911dcf	-0.28343055
211	0x3e9ef15e	0.31043524
212	0x3e4a338e	0.19746229
213	0xbda8742d	-0.08225284
214	0x3e907c7a	0.28219968
215	0xbced43a2	-0.028962914
216	0x3ef68538	0.48148513
217	0xbf38985c	-0.7210748
218	0xbdc79247	-0.09744697
219	0xbe650d87	-0.22368442
220	0x3e0ed0bb	0.13946812
221	0x3e69fb7e	0.22849843
222	0x3da2496d	0.07924161
223	0xbe3c11d2	-0.18366173
224	0xbe3bff03	-0.18358998
225	0xbe187191	-0.14887072
226	0xbeb270f2	-0.34851795
227	0x3dae149b	0.08500024
228	0xbde02ad6	-0.1094567
229	0xbeca10e4	-0.39466012
230	0xbe90f7d7	-0.28314087
231	0xbdb1f551	-0.086893685
232	0x3ef173ac	0.47158563
233	0xbf2bdc0a	-0.6713263
234	0xbd96331e	-0.073339686
235	0xbefb1ad4	-0.49043906
236	0xbd168cac	-0.03675525
237	0x3d92cc80	0.071679115
238	0xbe189df7	-0.14904009
239	0xbf154070	-0.5830145
240	0xbe94bcc1	-0.29050258
241	0x3c5453bb	0.012959416
242	0x3e90662f	0.2820296
243	0x3e139e73	0.14415912
244	0xbe561919	-0.20908011
245	0xbe933b4f	-0.28756186
246	0x3d8267cf	0.06367456
247	0xbdf39df6	-0.11895363
248	0x3e63d1c4	0.22247988
249	0x3e509886	0.20370683
250	0x3f2bec78	0.671577
251	0x3e9aeb61	0.30257705
252	0xbef600b8	-0.48047423
253	0xbf175155	-0.5910848
254	0x3e1bf50e	0.152302
255	0x3eb28c0c	0.34872472

gconv.2.weight f4 [3, 16, 16]
0	0x3e3c4250	0.18384671
1	0xbebb6d87	-0.36607
2	0xbe4960cb	-0.1966583
3	0x3d82c0ad	0.06384406
4	0x3ecb1189	0.39661816
5	0xbe8946be	-0.26811785
6	0xbeb3f163	-0.351451
7	0x3e8da61c	0.27665794
8	0x3e514c34	0.20439225
9	0xbe1b1190	-0.15143418
10	0x3df18e00	0.117946625
11	0x3e86c787	0.26324102
12	0x3e3b7395	0.1830581
13	0x3ebf6f1a	0.3738945
14	0x3eb00c29	0.34384277
15	0xbb214c73	-0.0024612218
16	0x3e23f3a5	0.16010912
17	0x3e7308f6	0.23733887
18	0xbec886d2	-0.3916536
19	0x3dd09772	0.10185136
20	0x3b2de894	0.0026536332
21	0xbeb7660e	-0.3582005
22	0xbda6e790	-0.08149636
23	0xbe51dc39	-0.20494165
24	0x3e1b84e3	0.15187411
25	0x3e71833f	0.23585223
26	0xbe57899c	-0.21048588
27	0xbd3b222f	-0.045686897
28	0xbd8f8205	-0.07007221
29	0x3e173b22	0.14768651
30	0x3e2471ee	0.16059086
31	0x3de308ec	0.11085686
32	0xbefb2b02	-0.4905625
33	0xbe811604	-0.2521211
34	0x3d56c322	0.052432187
35	0xbdad8590	-0.08472741
36	0x3e201977	0.15634714
37	0xbeb84259	-0.3598812
38	0x3e6c9be9	0.2310635
39	0xbee78194	-0.45216048
40	0xbe89b6a0	-0.26897144
41	0xbec8d6b5	-0.39226308
42	0x3d5a4603	0.053289425
43	0x3da75275	0.08170024
44	0xbee986c6	-0.45610636
45	0xbe8bfcbe	-0.27341264
46	0x3eb7a0a2	0.3586474
47	0x3df275d9	0.11838884
48	0xbf120811	-0.5704356
49	0x3e9063b1	0.28201059
50	0x3e2bfe47	0.16796218
51	0xbcf123d5	-0.029436031
52	0xbd9bc9d1	-0.07606853
53	0xbdd7fa5a	-0.10545798
54	0xbd7f7cd6	-0.062374912
55	0x3e23754a	0.15962711
56	0xbe447402	-0.19184878
57	0xbcff6ad1	-0.031178864
58	0xbdb082e0	-0.086187124
59	0x3e9cc259	0.30617025
60	0xbe37ac53	-0.1793683
61	0xbe580960	-0.21097326
62	0xbd5a580c	-0.053306624
63	0x3e0f8039	0.14013757
64	0x3d176c93	0.03696878
65	0x3d34f080	0.04417467
66	0x3d61b098	0.055100054
67	0xbe234548	-0.15944397
68	0x3dd8f044	0.10592702
69	0xbec6ae50	-0.38804865
70	0xbe9086d9	-0.2822788
71	0xbcf0cbee	-0.029394116
72	0xbe6d8f7b	-0.23199265
73	0xbd39a182	-0.04532004
74	0xbe5b6471	-0.21425034
75	0xbe9de31c	-0.30837333
76	0xbe291436	-0.16511616
77	0xbda98fc9	-0.08279378
78	0x3bdd9598	0.0067622177
79	0x3de5a1ee	0.11212526
80	0xbc4184a5	-0.01181141
81	0x3e0fc7bc	0.14041036
82	0xbed067da	-0.40704232
83	0x3e5c5d7f	0.21520041
84	0x3c0cc65b	0.0085922135
85	0x3e652a35	0.22379382
86	0xbe174b6f	-0.1477487
87	0x3ead8dde	0.338973
88	0xbe46e439	-0.19422998
89	0x3e872540	0.26395607
90	0xbe2ea29f	-0.17054223
91	0x3dfbe143	0.12298825
92	0x3ee09c7d	0.4386939
93	0x3e699e2a	0.22814241
94	0x3e4e718b	0.201605
95	0xbc86704d	-0.016410971
96	0xbcab4651	-0.020907553
97	0xbda36585	-0.07978348
98	0x3ec4d56f	0.38444087
99	0x3eb086b8	0.34477782
100	0x3e32431f	0.17408417
101	0x3eb2f4c4	0.34952366
102	0xbee7c799	-0.45269468
103	0xbe33d2b2	-0.17560843
104	0xbe9221cf	-0.2854142
105	0x3e50162e	0.20320961
106	0x3ec76f4a	0.38952094
107	0x3e4b0c68	0.19828951
108	0x3ea89bd6	0.32931393
109	0x3e958c7d	0.29208747
110	0x3ea20899	0.31647184
111	0xbc94aed0	-0.018149763
112	0xbeb4f5a2	-0.35343653
113	0x3ef4a52a	0.4778226
114	0x3ec282cc	0.37990415
115	0xbb375dd3	-0.0027979508
116	0x3e89629d	0.26833048
117	0x3e99969e	0.29997724
118	0xbd157f5a	-0.036498405
119	0x3df37843	0.118881725
120	0xbe3dc72c	-0.1853301
121	0xbd2fec71	-0.042950097
122	0xbea3c1e7	-0.31983873
123	0xbdd473da	-0.103736594
124	0x3deff152	0.1171595
125	0x3e399273	0.18122272
126	0xbc0aef54	-0.008479912
127	0xbe08d5d2	-0.13362816
128	0x3e19d493	0.15022497
129	0xbe6e7324	-0.2328611
130	0xbea44418	-0.320832
131	0x3e371b08	0.17881405
132	0xbdd31ea0	-0.10308576
133	0xbe105b75	-0.14097388
134	0xbdb7c87c	-0.08973786
135	0xbda25f04	-0.07928279
136	0xbe88533d	-0.26626006
137	0x3df406ee	0.11915384
138	0x3e88dea4	0.2673236
139	0x3cb9c4d7	0.022676868
140	0x3ddb9580	0.10721874
141	0x3e550e4b	0.20806234
142	0xbe9ba1cc	-0.3039688
143	0xbeb383bf	-0.35061452
144	0x3d3f6865	0.046730418
145	0x3c4a2448	0.012337752
146	0xbe2d091f	-0.1689801
147	0x3e3a11dc	0.18170875
148	0x3dfdde47	0.12395912
149	0xbd1d40ec	-0.038391992
150	0x3e61d98d	0.22055645
151	0xbe68f2ad	-0.22748823
152	0x3ecd0461	0.40042403
153	0xbe9e9847	-0.30975553
154	0x3e149f08	0.1451379
155	0x3e751dcf	0.23937152
156	0xbe23dcf2	-0.16002253
157	0xbd89ea09	-0.06734092
158	0xbe8ad11b	-0.2711266
159	0xbe64d04e	-0.22345087
160	0xbe280eea	-0.1641194
161	0x3e097cb2	0.13426474
162	0x3e10c4ca	0.14137569
163	0xbd1eaf89	-0.038741622
164	0xbd8f2990	-0.06990349
165	0x3ee3e7b2	0.44512707
166	0xbe2711be	-0.16315362
167	0x3da452c3	0.08023598
168	0xbe8e21c0	-0.27760124
169	0xbe991ef5	-0.2990643
170	0x3de803bb	0.113288365
171	0xbc31c4af	-0.010850116
172	0xbed529cd	-0.41633454
173	0x3d8bf1b8	0.068332136
174	0x3e56afb7	0.20965467
175	0x3e8881d5	0.26661554
176	0xbf14233d	-0.5786627
177	0x3c6f1415	0.01459219
178	0xbee30e1e	-0.44346708
179	0xbb1ea628	-0.0024207924
180	0x3da887ee	0.082290515
181	0x3e5e2f74	0.2169779
182	0x3e451cfd	0.1924934
183	0xbe3394a2	-0.17537168
184	0x3e37c8b8	0.17947662
185	0xbe927ae7	-0.28609392
186	0xbe06fd37	-0.13182531
187	0x3e9f8a3d	0.31160155
188	0x3e781a45	0.24228771
189	0x3ebc33bb	0.36758217
190	0xbe3352ef	-0.17512105
191	0xbe977119	-0.29578474
192	0xbc1bf4e8	-0.009518839
193	0x3ef93d52	0.48679596
194	0xbee1939f	-0.44057938
195	0x3e252be4	0.16130024
196	0xbeec9851	-0.46209958
197	0x3c4ebfcc	0.01261897
198	0xbec424bf	-0.38309285
199	0xbec25511	-0.37955526
200	0xbdcf8820	-0.10133386
201	0xbe8ed393	-0.27895793
202	0x3e022fbd	0.12713523
203	0xbccf53fe	-0.025308605
204	0xbd920f85	-0.07131866
205	0x3d782c33	0.060589027
206	0x3e810c6c	0.2520479
207	0x3dd38e85	0.10329918
208	0xbe9477fd	-0.28997794
209	0xbdf46b42	-0.1193452
210	0xbe879953	-0.26484165
211	0x3df3fa57	0.11912983
212	0xbe833315	-0.2562491
213	0x3e47f67e	0.19527623
214	0xbed0a82e	-0.4075331
215	0xbe0cf8d7	-0.137668
216	0x3e347d7e	0.17625996
217	0xbef09747	-0.46990415
218	0x3e88ac19	0.266938
219	0x3e8edd72	0.27903324
220	0x3b6077c7	0.003425108
221	0x3da71b3a	0.0815949
222	0x3e2e24a5	0.17006166
223	0x3be7b1ff	0.0070707793
224	0x3e241daa	0.16026941
225	0xbec251d2	-0.3795305
226	0xbe002b8b	-0.1251661
227	0x3df543f1	0.119758494
228	0xbebc8f9a	-0.3682831
229	0xbed49697	-0.4152114
230	0xbe525746	-0.20541105
231	0xbee0e891	-0.43927434
232	0xbe148268	-0.14502871
233	0xbdad7eb5	-0.08471433
234	0xbd75fe94	-0.060057238
235	0x3bb19c61	0.005420253
236	0x3e8cdee6	0.27513808
237	0xbe35102c	-0.1768195
238	0xbeaa2967	-0.33234712
239	0xbe84b809	-0.25921658
240	0xbf103b1a	-0.5634018
241	0xbe85660b	-0.26054415
242	0xbe0014cc	-0.12507933
243	0x3ed9d513	0.42545375
244	0xbe8d5da4	-0.27610505
245	0xbd88b21f	-0.06674599
246	0xbdb8b977	-0.090197496
247	0xbca600e0	-0.02026409
248	0x3ea7a781	0.32744983
249	0xbdbe37c2	-0.09287979
250	0xbe8ac889	-0.2710612
251	0x3e87b486	0.26504916
252	0x3e9d1f09	0.3068774
253	0xbe1a90a8	-0.15094244
254	0xbeecab90	-0.46224642
255	0xbedcb378	-0.43105674

gconv.3.weight f4 [3, 16, 16]
0	0xbe815cf2	-0.25266224
1	0xbe198121	-0.14990665
2	0xbdee292a	-0.11628945
3	0x3e09956f	0.1343591
4	0xbe170e61	-0.14751579
5	0xbd59f8a6	-0.053215645
6	0xbe448e10	-0.19194818
7	0x3ee88376	0.45412797
8	0x3e4badd2	0.19890526
9	0x3e657f73	0.224119
10	0x3dfa1a52	0.122120515
11	0xbe181fc4	-0.14855868
12	0xbde0882c	-0.10963473
13	0x3e252794	0.16128379
14	0x3e2c8b70	0.16850066
15	0xbd296997	-0.041360464
16	0xbe5e0740	-0.21682453
17	0xbe838fe8	-0.2569573
18	0xbccfd76e	-0.02537128
19	0xbc93b639	-0.018031226
20	0xbeb7990a	-0.35858947
21	0x3e8f912d	0.28040448
22	0xbdc1fab0	-0.09471643
23	0xbe466790	-0.19375443
24	0xbeb7c694	-0.3589369
25	0x3de1c3ad	0.1102365
26	0x3e38f6ed	0.18062945
27	0xbd062a13	-0.03275497
28	0x3e60d035	0.21954425
29	0x3e7279a1	0.2367921
30	0x3dc2d363	0.09512975
31	0x3e1d05f7	0.15334307
32	0x3db61083	0.08889868
33	0x3d61b6a0	0.055105805
34	0xbdd6d3ed	-0.104896404
35	0xbe6648b4	-0.22488672
36	0xbe5a024a	-0.21289936
37	0xbeb6e188	-0.35718942
38	0xbd9bbf7f	-0.07604884
39	0x3e909b13	0.28243312
40	0x3ecd448c	0.4009136
41	0xbd990bbe	-0.07472943
42	0xbeb41d88	-0.3517878
43	0x3e68a354	0.22718555
44	0xbe6a4148	-0.22876465
45	0x3e9a99ab	0.30195364
46	0x3c12c5a2	0.008958252
47	0x3e269d4a	0.16270939
48	0xbed33b0d	-0.4125599
49	0xbdb7c3ac	-0.08972868
50	0xbeca94c4	-0.39566624
51	0x3e152cb4	0.14567834
52	0x3dda7159	0.106661506
53	0xbb7481ae	-0.003730874
54	0xbdf34b87	-0.1187964
55	0x3e9ef910	0.31049395
56	0x3f0185f7	0.5059504
57	0xbe377f6c	-0.17919701
58	0xbefddad6	-0.4958102
59	0x3dd74421	0.105110414
60	0xbeaf8b21	-0.34285834
61	0x3ea67617	0.3251197
62	0x3e76bf29	0.2409636
63	0xbe909d6c	-0.28245103
64	0x3e83b4fd	0.2572402
65	0x3e431916	0.19052538
66	0xbdf2c1cc	-0.1185337
67	0x3bc258fa	0.005931017
68	0xbc4b8e4f	-0.012424066
69	0xbdeaf82b	-0.114731155
70	0x3e417c40	0.18895054
71	0x3ee65e00	0.4499359
72	0x3b97149f	0.0046106125
73	0xbbff89f7	-0.007798429
74	0xbef0caad	-0.4702963
75	0x3e485a70	0.19565749
76	0x3e711e02	0.23546603
77	0x3e06fa4e	0.13181421
78	0x3e909572	0.28239018
79	0xbe83cc92	-0.25742012
80	0xbe67aa4a	-0.22623554
81	0xbe450098	-0.19238508
82	0x3e428a96	0.18998179
83	0xbbf0c280	-0.007347405
84	0xbead1c61	-0.33810714
85	0xbe59278b	-0.2120649
86	0x3d1015d6	0.035177074
87	0x3be5058b	0.006989186
88	0x3e08f050	0.13372922
89	0xbe2c83c1	-0.16847135
90	0x3e9ed03a	0.3101824
91	0x3eb6ef69	0.3572953
92	0x3e6e7b15	0.2328914
93	0x3e10d27e	0.14142796
94	0x3e84bebd	0.25926772
95	0x3ea583e7	0.32327196
96	0x3ea4b4c5	0.32169166
97	0x3bd5a865	0.0065203183
98	0xbeda1c95	-0.4259993
99	0xbe8dd6f6	-0.27703065
100	0x3e5c03f8	0.21485889
101	0x3d4f61ce	0.050630383
102	0xbe23f488	-0.1601125
103	0xbeb523c2	-0.35378844
104	0x3ed39b56	0.4132945
105	0xbe9cb8d4	-0.30609763
106	0xbd975ddb	-0.073909484
107	0x3eb30a9e	0.34969038
108	0xbda8e3f7	-0.08246606
109	0xbd869acb	-0.06572493
110	0x3e6c08bd	0.23050208
111	0x3ea9500c	0.33068883
112	0x3e60e181	0.21961023
113	0xbdbdb342	-0.09262706
114	0x3e84e7fc	0.2595824
115	0x3e27b209	0.16376509
116	0x3e5e8c13	0.21733122
117	0xbee3bbf6	-0.4447934
118	0x3e8aa1a6	0.27076453
119	0xbddb9f01	-0.10723687
120	0x3d9e601a	0.07733174
121	0xbe9774c9	-0.29581288
122	0xbd81a2ba	-0.06329866
123	0xbe9b7142	-0.30359846
124	0xbde96465	-0.11396102
125	0x3e7d5167	0.24738084
126	0x3ea72526	0.3264553
127	0xbd820e1d	-0.06350348
128	0xbe0d1378	-0.13776958
129	0xbe29f103	-0.16595845
130	0xbef84055	-0.4848658
131	0xbe82e6c9	-0.255667
132	0xbeb8145e	-0.3595304
133	0xbef876df	-0.4852819
134	0xbc600551	-0.0136731425
135	0x3cfc5c44	0.030805714
136	0xbe79f421	-0.24409534
137	0xbea18154	-0.31543982
138	0x3e09f8ad	0.13473769
139	0x3e5c6cf3	0.21525936
140	0x3e6fd570	0.23421264
141	0x3eb90694	0.3613783
142	0xbe024b13	-0.12723951
143	0xbe9bd1ed	-0.30433598
144	0xbe675e0c	-0.2259447
145	0xbe0b9c7d	-0.13633914
146	0xbddf02fd	-0.10889242
147	0xbd888bac	-0.06667265
148	0xbcb22c49	-0.021749632
149	0x3df8b86d	0.121445514
150	0xbde35794	-0.111006886
151	0xbe3eac50	-0.1862042
152	0x3d33cc7c	0.043896183
153	0xbce1b03d	-0.027549857
154	0xbe89a4c4	-0.2688352
155	0xbe814823	-0.25250348
156	0xbe153d85	-0.14574249
157	0x3e4bbe8e	0.1989691
158	0x3d500cb6	0.050793372
159	0xbc41c012	-0.011825578
160	0xbe408de1	-0.18804123
161	0x3e8a7549	0.27042606
162	0x3e197bcc	0.14988631
163	0xbcf70cdc	-0.030157499
164	0xbebd8b5c	-0.37020385
165	0xbd079d1b	-0.03310881
166	0x3d741af2	0.05959601
167	0x3ee3eeeb	0.44518217
168	0x3db816d5	0.0898873
169	0x38464619	4.7272162e-05
170	0xbeef43fd	-0.46731558
171	0x3ed6e378	0.4197042
172	0x3d582e60	0.0527786
173	0xbea3b7f1	-0.31976274
174	0x3e860136	0.261728
175	0xbe9dd0a1	-0.30823234
176	0xbe0e286d	-0.13882609
177	0x3e9873a7	0.29775736
178	0xbc47434f	-0.012162044
179	0xbe8d7d43	-0.2763463
180	0xbdca0e4d	-0.09866009
181	0xbb70c7e0	-0.0036740229
182	0xbe0aceb0	-0.13555408
183	0xbcc2ddf6	-0.02378748
184	0x3e0625f9	0.13100423
185	0xbe93a6e7	-0.28838274
186	0x3b9b6b0b	0.004742985
187	0x3ecd7edf	0.40135857
188	0x3e91a2f0	0.28444624
189	0x3e17c759	0.14822139
190	0xbea5504a	-0.32287818
191	0xbe41d6c9	-0.1892959
192	0x3e88a8fb	0.26691422
193	0x3e9db8a8	0.30804944
194	0xbe5e9b90	-0.2173903
195	0xbe3786cb	-0.17922513
196	0xbe1300f9	-0.1435584
197	0xbe219b45	-0.15781887
198	0x3e1e4511	0.15456034
199	0xbdd67126	-0.104708
200	0x3ec555e5	0.38542095
201	0xbe8251ca	-0.25453025
202	0x3eb388e0	0.35065365
203	0x3e120965	0.14261396
204	0xbdccc0e1	-0.09997726
205	0xbdc25fc8	-0.09490925
206	0xbe9ec902	-0.31012732
207	0xbdc16728	-0.094435036
208	0xbd8d24e5	-0.06891803
209	0x3e11ddd3	0.14244775
210	0x3e9b0265	0.30275264
211	0x3e8dc9ea	0.2769311
212	0xbe94e7fb	-0.29083237
213	0x3dce16ad	0.10062919
214	0xbde0675f	-0.109572165
215	0xbb8bc470	-0.0042653605
216	0xbdd24ee3	-0.10268953
217	0xbe9728de	-0.29523367
218	0xbea093ff	-0.31362912
219	0x3ee4d3d7	0.4469287
220	0xbe8acd7a	-0.2710989
221	0x3ec277be	0.3798198
222	0xbea6449b	-0.32474217
223	0xbd62ab17	-0.055338945
224	0xbeac7b4d	-0.3368782
225	0x3d810ac2	0.0630088
226	0xbeab866f	-0.33501002
227	0x3ebd2d5f	0.36948678
228	0xbd9f5384	-0.07779601
229	0xbe5dc26b	-0.21656196
230	0x3d61c5b8	0.0551202
231	0x3e9ea634	0.30986178
232	0xbe79c72b	-0.24392383
233	0x3d94c3bb	0.07263895
234	0x3e28345b	0.16426222
235	0xbe94537b	-0.2896994
236	0xbe6b08b4	-0.22952539
237	0x3e6792a3	0.22614531
238	0x3e2343fc	0.15943903
239	0xbe556865	-0.20840605
240	0x3ea7ed25	0.32798114
241	0xbe5efe23	-0.21776633
242	0x3db3b8ec	0.087755054
243	0xbe94d688	-0.29069924
244	0xbd7dcffb	-0.061965924
245	0x3dac1d79	0.08404059
246	0x3d8829e9	0.06648619
247	0xbe9f34eb	-0.3109506
248	0x3e888356	0.266627
249	0xbd816f61	-0.06320072
250	0xbd82226f	-0.06354224
251	0x3e7418e3	0.23837619
252	0xbd64fe81	-0.055906776
253	0xbe8f597f	-0.27997968
254	0x3d3bbbdd	0.045833457
255	0xbe26fc5d	-0.16307206

cls.0.weight f4 [256, 64]
0	0x3e2a4ac8	0.1663009
1	0x3d309b6d	0.043116976
2	0xbd402494	-0.046909884
3	0xbbb529de	-0.0055286726
4	0xbc81d7bb	-0.015849939
5	0x3e9db670	0.3080325
6	0x3c915dbf	0.017744897
7	0x3ca53fb1	0.020171972
8	0x3e188ca8	0.14897406
9	0x3c112dca	0.008861015
10	0x3e40c942	0.18826774
11	0x3e0c9624	0.13729149
12	0x37e81c91	2.7669857e-05
13	0xbd435920	-0.047692418
14	0x3c9786a5	0.01849682
15	0x3dc476b2	0.09592952
16	0x3ed080f5	0.40723386
17	0xbe7298ef	-0.23691152
18	0x3dd3f5c0	0.103496075
19	0xbbe58031	-0.007003807
20	0xbd133355	-0.035937626
21	0xbc9fee3b	-0.019522777
22	0x3deeb7d3	0.116561554
23	0x3dbf7a33	0.093494795
24	0x3c9364fa	0.017992485
25	0x3dc1329c	0.09433481
26	0xbd087e5a	-0.033323623
27	0x3c438576	0.011933675
28	0xbdf3f360	-0.119116545
29	0xbe2f2c76	-0.17106804
30	0x3cd6c20b	0.026215574
31	0x3ec48436	0.3838212
32	0xbe073882	-0.1320515
33	0xbe1c0a40	-0.15238285
34	0x3c9ae5a8	0.018908337
35	0xbea05d30	-0.31321096
36	0x3def95dd	0.11698506
37	0x3e446cbc	0.19182104
38	0x3e6415ba	0.22273913
39	0xbd39559f	-0.04524767
40	0xbda71169	-0.081576176
41	0x3a3877e4	0.0007036908
42	0x3e7630a8	0.24041998
43	0xbc361226	-0.011112725
44	0x3d95c8cf	0.07313692
45	0xbd305665	-0.043051142
46	0x3db63396	0.08896558
47	0xbc26f590	-0.010190383
48	0x3d394324	0.045230046
49	0x3d5ba6f3	0.053626012
50	0x3dc8d3fb	0.09806057
51	0x3e2a6d18	0.16643178
52	0xbdb18603	-0.08668139
53	0xbe631e7e	-0.221796
54	0xbe0dab0d	-0.13834782
55	0x3eaf3792	0.34222084
56	0xbe118757	-0.14211784
57	0x3bb03f6a	0.0053786533
58	0xbe298f45	-0.16558559
59	0xbe1e1ff3	-0.15441875
60	0x3ea97c5c	0.3310269
61	0x3c690da4	0.014224444
62	0xbc55430e	-0.013016475
63	0x3d7be27e	0.061495297
64	0x3eae596a	0.34052593
65	0x3c134842	0.008989396
66	0xbf00b924	-0.502825
67	0xbebf880c	-0.37408483
68	0xbe8c81fc	-0.2744292
69	0xbe5f6d83	-0.21819119
70	0xbe60c96a	-0.21951833
71	0x3f02a9f7	0.51040596
72	0xbdd515ad	-0.10404525
73	0x3e0f038e	0.139662
74	0x3cc2da35	0.02378569
75	0xbe1904dd	-0.14943261
76	0xba2c6687	-0.0006576557
77	0xbf405c66	-0.7514099
78	0xbf7651e8	-0.9621873
79	0x3f624303	0.883835
80	0x3dc48716	0.09596078
81	0xbe605aea	-0.21909681
82	0x3e0c1c04	0.13682562
83	0xbd9ae72b	-0.07563623
84	0xbe9ad34f	-0.3023934
85	0xbdc19c43	-0.09453633
86	0x3d86772a	0.065656975
87	0x3e1c0284	0.15235335
88	0xbedff93d	-0.4374484
89	0xbd8be0dd	-0.06829999
90	0x3d7fa1a5	0.062410016
91	0xbe2b4dfe	-0.1672897
92	0xbdd80872	-0.10548486
93	0xbe0d637a	-0.13807479
94	0x3d69408b	0.05694632
95	0xbdc544ea	-0.09632285
96	0xbe0f19c9	-0.1397468
97	0x3e55e89d	0.20889516
98	0xbe66c2b7	-0.22535215
99	0xbd51ae21	-0.051191453
100	0xbdfc9437	-0.12332957
101	0x3de270e7	0.11056691
102	0xbd93be57	-0.07214039
103	0xbe94e437	-0.29080364
104	0xbd0288a0	-0.031868577
105	0x3c2f75a4	0.0107092
106	0xbe90f64d	-0.28312913
107	0xbda07fcb	-0.078368746
108	0xbe94c5d1	-0.29057172
109	0xbdafc190	-0.08581841
110	0xbdb39e77	-0.08770459
111	0xbda2c56f	-0.07947814
112	0xbce998c2	-0.028515223
113	0xbda2ffdc	-0.079589576
114	0xbc54c000	-0.0129852295
115	0xbe9d08d0	-0.30670786
116	0xbe379b1c	-0.17930263
117	0xbd9e3816	-0.07725541
118	0xbdf26234	-0.11835137
119	0xbdbf18df	-0.09330916
120	0xbe246e49	-0.16057695
121	0xbd96bb72	-0.07359971
122	0xbe73329b	-0.23749773
123	0xbda6c28a	-0.08142574
124	0xbe30046f	-0.17189191
125	0x3e5cc199	0.21558227
126	0xbce98a8b	-0.028508445
127	0xbdbf18dd	-0.09330914
128	0xbcf72849	-0.030170577
129	0xbe06e3ed	-0.13172884
130	0x3d93a478	0.07209104
131	0x3e481037	0.19537435
132	0xbdc06532	-0.093943015
133	0xbd883929	-0.066515274
134	0x3c4b608e	0.012413157
135	0x3d824039	0.06359906
136	0xbc8a123a	-0.016854394
137	0x3e1daa84	0.15397078
138	0xbdb55d6f	-0.08855712
139	0x3d8cb723	0.06870868
140	0x38029032	3.1128708e-05
141	0xbd51f02d	-0.05125444
142	0x3d401895	0.046898443
143	0x3d97fb05	0.07420925
144	0x3e6f3790	0.23361039
145	0x3d2e31d6	0.042527996
146	0xbeb354bf	-0.35025594
147	0xbd808f39	-0.062773176
148	0x3abe2028	0.0014505433
149	0x3c9db984	0.0192535
150	0xbe0c71f8	-0.1371535
151	0xbd54b4bb	-0.05193017
152	0x3db4e58f	0.08832847
153	0x3e5ebcca	0.21751705
154	0xbcb56235	-0.022141555
155	0x3e03a20f	0.12854789
156	0xbd90fca9	-0.07079441
157	0x3e47bc82	0.19505504
158	0xbde7f7f6	-0.11326592
159	0x3cdf9fa1	0.027297797
160	0xbee3b633	-0.44474944
161	0x3debb22b	0.11508592
162	0xbd5bf6fc	-0.05370234
163	0x3c5052c4	0.012715045
164	0x3ce2b51b	0.027674248
165	0x3e553d3d	0.20824142
166	0x3da91ec0	0.08257818
167	0x3d7f337f	0.06230497
168	0xbe4747d6	-0.19460997
169	0xbdbaeaa2	-0.09126784
170	0x3ecf2e3d	0.40464965
171	0x3db33147	0.08749633
172	0x3db0e9f7	0.08638375
173	0x3dc08b7b	0.09401604
174	0x3e34cbdc	0.17655891
175	0x3e08e879	0.13369931
176	0x3ddf2eb2	0.10897578
177	0xbd988482	-0.07447149
178	0x3dd9e687	0.10639673
179	0xbdbdc5fc	-0.09266278
180	0xbe66a389	-0.22523321
181	0xbe8b79f6	-0.27241486
182	0xbbea7cf1	-0.0071560075
183	0xbda76b85	-0.081748046
184	0x3e3491c7	0.17633735
185	0xbc132bc5	-0.008982603
186	0xbdfbdedf	-0.12298369
187	0x3dfc37b8	0.12315315
188	0xbcc33c66	-0.023832511
189	0xbe9980d5	-0.29981104
190	0x3e459dc2	0.19298461
191	0x3e39a702	0.18130115
192	0xbe4156aa	-0.18880716
193	0xbd3b8ef2	-0.04579062
194	0x3d87f996	0.066394016
195	0xbe50481a	-0.20340005
196	0xbe8cece9	-0.27524498
197	0x3b994abc	0.0046780985
198	0xbdd45e2d	-0.10369525
199	0xbdebdbf6	-0.115165636
200	0x3e1022fd	0.14075847
201	0xbd5abbcd	-0.053401757
202	0x3e60ec33	0.21965103
203	0xbded01e9	-0.1157263
204	0x3918d892	0.00014576528
205	0x3e02c2f5	0.12769683
206	0xbcabda9e	-0.020978268
207	0xbe159942	-0.14609244
208	0xbdfc2954	-0.1231257
209	0x3e4d52b9	0.20051087
210	0xbd975640	-0.07389498
211	0x3e6eaf85	0.23309143
212	0xbc11e285	-0.008904104
213	0x3e5a5e67	0.21325074
214	0xbe42c0e5	-0.19018896
215	0xbde5166b	-0.111859165
216	0xbe789e2b	-0.24279086
217	0xbda755ca	-0.0817066
218	0x3cdff70b	0.027339479
219	0x3db28958	0.087176025
220	0x3e35c13f	0.17749499
221	0x3e82501d	0.25451747
222	0x3d4604fb	0.048344593
223	0x3edd7e2f	0.43260333
224	0xbedf6e4c	-0.43638837
225	0x3e39ff0a	0.18163696
226	0xbcd70051	-0.026245268
227	0x3e94c5fb	0.29057297
228	0xbd31624f	-0.043306645
229	0x3ba3aea0	0.004995182
230	0xbe7cb258	-0.24677408
231	0x3e0b0442	0.13575843
232	0x3d849ec0	0.06475592
233	0xbcd53279	-0.026025044
234	0xbe44bdb4	-0.19212991
235	0xbe7c4130	-0.24634242
236	0xbe1a81e6	-0.15088615
237	0xbe23d0f4	-0.15997678
238	0x3caef868	0.021358684
239	0x3b2c0dee	0.002625342
240	0xbeb34b72	-0.35018498
241	0xbe80a991	-0.2512937
242	0x3e6092c8	0.21930993
243	0xbde46de8	-0.111537755
244	0x3eb5e1a3	0.3552371
245	0x3d42b0df	0.04753196
246	0xbdc35044	-0.09536794
247	0x3e8a8065	0.27051082
248	0x3e96b929	0.2943814
249	0x3da4b48d	0.0804225
250	0xbdba6391	-0.09101022
251	0xbe15bc11	-0.14622523
252	0x3da43203	0.080173515
253	0x3dbb9859	0.091599174
254	0xbd5731c2	-0.052537687
255	0x3e1c94cc	0.15291137

cls.0.bias f4 [256]
0	0x3d64d1d9	0.05586419
1	0x3d3ed659	0.046591137
2	0xbd71eb3a	-0.05906222
3	0x3d2527e7	0.040321257
4	0x3d8d82ba	0.069097
5	0xbd75955b	-0.05995689
6	0x3c2b0a3f	0.010439455
7	0xbd757a7a	-0.059931256
8	0x3b044625	0.002018341
9	0x3d7f3319	0.06230459
10	0xbd7cbd62	-0.061704047
11	0xbd71e63d	-0.059057463
12	0xbd76cd30	-0.060254276
13	0x3d6f64b0	0.058445632
14	0x3d883883	0.06651404
15	0x3c887d66	0.016661357
16	0xbd945ed2	-0.07244648
17	0xbd81f4a6	-0.06345491
18	0x3ba5dc7f	0.0050616856
19	0x3d813757	0.06309383
20	0x3d75d64b	0.06001882
21	0x3d764a14	0.06012924
22	0xbd736433	-0.05942173
23	0x3d3e20a1	0.046417836
24	0xbd657baf	-0.056026157
25	0xbdb0e852	-0.086380616
26	0x3e070a9e	0.13187644
27	0x3d7e47f0	0.062080324
28	0xbd799e59	-0.060942028
29	0x3c391083	0.011295441
30	0xbd7693d5	-0.060199577
31	0x3d2f425c	0.042787895
32	0xbd614865	-0.05500068
33	0xbd7e3770	-0.062064588
34	0x3d53b101	0.051682476
35	0x3d8d3b7b	0.068961106
36	0x3d6a7050	0.057236016
37	0x3d6b8636	0.05750104
38	0xbd59e5a0	-0.053197503
39	0xbdccc6b8	-0.0999884
40	0xbd7d78bd	-0.061882723
41	0x3d69cfa4	0.057082787
42	0xbd714224	-0.058900967
43	0x3d037fec	0.032104418
44	0x3d48bbd6	0.04900726
45	0x3d759a56	0.05996164
46	0xbd65024b	-0.05591039
47	0x3d70474c	0.058661744
48	0x3cb57d69	0.022154527
49	0x3d77a988	0.060464412
50	0x3d76b693	0.06023271
51	0x3c76633e	0.01503831
52	0xbd7c3354	-0.061572388
53	0xbd75559d	-0.0598961
54	0x3d9530dc	0.0728471
55	0x3d6dfd1d	0.058102716
56	0xbd872fb4	-0.066008955
57	0xbd7790ad	-0.060440708
58	0xbd776f3a	-0.06040881
59	0xbd761a07	-0.060083415
60	0x3d88a8ea	0.06672843
61	0x3d54533f	0.051837202
62	0x3d175168	0.03694287
63	0x3d60834d	0.05481272
64	0x3d6ba537	0.057530608
65	0x3ca2a092	0.019851957
66	0xbd754ffc	-0.059890732
67	0x3d52c973	0.05146165
68	0xbd781067	-0.060562517
69	0x3dd5be65	0.104367055
70	0x3d84047f	0.0644617
71	0x3d73b286	0.059496425
72	0xbd80606f	-0.06268393
73	0xbd51e1c2	-0.05124069
74	0x3d343fdb	0.04400621
75	0xbd098b6c	-0.03358023
76	0x3bd6eb5f	0.00655882
77	0xbd61c321	-0.05511773
78	0xbd6f0233	-0.058351707
79	0xbd68c942	-0.05683256
80	0x3d73c496	0.05951365
81	0xbc8c9997	-0.017163081
82	0xbd7597c8	-0.059959203
83	0x3d6c2d28	0.05766025
84	0x3d747717	0.059683885
85	0x3d4494a3	0.047993314
86	0x3d820738	0.06349033
87	0xbd747fa6	-0.059692048
88	0x3d5d2ae7	0.053995993
89	0x3d68633a	0.056735255
90	0xbd6a6a50	-0.057230294
91	0x3d62bd60	0.055356383
92	0x3d71561c	0.05892001
93	0x3d73fd78	0.0595679
94	0xbd73a191	-0.059480254
95	0x3d5d1107	0.053971317
96	0x3d5fe3c4	0.054660574
97	0x3d4a019e	0.04931795
98	0xbd7671e8	-0.060167223
99	0xbd731ac9	-0.059351716
100	0x3d4549ca	0.048166074
101	0xbd86b91c	-0.065782756
102	0xbdbb2b8c	-0.09139165
103	0xbd318412	-0.043338843
104	0x3d66138f	0.056170996
105	0xbdd37951	-0.10325874
106	0xbd76b5a5	-0.060231823
107	0xbd7b9c2e	-0.06142824
108	0xbd6d0fdb	-0.05787645
109	0x3d6895b9	0.05678341
110	0x3d37b341	0.044848684
111	0xbd74ceac	-0.05976741
112	0x3d5f8a11	0.05457503
113	0xbd59944a	-0.053119935
114	0xbd8b4a3b	-0.06801268
115	0x3d50ac8e	0.05094581
116	0x3d677c97	0.056515303
117	0xbd2d09aa	-0.042245544
118	0x3d72d0b7	0.059281077
119	0x3d5ee2aa	0.054415382
120	0xbcc7f922	-0.024410788
121	0x3d6c9277	0.057756867
122	0x3d62fc36	0.05541631
123	0xbd8ac848	-0.06776482
124	0x3d780b03	0.060557377
125	0xbd967c80	-0.07347965
126	0x3d5136b4	0.05107756
127	0xbd64cebd	-0.055861223
128	0xbd36a831	-0.044593994
129	0x3d5ffd99	0.05468521
130	0x3d186fe0	0.037216067
131	0x3d247b7f	0.040156838
132	0x3d57bdc9	0.052671228
133	0x3cb06aa2	0.021535221
134	0x3d88a499	0.066720195
135	0x3d7622c8	0.060091764
136	0xbd7451ac	-0.0596482
137	0xbd3a0bc5	-0.04542138
138	0xbd5cd80d	-0.05391698
139	0xbce0240f	-0.027360944
140	0xbd808df9	-0.06277079
141	0x3d3f23b8	0.046664923
142	0x3d0de5c0	0.034642935
143	0x3d5443b0	0.051822364
144	0x3c95b445	0.018274436
145	0x3d77098f	0.06031185
146	0x3d055f6e	0.032561712
147	0x3d78dedf	0.06075942
148	0xbd8d5002	-0.06900026
149	0x3d5031f3	0.050828885
150	0xbd800f63	-0.06252935
151	0x3d599c8f	0.05312782
152	0x3d1366b3	0.035986613
153	0x3d6dc52f	0.058049377
154	0xbd58481e	-0.05280315
155	0x3d92b510	0.07163441
156	0x3d0dc82d	0.03461473
157	0xbda55a82	-0.080739036
158	0xbd3928a8	-0.04520479
159	0xbd70ff8e	-0.058837466
160	0xbdd2003a	-0.102539495
161	0x3d536d08	0.051617652
162	0x3d7535cd	0.05986576
163	0x3d22f21e	0.039781682
164	0xbd5a212f	-0.053254303
165	0x3da907d1	0.08253444
166	0x3d64b375	0.055835206
167	0x3c47a71d	0.012185839
168	0xbccd60af	-0.025070516
169	0x39e5d74f	0.000438387
170	0x3b242f79	0.002505271
171	0x3d87772c	0.06614527
172	0x3d81709c	0.06320307
173	0xbd152e42	-0.036421068
174	0xbd74606b	-0.059662264
175	0x3d7d382c	0.061821148
176	0x3d753de3	0.059873473
177	0x3d779789	0.06044725
178	0xbd69aeca	-0.057051457
179	0x3c584b68	0.013201572
180	0xbd701203	-0.058610927
181	0xbd91e7e2	-0.07124306
182	0xbd1134a3	-0.03545059
183	0xbd769044	-0.060196176
184	0xbd1bf579	-0.038075898
185	0x3d3fd60e	0.046834998
186	0x3d6c673e	0.057715647
187	0xbd0fd455	-0.035114605
188	0x3d6c248f	0.057652052
189	0xbbd63b71	-0.0065378477
190	0x3d65dc9d	0.056118596
191	0x3d80331f	0.062597506
192	0x3d998623	0.07496288
193	0x3d6d024f	0.05786353
194	0x3c6170cc	0.013759803
195	0xbd80a732	-0.0628189
196	0x3d71f506	0.059071563
197	0xbd75b542	-0.059987314
198	0x3ca54b48	0.020177498
199	0xbd90b9dd	-0.070667006
200	0x3d602ce4	0.05473031
201	0x3d796d95	0.06089552
202	0x3ca1cf7e	0.01975226
203	0xbd761dbf	-0.06008696
204	0xbd71ea4f	-0.059061345
205	0x3d109f03	0.035307895
206	0xbd7396c0	-0.05946994
207	0xbd716c95	-0.058941443
208	0xbd978e80	-0.074002266
209	0xbda3475d	-0.07972596
210	0x3d634ad1	0.055491272
211	0xbdc526aa	-0.09626515
212	0xbd5f202e	-0.05447405
213	0x3d5129a4	0.051065102
214	0x3d74f243	0.05980135
215	0x3d99737c	0.0749273
216	0xbd7efb6b	-0.06225149
217	0x3d681b17	0.05666646
218	0xbd7ec7ca	-0.062202252
219	0xbd686144	-0.056733385
220	0xbe2d2300	-0.16907883
221	0xbd75dd27	-0.06002536
222	0xb9bfeca8	-0.00036606682
223	0x3d69271a	0.056922056
224	0xbcf6bdf6	-0.030119877
225	0x3d8f1c16	0.06987779
226	0x3d80f8bf	0.062974446
227	0xbd15ef14	-0.036604956
228	0x3d80f054	0.06295839
229	0xbd470f83	-0.048598778
230	0x3d722df5	0.05912586
231	0x3d693fa4	0.056945458
232	0xbc055d01	-0.00813985
233	0xbd750fc8	-0.059829503
234	0xbbd83467	-0.0065980437
235	0xbd2c5979	-0.042077515
236	0xbd75e62f	-0.060033973
237	0x3d69d11b	0.057084184
238	0xbd5b8a28	-0.053598553
239	0x3c3513de	0.0110521
240	0x3d700c9a	0.058605768
241	0xbd7111fb	-0.058855038
242	0xbd7cbd56	-0.061704002
243	0x3cd66a42	0.026173715
244	0x3c2ba496	0.010476252
245	0x3d9c7295	0.07639042
246	0xbda4530b	-0.08023652
247	0x3ce181a0	0.02752763
248	0xbd99782f	-0.07493626
249	0xbd7aa08f	-0.061188277
250	0xbd85ab91	-0.06526864
251	0x3d627ab0	0.055292785
252	0xbd703ed5	-0.05865367
253	0x3d52ed56	0.051495872
254	0x3d158dd2	0.036512204
255	0xbd3ca8df	-0.046059486

cls.2.weight f4 [256]
0	0x3f681b0d	0.90666276
1	0x3fa13f68	1.2597475
2	0x3f6da524	0.9283011
3	0x3f71ef1c	0.94505477
4	0x3f635c1b	0.88812417
5	0x3f66b2a8	0.9011636
6	0x3f6d7740	0.92760086
7	0x3f0fa15b	0.56105584
8	0x3f87e0e9	1.0615512
9	0x3f7864b7	0.9702868
10	0x3f29594b	0.66151875
11	0x3f51403c	0.8173864
12	0x3f6dda0d	0.92910844
13	0x3f773f08	0.96580553
14	0x3f2e7321	0.6814442
15	0x3f9c1b8c	1.2195907
16	0x3f70649f	0.93903536
17	0x3f563148	0.8366895
18	0x3f4393b5	0.7639726
19	0x3f7420b7	0.9536242
20	0x3f71408e	0.9423913
21	0x3f6208e4	0.88294816
22	0x3f5199e0	0.8187542
23	0x3f5efe5a	0.8710686
24	0x3f54d4c5	0.8313716
25	0x3f637e2f	0.88864416
26	0x3f60b5cf	0.8777742
27	0x3f7fcd60	0.9992275
28	0x3f588ce9	0.8459001
29	0x3f8171ac	1.0112815
30	0x3f623398	0.88359976
31	0x3f474e6c	0.7785404
32	0x3f631e0d	0.8871773
33	0x3f532699	0.8248077
34	0x3f4f7dd5	0.8105138
35	0x3f8824f8	1.0636282
36	0x3f6d3f6b	0.92674893
37	0x3f74f157	0.95680755
38	0x3f5e1588	0.86751604
39	0x3f3813a6	0.7190498
40	0x3f58f0a3	0.8474218
41	0x3f3d677b	0.73986024
42	0x3f5ac742	0.85460293
43	0x3fa17b2e	1.2615716
44	0x3f4d173c	0.8011358
45	0x3f722971	0.94594485
46	0x3f756eae	0.9587201
47	0x3f4dab8c	0.80339885
48	0x3f53c813	0.82727164
49	0x3f728224	0.9472983
50	0x3f7608c8	0.9610715
51	0x3f79baf6	0.97550905
52	0x3f6a99a5	0.9164069
53	0x3f3c17b1	0.7347365
54	0x3f6f443b	0.93463486
55	0x3f595307	0.84892315
56	0x3f6063a1	0.8765202
57	0x3f4d042d	0.80084497
58	0x3f6c0cc7	0.92206997
59	0x3f5fe619	0.87460476
60	0x3f3d491e	0.7393969
61	0x3f76fcff	0.9647979
62	0x3f604d9e	0.87618434
63	0x3f954cc2	1.166405
64	0x3f5428ca	0.8287474
65	0x3f8a03b3	1.0782379
66	0x3f4e1812	0.8050548
67	0x3f6e21bc	0.93020225
68	0x3f6ccd5a	0.9250084
69	0x3f5ac12e	0.8545102
70	0x3f7374e8	0.9510026
71	0x3f76866f	0.9629888
72	0x3f6b5cd7	0.9193854
73	0x3f6346d0	0.88779926
74	0x3f9ea9c6	1.2395561
75	0x3f5f4334	0.8721192
76	0x3f48d02c	0.78442645
77	0x3f636790	0.888299
78	0x3f6a604a	0.91553175
79	0x3f49b0a5	0.78785163
80	0x3f65460b	0.8956
81	0x3f24eb12	0.6442119
82	0x3f6eece4	0.93330216
83	0x3f660938	0.89857817
84	0x3f843a17	1.0330228
85	0x3f620dd7	0.8830237
86	0x3f6eb7e2	0.9324933
87	0x3f380ef3	0.7189781
88	0x3f6bc033	0.9209015
89	0x3f5defeb	0.8669421
90	0x3f546b1a	0.82975924
91	0x3f575605	0.8411563
92	0x3f6e3e84	0.9306414
93	0x3f6df0c0	0.9294548
94	0x3f7ab871	0.97937685
95	0x3f6492eb	0.8928668
96	0x3f76fce2	0.9647962
97	0x3f45ad36	0.77217424
98	0x3f6210b7	0.88306755
99	0x3f63027d	0.8867567
100	0x3f79e320	0.9761219
101	0x3f0628c2	0.5240594
102	0x3f71d34a	0.94463027
103	0x3f65c60b	0.89755315
104	0x3f654e6e	0.895728
105	0x3f72305a	0.9460503
106	0x3f58885d	0.84583074
107	0x3f6982f1	0.91215426
108	0x3f72758e	0.94710624
109	0x3f668e7b	0.9006116
110	0x3f63a845	0.88928634
111	0x3f524f27	0.82152027
112	0x3f5341a3	0.8252203
113	0x3f703983	0.93837756
114	0x3f47977a	0.7796551
115	0x3f5b8db7	0.85763115
116	0x3f7bb705	0.9832614
117	0x3f5791ff	0.8420715
118	0x3f68d3fb	0.90948457
119	0x3f5db176	0.8659891
120	0x3f4ff67f	0.812355
121	0x3f4ccabc	0.7999685
122	0x3f700bce	0.9376801
123	0x3f22db2b	0.63615674
124	0x3f6a678b	0.91564244
125	0x3f5bf683	0.8592302
126	0x3f7319ad	0.94961053
127	0x3f6db20b	0.92849797
128	0x3f66f80d	0.90222245
129	0x3f74c653	0.9561512
130	0x3f75cc24	0.9601462
131	0x3f6b7018	0.91967916
132	0x3f66fc12	0.9022838
133	0x3f62bca9	0.8856912
134	0x3f6eb1ad	0.9323986
135	0x3f7013ed	0.93780404
136	0x3f424aff	0.75895685
137	0x3f896b27	1.0735825
138	0x3f727b71	0.94719607
139	0x3ef6ff78	0.48241782
140	0x3f647483	0.8924028
141	0x3f55bab0	0.8348799
142	0x3fb4074e	1.4064729
143	0x3f6697a9	0.90075165
144	0x3f6d72c0	0.9275322
145	0x3f7290a8	0.9475198
146	0x3fa8d499	1.318988
147	0x3f84033c	1.0313487
148	0x3f503901	0.8133698
149	0x3f66bd4f	0.9013261
150	0x3f58468e	0.8448266
151	0x3f61320e	0.87967
152	0x3f632b55	0.88737994
153	0x3f5d74a8	0.8650613
154	0x3f598e50	0.84982777
155	0x3f6b4e64	0.9191649
156	0x3f65560c	0.8958442
157	0x3f26d5b7	0.6516985
158	0x3f61b5dc	0.8816812
159	0x3f61d3d9	0.8821388
160	0x3f240e04	0.64083886
161	0x3f1bdaf5	0.60880977
162	0x3f2942c7	0.6611752
163	0x3f6192cc	0.8811462
164	0x3f52b44c	0.8230636
165	0x3f816a42	1.0110552
166	0x3f7556f2	0.95835793
167	0x3f902df7	1.1264027
168	0x3f690494	0.9102261
169	0x3f88f5cf	1.0700015
170	0x3f95a5e2	1.1691248
171	0x3f4e12ef	0.8049764
172	0x3f767926	0.9627861
173	0x3f81a9ce	1.0129945
174	0x3f552a71	0.83267885
175	0x3f6ec9b3	0.9327652
176	0x3f7e487a	0.9932934
177	0x3f3d3c1d	0.7391985
178	0x3f5a0a51	0.8517199
179	0x3f8769e5	1.0579191
180	0x3f7331b3	0.9499771
181	0x3f6d49a4	0.9269049
182	0x3f77cb7e	0.9679488
183	0x3f20c618	0.6280227
184	0x3f68ec7d	0.9098585
185	0x3f14c43b	0.58111924
186	0x3f7200ce	0.9453248
187	0x3e6a7956	0.22897848
188	0x3f618dee	0.8810719
189	0x3f761578	0.9612651
190	0x3f5e7cbf	0.869091
191	0x3f85aafc	1.0442805
192	0x3f9ad432	1.2096007
193	0x3f34c945	0.7061961
194	0x3f4fef2d	0.8122433
195	0x3f0740ed	0.52833444
196	0x3f6cdd60	0.9252529
197	0x3f693153	0.9109089
198	0x3f4e5621	0.8060017
199	0x3f606c2d	0.87665063
200	0x3f6e6fbe	0.93139255
201	0x3f6c2343	0.92241305
202	0x3f95c557	1.1700848
203	0x3f64d2dd	0.8938425
204	0x3f6a6670	0.9156256
205	0x3f6542d7	0.89555115
206	0x3f4a1fc1	0.789547
207	0x3f494dc5	0.7863429
208	0x3f5e654a	0.86873305
209	0x3f309496	0.68976724
210	0x3f625f2c	0.8842647
211	0x3f7b1527	0.9807915
212	0x3f70571b	0.9388291
213	0x3f6335a1	0.88753706
214	0x3f7af829	0.9803491
215	0x3f7c7180	0.9861069
216	0x3f6855ab	0.9075572
217	0x3f6e7ad6	0.9315618
218	0x3f6838ad	0.9071148
219	0x3f49572a	0.78648627
220	0x3f6b35aa	0.9187876
221	0x3f4eea98	0.8082671
222	0x3f5d5076	0.864509
223	0x3f62c1d9	0.8857704
224	0x3f775302	0.96611035
225	0x3f6f3144	0.9343455
226	0x3f9a52f2	1.2056563
227	0x3f66268f	0.89902586
228	0x3f6c1742	0.9222299
229	0x3f473307	0.77812237
230	0x3f7bc869	0.98352677
231	0x3f8138fb	1.0095514
232	0x3f4e9c01	0.80706793
233	0x3f0bff7c	0.54686713
234	0x3f7244c2	0.94636166
235	0x3f74054b	0.95320576
236	0x3f6a31a5	0.91482
237	0x3f4e39c1	0.80556875
238	0x3f65eeda	0.89817584
239	0x3f5991ce	0.84988105
240	0x3f6bf5f8	0.92172194
241	0x3f6b7671	0.919776
242	0x3f5e8216	0.86917245
243	0x3f8435db	1.0328935
244	0x3ef18f5e	0.47179693
245	0x3f896a2c	1.0735526
246	0x3f65e394	0.8980038
247	0x3f6b3f2a	0.91893256
248	0x3f60d2f0	0.87821865
249	0x3f53b343	0.82695407
250	0x3f76b0d4	0.9636357
251	0x3f7875db	0.97054833
252	0x3f3c1e7d	0.7348402
253	0x3f78da12	0.9720775
254	0x3fa02999	1.2512695
255	0x3f74e386	0.95659673
