医学影像/EV_GCN/save_models/ev_gcn/fold8.pth (torch, 543861 bytes, 20 tensors)

gconv.0.weight f4 [3, 2000, 16]
0	0xbdb1a6c0	-0.08674383
1	0xbde00c2c	-0.109398216
2	0xbd565cd5	-0.052334625
3	0xbd823b0a	-0.06358917
4	0xbd02f06b	-0.03196756
5	0x3af55853	0.0018718339
6	0xbde967ff	-0.11396789
7	0x3d30169f	0.042990323
8	0xbd3afbef	-0.04565042
9	0xbd5bea91	-0.053690497
10	0xbd13241a	-0.0359231
11	0xbcd531d0	-0.026024729
12	0xbd0f6362	-0.03500689
13	0x3db4cfff	0.088287346
14	0xbd36fdcc	-0.044675633
15	0xbdd450b9	-0.10366959
16	0xbe6828ff	-0.22671889
17	0xbcd05a6f	-0.025433747
18	0xbd87f236	-0.06637995
19	0xbd89fb78	-0.06737417
20	0x3d0e22fe	0.03470134
21	0x3d91d125	0.07119969
22	0xbcfbef13	-0.030753648
23	0x3e4178f6	0.18893799
24	0xbdb8c638	-0.09022182
25	0x3d3fc859	0.046821926
26	0xbdedc6ad	-0.1161016
27	0xbd717412	-0.058948584
28	0xbcf3f9b9	-0.029782163
29	0x3e05bbec	0.13059968
30	0xbca60446	-0.02026571
31	0xbd3b24de	-0.045689456
32	0x3c022bbe	0.007944999
33	0xbd7da009	-0.0619202
34	0xbda3705e	-0.07980417
35	0xbdb967eb	-0.09053024
36	0xbcb605d0	-0.022219568
37	0xbe17ec7e	-0.14836308
38	0xbce0bc3b	-0.027433505
39	0xbdbfa774	-0.09358111
40	0xbdd7c201	-0.1053505
41	0x3ce2f818	0.027706191
42	0x3be32510	0.0069319084
43	0xbdbd6f32	-0.092497244
44	0xbd26266f	-0.040563997
45	0x3d8bf551	0.068339
46	0xbb8104a6	-0.0039373217
47	0xbdf698d6	-0.1204087
48	0x3de61982	0.11235334
49	0x3d513b80	0.051082134
50	0xbd7aacb0	-0.061199844
51	0xbd276c14	-0.040874556
52	0xbd7b39fd	-0.0613346
53	0xbdb95de5	-0.09051112
54	0xbdd4aa01	-0.10383988
55	0xbe0a7b59	-0.13523616
56	0xbddfb30b	-0.109228216
57	0x3d758341	0.059939627
58	0x3d2206b8	0.03955719
59	0xbdbd46b6	-0.09242003
60	0xbc4a8d7f	-0.012362837
61	0xbdbcf13c	-0.09225699
62	0xbc97d874	-0.01853583
63	0xbda8caa6	-0.08241777
64	0xbd5424a3	-0.051792752
65	0x3d358b2f	0.04432219
66	0xbd82be72	-0.06383981
67	0xbd0a189e	-0.033714883
68	0xbd907aa7	-0.07054644
69	0x3d9b19a4	0.0757325
70	0xbcea5367	-0.028604222
71	0x3d905549	0.07047517
72	0xbda62e22	-0.08114268
73	0x3e362a2d	0.17789526
74	0xbd3e2fdc	-0.04643236
75	0xbceebe72	-0.029143546
76	0xbcc1e834	-0.023670293
77	0xbe1b48ea	-0.15164533
78	0xbca6b26c	-0.02034875
79	0xbc065dec	-0.008201104
80	0xbe670edb	-0.2256426
81	0x3dfc182d	0.12309299
82	0xbd833365	-0.06406287
83	0xbd847cc9	-0.064691134
84	0xbd86fbac	-0.06590971
85	0x3e2dfa8f	0.16990112
86	0xbc489f8f	-0.012245073
87	0x3e1f18b2	0.15536764
88	0xbd61d980	-0.055139065
89	0x3e98a8c0	0.29816246
90	0xbdbaa9f2	-0.09114446
91	0xbd4c0f94	-0.049819544
92	0xbc97250e	-0.018450286
93	0xbdb8550b	-0.09000596
94	0x3dbc1532	0.0918373
95	0xbc907665	-0.01763458
96	0x3dfb0df8	0.12258524
97	0xbc9422d5	-0.018083015
98	0xbd55078b	-0.052009147
99	0xbd70beaf	-0.0587756
100	0xbd1955e1	-0.037435416
101	0xbdab0db7	-0.08352225
102	0xbd0118e9	-0.031517897
103	0xbc70e1c1	-0.014702261
104	0xbd456be1	-0.048198584
105	0xbd257db3	-0.04040308
106	0xbdc29d6d	-0.09502683
107	0xbb955c33	-0.00455811
108	0x3ce2604c	0.027633809
109	0xbdcb796e	-0.0993527
110	0xbd5286f1	-0.05139822
111	0xbd5e057b	-0.054204445
112	0xbe556840	-0.2084055
113	0x3d7f941d	0.06239711
114	0xbda9d0fa	-0.08291812
115	0xbd433802	-0.047660835
116	0xbd95d172	-0.07315339
117	0xbd386561	-0.045018557
118	0xbce4ab50	-0.02791372
119	0x3cd2c224	0.02572734
120	0xbdd299af	-0.10283219
121	0x3d42baae	0.047541313
122	0xbd688847	-0.05677059
123	0xbd4572cc	-0.048205182
124	0x3cb1a549	0.02168526
125	0xbd5a707e	-0.053329937
126	0x3d0ad5bf	0.03389525
127	0xbdbda030	-0.09259069
128	0xbdd895a1	-0.105754144
129	0x3cc34cfa	0.023840416
130	0xbc25add5	-0.010112246
131	0xbd0d4b18	-0.034495443
132	0xbd885bb7	-0.06658118
133	0x3d13def5	0.0361013
134	0xbda192f2	-0.07889356
135	0x3bd35fbe	0.0064506223
136	0xbda64dcf	-0.081203096
137	0x3e228e0a	0.15874496
138	0xbd1b3376	-0.037890874
139	0xbd8fdb69	-0.07024271
140	0x3bb5569b	0.005534006
141	0xbdb838fe	-0.089952454
142	0x3cb2252e	0.021746244
143	0xbd936f8e	-0.07199012
144	0xbec2fcc7	-0.3808348
145	0x3d050b24	0.032481328
146	0xbcae1d3e	-0.021254178
147	0xbd6f49d4	-0.058420017
148	0xbce073e3	-0.02739901
149	0x3da1ae93	0.078946255
150	0xbd949cf5	-0.072565
151	0x3e3083da	0.17237797
152	0xbd9e9a41	-0.07744265
153	0x3e808fa3	0.25109586
154	0x3a30f52f	0.00067504024
155	0xbdb914c6	-0.09037165
156	0x3bbf4d0e	0.005838043
157	0xbe28ae4d	-0.1647274
158	0x3cc6ef53	0.02428404
159	0xbda4c23f	-0.08044862
160	0xbdb126cf	-0.0864998
161	0xbd9e9a58	-0.077442825
162	0xbd98d281	-0.074620254
163	0xbd0d4b75	-0.03449579
164	0xbd0f8c07	-0.03504565
165	0xbd387ce0	-0.045040965
166	0xbd98afc6	-0.07455401
167	0xbdcdcc91	-0.100487836
168	0xbd5d02ae	-0.053957634
169	0xbd54bad8	-0.051936
170	0xbd2e6f2d	-0.042586494
171	0xbc834049	-0.016021864
172	0x3c269df4	0.010169495
173	0x3d979c6e	0.074028835
174	0x3ca9a8ba	0.020710338
175	0xbd7cb8da	-0.061699726
176	0x3d131db6	0.035917006
177	0xbe5f4f92	-0.21807697
178	0xbc89b25b	-0.01680868
179	0xbd4c19dc	-0.04982935
180	0xbd3afe46	-0.04565265
181	0xbe288686	-0.16457567
182	0xbd0ed77c	-0.03487347
183	0xbe2b0c21	-0.16703846
184	0xbdc1b3b8	-0.09458107
185	0xbeadafe0	-0.33923244
186	0xbd14389c	-0.0361868
187	0xbd442a47	-0.04789188
188	0xbca89bfe	-0.020582195
189	0x3e74123c	0.23835081
190	0x3c895850	0.016765743
191	0xbd1bc094	-0.038025454
192	0x3cdb5a89	0.026776569
193	0xbd638321	-0.055544976
194	0xbd8314d3	-0.06400456
195	0xbc82e6d7	-0.015979214
196	0xbca41e04	-0.020033844
197	0xbd8b491a	-0.068010524
198	0xbd602032	-0.054718204
199	0xbe31d3e9	-0.17365994
200	0xbd7028cb	-0.058632653
201	0xbe406c77	-0.18791376
202	0xbd03ac0d	-0.032146502
203	0xbcf80525	-0.03027589
204	0x3cac6d2c	0.021048151
205	0x3df975b1	0.12180651
206	0x3ce77a44	0.028256543
207	0xbd2d562c	-0.042318508
208	0xbe3ef2e4	-0.18647343
209	0xbd6def45	-0.058089513
210	0xbdc7290e	-0.097246274
211	0xbdb9fd6e	-0.09081541
212	0xbdefcf39	-0.117094465
213	0xbd5c8325	-0.053836007
214	0xbda5185b	-0.08061286
215	0xbd726fee	-0.059188776
216	0xbd6f3b26	-0.058406018
217	0x3bc4f336	0.0060104383
218	0xbd098a12	-0.03357894
219	0xbd43477b	-0.04767559
220	0x3b331447	0.0027325319
221	0x3e05bd3d	0.1306047
222	0xbd16a76e	-0.036780767
223	0xbda9c352	-0.082892075
224	0xbdf3613e	-0.11883782
225	0xbd504c73	-0.050854158
226	0xbdb9a37c	-0.09064385
227	0xbd1b795b	-0.03795753
228	0xbd9e9267	-0.07742768
229	0xbdd206d8	-0.102552116
230	0xbd315556	-0.043294273
231	0x3d386c24	0.045025006
232	0xbd9ac972	-0.07557954
233	0x3d5f38f0	0.05449766
234	0xbdfb79a9	-0.12279064
235	0xbda0f289	-0.0785876
236	0xbcdff4a3	-0.027338332
237	0xbbfdc331	-0.007744216
238	0x3ce182ba	0.027528156
239	0xbd8f3636	-0.06992762
240	0xbdec6dbe	-0.11544369
241	0xbd342475	-0.04398008
242	0xbc4918bf	-0.012273966
243	0xbd7957c7	-0.060874727
244	0xbd651a77	-0.055933442
245	0xbd17aed0	-0.03703195
246	0xbd4cf0b5	-0.050034244
247	0xbda7a7c4	-0.08186296
248	0xbcc18c9e	-0.023626622
249	0xbcac12da	-0.021005083
250	0xbd98f410	-0.07468426
251	0xbd8bc3e2	-0.06824471
252	0xbc7493a5	-0.014927779
253	0xbd4131b3	-0.047166537
254	0x3c3d3cca	0.011550138
255	0xbdaca2a8	-0.08429462

gconv.1.weight f4 [3, 16, 16]
0	0xbf0a8487	-0.5410847
1	0x3e5bb620	0.21456194
2	0xbea65d24	-0.32492936
3	0xbe58cfb3	-0.21172981
4	0xbdbe2751	-0.09284843
5	0x3f135821	0.5755635
6	0xbe33ae99	-0.17547072
7	0xbe186176	-0.14880928
8	0x3e408e7f	0.18804358
9	0xbb6c9496	-0.0036099306
10	0x3d3c3c7b	0.045956116
11	0x3eb017b5	0.34393087
12	0xbe64043b	-0.22267239
13	0xbeeacebe	-0.45860857
14	0xbe64d1e0	-0.22345686
15	0x3e2701b8	0.1630925
16	0xbe4e2e96	-0.20134959
17	0xbe0362d5	-0.1283067
18	0xbee7f62a	-0.45304996
19	0xbf090eba	-0.53538096
20	0x3dffea29	0.124958344
21	0xbe3116c7	-0.17293845
22	0xbcbd3871	-0.023098202
23	0xbeb960d8	-0.36206698
24	0xbed9080e	-0.42388958
25	0xbf09414c	-0.5361526
26	0xbdd0340f	-0.101661794
27	0x3e69a4f7	0.22816835
28	0xbe6f7022	-0.23382619
29	0xbe43594e	-0.19077036
30	0xbe67ee59	-0.22649516
31	0xbef5f191	-0.48035863
32	0x3e92ce00	0.2867279
33	0xbdac23a3	-0.08405235
34	0xbd430156	-0.047608696
35	0x3e5f5c73	0.2181261
36	0x3efa7ece	0.4892487
37	0x3de4ae34	0.11166039
38	0xbe07226c	-0.13196725
39	0x3e878d2a	0.26474887
40	0xbd15f209	-0.036607776
41	0x3e26a4ad	0.16273756
42	0x3e99b0d2	0.30017716
43	0x3d8c4e80	0.0685091
44	0x3e9319e4	0.2873069
45	0xbddccc44	-0.10781148
46	0xbedca256	-0.43092602
47	0xbc88a87f	-0.016681908
48	0xbe74e0ab	-0.23913829
49	0x3e9e2f98	0.30895686
50	0xbe5fb4b6	-0.2184628
51	0x3ea739ec	0.32661378
52	0xbe33ad63	-0.1754661
53	0xbed90508	-0.4238665
54	0xbce5a244	-0.028031476
55	0x3ebd2c9f	0.36948106
56	0x3e47dc94	0.19517738
57	0xbe529a5a	-0.20566693
58	0x3dd4462c	0.10364947
59	0xbd1effec	-0.038818285
60	0xbeacfa4c	-0.3378471
61	0x3d331eee	0.04373067
62	0xbe0bf370	-0.13667083
63	0xbde322da	-0.11090632
64	0xbd7d3290	-0.0618158
65	0xbe3fef90	-0.1874373
66	0x3e1e8b3f	0.15482806
67	0x3e95851b	0.29203114
68	0xbec53845	-0.38519493
69	0x3e981339	0.29702166
70	0x3e838f81	0.25695422
71	0x3e5b27c3	0.21401887
72	0x3e7e275e	0.24819705
73	0xbecba884	-0.39777005
74	0x3d2fe4c7	0.04294279
75	0xbe019a85	-0.12656601
76	0x3e9ce714	0.3064505
77	0x3bea357a	0.007147488
78	0xbe2fb2a6	-0.17157993
79	0x3eb15ef0	0.34642744
80	0xbec4e551	-0.38456205
81	0x3ef277de	0.47357076
82	0x3e93c02e	0.2885756
83	0xbd903e3e	-0.07043122
84	0x3e6a8108	0.22900784
85	0xbcd02ae2	-0.025411073
86	0x3dde73bf	0.108619206
87	0x3e579945	0.21054561
88	0x3e34fb3f	0.17673968
89	0xbe906837	-0.2820451
90	0x3e123f6e	0.14282009
91	0x3e56db61	0.20982124
92	0x3e5864eb	0.21132247
93	0x3e2bfc4e	0.16795465
94	0x3e7cac43	0.24675088
95	0xbddfb0c6	-0.10922389
96	0xbec9f710	-0.39446306
97	0xbec9fd89	-0.39451244
98	0x3e5c982f	0.21542428
99	0xbdde7892	-0.10862841
100	0x3e2203a3	0.158217
101	0x3e43aaa8	0.19108069
102	0xbe5838f2	-0.21115473
103	0xbeb91294	-0.36146986
104	0xbeb19a7c	-0.34688175
105	0xbe6f863f	-0.23391055
106	0xbe04c372	-0.12965181
107	0x3e790d4f	0.24321483
108	0x3e1b1563	0.15144877
109	0xbefae19e	-0.49000257
110	0x3dd21f9a	0.10259934
111	0x3cd30184	0.025757559
112	0xbe523077	-0.205263
113	0x3f103a92	0.5633937
114	0xbe9a9461	-0.3019133
115	0x3dd8eec0	0.10592413
116	0xbed00651	-0.4062982
117	0xbe72044e	-0.23634455
118	0xbe3306f9	-0.17483129
119	0xbd4d04a8	-0.05005327
120	0xbeadefcf	-0.33972022
121	0xbe5ee1f9	-0.21765889
122	0xbed8f6dc	-0.4237584
123	0x3e983cf4	0.29734004
124	0x3db31e6d	0.08746038
125	0xbdadd2d4	-0.08487478
126	0x3e29c03a	0.16577235
127	0xbea5570c	-0.32292974
128	0xbdc2f2c2	-0.09518959
129	0x3ed588a9	0.41705826
130	0x3e41e143	0.18933587
131	0x3dd23bd6	0.10265319
132	0x3e9472d6	0.28993863
133	0x3defde21	0.117122896
134	0x3ed48399	0.4150665
135	0x3e53f6ad	0.20699568
136	0x3e70772b	0.23482959
137	0xbca0867d	-0.019595379
138	0x3dfae1f5	0.12250129
139	0xbce9d95f	-0.028546033
140	0xbda317e9	-0.07963545
141	0x3de67934	0.112535864
142	0xbe6fef70	-0.23431182
143	0xbe078594	-0.1323455
144	0xbe1c4d87	-0.1526395
145	0x3e940a1a	0.28913957
146	0xbd479a39	-0.048731063
147	0xbe81e9ee	-0.25373787
148	0x3e0c1c14	0.13682586
149	0x3e9117ff	0.2833862
150	0x3e96054b	0.29300913
151	0x3e63e938	0.22256935
152	0x3df102e9	0.11768133
153	0xbc88d63d	-0.01670372
154	0xbe61eea2	-0.22063687
155	0xbe558d45	-0.20854671
156	0xbe9773fc	-0.29580677
157	0x3ea98a1b	0.3311318
158	0xbe130326	-0.1435667
159	0x3e5eb4f2	0.21748713
160	0x3e39f742	0.18160728
161	0xbde4a099	-0.11163444
162	0x3e9d4040	0.3071308
163	0xbc6cb91c	-0.01444843
164	0xbe14a1c5	-0.14514835
165	0xbd208aa6	-0.039194725
166	0x3e9a99d7	0.30195495
167	0xbd774d2e	-0.06037634
168	0x3e7b7829	0.24557556
169	0x3d4e9fc6	0.05044534
170	0x3e89897c	0.26862705
171	0x3e53a1fb	0.2066726
172	0x3d98b5ab	0.074565254
173	0x3e811ce6	0.2521736
174	0xbd3fa7a0	-0.04679072
175	0xbe3d7a4c	-0.18503684
176	0xbdb624e5	-0.08893756
177	0xbe52dfad	-0.20593138
178	0xbde3c36a	-0.11121257
179	0xbed4cca4	-0.41562378
180	0x3d818525	0.063242234
181	0xbe10a1ea	-0.14124265
182	0xbdd0fe2d	-0.1020473
183	0xbd9cb355	-0.07651392
184	0xbe94a445	-0.29031578
185	0xbe9d8dde	-0.307723
186	0x3e93683d	0.28790465
187	0x3e740a4d	0.23832054
188	0x3e3916ea	0.18075147
189	0x3ec23a25	0.37934986
190	0x3ea92bbc	0.3304118
191	0xbe63589b	-0.22201769
192	0xbe1307c1	-0.14358427
193	0xbead35fa	-0.33830243
194	0x3e2386b8	0.1596936
195	0xbd286741	-0.041114096
196	0xbec179cb	-0.37788233
197	0xbed4aef7	-0.41539738
198	0xbec1db1a	-0.37862474
199	0xbe4ead61	-0.20183326
200	0xbe64bb89	-0.22337164
201	0xbce2b505	-0.027674207
202	0x3eb35f04	0.3503343
203	0x3eddb488	0.43301797
204	0xbef80a1b	-0.4844521
205	0x3edbe32f	0.42946765
206	0x3e868be8	0.26278615
207	0xbd08a61a	-0.03336153
208	0x3dab001d	0.08349631
209	0xbdfb00d3	-0.122560166
210	0xbe12cb68	-0.14335406
211	0xbe93b6d8	-0.28850436
212	0x3e5a913d	0.21344467
213	0xbe6f003b	-0.23339932
214	0x3dcf38bb	0.10118242
215	0xbedc1923	-0.42987928
216	0x3e0a34b4	0.13496667
217	0x3dedad08	0.11605269
218	0x3d9eb1e9	0.077487774
219	0x3e6129a2	0.21988538
220	0x3de64d17	0.112451725
221	0xbea91dba	-0.33030492
222	0xbe64e7d4	-0.2235406
223	0x3e6c54ce	0.23079225
224	0xbe301e0a	-0.17198959
225	0xbdcf12c1	-0.10110999
226	0x3eb1079f	0.34576127
227	0xbe0db99f	-0.1384034
228	0xbdb597b1	-0.088668235
229	0xbeb1bfea	-0.3471673
230	0xbdf12493	-0.11774554
231	0xbd928cf4	-0.07155791
232	0xbe7aea55	-0.24503453
233	0x3e1979db	0.1498789
234	0x3da7138f	0.081580274
235	0x3df6e5f4	0.12055579
236	0xbef54972	-0.47907597
237	0xbe82cd97	-0.25547478
238	0x3e23087f	0.1592121
239	0x3d6df91c	0.058098897
240	0xbe6550ba	-0.22394076
241	0xbd309ad5	-0.04311641
242	0xbe29f2de	-0.16596553
243	0x3ed36e37	0.41295025
244	0x3e431c8f	0.19053863
245	0xbe832a1a	-0.25618058
246	0x3de52a45	0.11189703
247	0x3e88cb12	0.2671743
248	0x3e93389b	0.28754124
249	0xbe96528b	-0.2935985
250	0xbc97964f	-0.01850429
251	0xbe1e311e	-0.15448424
252	0xbee4cb3d	-0.44686309
253	0x3ee40c60	0.4454069
254	0xbe94e28c	-0.29079092
255	0x3e8a854f	0.2705483

gconv.2.weight f4 [3, 16, 16]
0	0x3e87249b	0.26395115
1	0xbeb5f726	-0.35540122
2	0x3c4fe723	0.012689385
3	0xbd868190	-0.06567681
4	0xbe87b36d	-0.26504079
5	0x3eb18e9e	0.3467912
6	0xbeba923a	-0.36439687
7	0xbe8fb38f	-0.2806668
8	0x3e76d742	0.24105552
9	0xbea7d453	-0.32779178
10	0xbed83b49	-0.4223273
11	0x3d9efadf	0.077626936
12	0xbe7d8242	-0.2475672
13	0xbe9bfbe2	-0.3046561
14	0x3e9d31e6	0.30702132
15	0xbc40af32	-0.01176052
16	0x3ea2c03c	0.31787288
17	0xbe5a5a65	-0.21323545
18	0x3e3edb20	0.18638277
19	0xbe13362c	-0.14376134
20	0xbea2a806	-0.31768817
21	0x3e17ac02	0.1481171
22	0x3d4616f0	0.04836172
23	0x3e89c2b5	0.26906362
24	0xbebd0b40	-0.36922646
25	0xbe50c802	-0.20388797
26	0x3da0d8c0	0.07853842
27	0xbec28674	-0.37993205
28	0x3ea9331f	0.33046815
29	0xbeb69bbc	-0.3566569
30	0x3e5f5306	0.21809015
31	0xbdad70e7	-0.084688
32	0x3dccf2cd	0.10007248
33	0xbe2f664a	-0.17128864
34	0xbd3b449b	-0.045719724
35	0xbe4a3cd4	-0.19749767
36	0xbd42173a	-0.04738543
37	0xbe26c68e	-0.1628668
38	0x3c8f6a33	0.017506694
39	0xbd0c6225	-0.034273285
40	0x3eb05e8e	0.3444714
41	0x3d349604	0.04408838
42	0xbda8d167	-0.08243065
43	0xbd4ad9c7	-0.049524095
44	0xbea1f70e	-0.316338
45	0x3d2bdc68	0.041958243
46	0x3e233877	0.15939508
47	0xbebcddd7	-0.36888
48	0xbebdad32	-0.370462
49	0x3e946347	0.28981993
50	0xbdbe7e2e	-0.093014106
51	0xbdbcf512	-0.09226431
52	0x3ed73178	0.4202993
53	0x3dfeb1c8	0.12436253
54	0xbe963c81	-0.29343036
55	0x3e850462	0.25979906
56	0x3e2ed7fb	0.17074578
57	0x3ea23752	0.3168283
58	0xbe9e373a	-0.3090151
59	0x3ccbf2b1	0.024895998
60	0xbe337440	-0.17524815
61	0x3dacb8e1	0.084337
62	0xbe916bd0	-0.28402567
63	0xbeb97ef4	-0.3622967
64	0x3eb08a7e	0.3448066
65	0xbd197633	-0.03746624
66	0x3e0a9d70	0.1353662
67	0xbecbc4f2	-0.39798695
68	0x3d954044	0.07287648
69	0xbe815982	-0.25263602
70	0x3e6d394d	0.2316639
71	0x3e27de29	0.16393341
72	0xbe76ddc1	-0.2410803
73	0xbed135fb	-0.40861496
74	0xbe2bde43	-0.16784005
75	0xbda8b2a2	-0.082371965
76	0x3e54b93c	0.20773786
77	0xbe18468d	-0.14870663
78	0xbebd7169	-0.37000588
79	0x3df400dc	0.119142264
80	0x3e933fe3	0.2875968
81	0x3e81b3cc	0.25332487
82	0x3e3c1ae8	0.18369639
83	0xbebb0b77	-0.36532184
84	0x3ec852fb	0.3912581
85	0xbf013de6	-0.50485075
86	0x3e2bb9ce	0.16770098
87	0x3e62e0f3	0.22156124
88	0xbe0e87a1	-0.13918926
89	0x3cbd9cf5	0.023146132
90	0xbe1a476a	-0.15066305
91	0xbe6324c2	-0.2218199
92	0xbea127ae	-0.31475586
93	0xbe685474	-0.22688466
94	0x3c80858d	0.015688682
95	0xbe952abb	-0.29134163
96	0xbec23180	-0.3792839
97	0x3dc6b5c4	0.09702638
98	0x3e084083	0.1330586
99	0x3e000a38	0.12503898
100	0xbdbb2732	-0.09138335
101	0xbe861dd4	-0.26194632
102	0x3e6653f6	0.22492966
103	0x3e9352e9	0.28774193
104	0x3dfc9c48	0.12334496
105	0xbedaef0b	-0.427605
106	0x3e6553b5	0.22395213
107	0xbd422e82	-0.047407635
108	0x3e8140bc	0.252447
109	0xbeafc598	-0.3433044
110	0x3e49e65e	0.19716784
111	0x3e1f9d53	0.15587358
112	0xbe0be6dd	-0.13662286
113	0xbe9e2b18	-0.30892253
114	0xbe8b1ac4	-0.27168858
115	0xbe555b25	-0.2083555
116	0x3ee1f343	0.44130906
117	0xbc272fd9	-0.010204279
118	0x3e7af8db	0.24508993
119	0xbe650798	-0.22366178
120	0x3e91b2d8	0.2845676
121	0xbe668d14	-0.22514755
122	0x3e8d1bba	0.27560216
123	0x3e39206a	0.18078771
124	0xbf033cdf	-0.51264757
125	0x3e919d9f	0.28440568
126	0x3e0b41ae	0.13599274
127	0xbe3e3bdd	-0.18577524
128	0x3e3aea92	0.18253544
129	0xbe36b01e	-0.17840621
130	0x3e71fd10	0.23631692
131	0x3e75b21d	0.23993726
132	0xbe0ab9af	-0.13547395
133	0x3e09cc83	0.13456921
134	0xbcbb2b72	-0.022847865
135	0x3e6ad151	0.2293141
136	0xbe98dde3	-0.29856786
137	0x3e6d00e6	0.23144874
138	0xbe3efbcd	-0.18650742
139	0xbd4b6c6e	-0.049663953
140	0xbdd0ee95	-0.10201756
141	0x3e0003b5	0.12501414
142	0xbcdfed28	-0.027334765
143	0x3d0b8ac3	0.03406788
144	0xbe63f54e	-0.22261545
145	0x3e5255fd	0.20540614
146	0xbe98a5da	-0.29814035
147	0xbef7b132	-0.48377377
148	0xbea9559d	-0.3307313
149	0xbd449db9	-0.04800198
150	0x3da93523	0.08262088
151	0x3e808a16	0.2510535
152	0x3e4d24e2	0.20033601
153	0xbde807a8	-0.11329585
154	0xbdc94f6a	-0.098296
155	0x3d4120a6	0.047150277
156	0x3d060135	0.032715995
157	0x3dac9de0	0.0842855
158	0x3eada730	0.33916616
159	0x3d218a6e	0.039438657
160	0x3db5cb70	0.08876693
161	0xbd8760e3	-0.066102766
162	0x3dddac43	0.10823872
163	0xbc1c6acf	-0.0095469495
164	0xbe2778e9	-0.16354717
165	0x3a338876	0.00068486424
166	0xbd79d4c5	-0.06099393
167	0x3e92b8ea	0.28656703
168	0xbde7da1a	-0.113208964
169	0x3e96185e	0.29315466
170	0xbe4f5d7e	-0.20250508
171	0x3c6c44cc	0.014420699
172	0x3e028511	0.12746073
173	0xbe82e55e	-0.25565618
174	0x3d94a5f6	0.07258217
175	0xbe5aaf22	-0.2135587
176	0x3da732b5	0.081639685
177	0x3ebf1d63	0.37327108
178	0xbe959652	-0.29216248
179	0x3ea4f440	0.32217598
180	0xbd6108e0	-0.054940104
181	0xbeb4cca0	-0.35312366
182	0xbe9c3a4a	-0.3051322
183	0x3e27d56e	0.1639001
184	0xbe98336b	-0.2972673
185	0xbe943d5c	-0.28953063
186	0x3d44acc0	0.04801631
187	0x3dd9650f	0.106149785
188	0xbe80a182	-0.2512322
189	0x3e9d0b42	0.30672652
190	0xbd4288ad	-0.047493625
191	0x3d27e313	0.04098804
192	0xbe062c2c	-0.13102788
193	0x3d03c4c6	0.03217008
194	0xbeb2873c	-0.348688
195	0x3bcf2080	0.006321013
196	0xbe2d5652	-0.1692746
197	0x3d373b45	0.04473426
198	0xbefa0f5f	-0.48839852
199	0xbe38db78	-0.1805247
200	0x3e853a53	0.2602106
201	0x3db47c00	0.088127136
202	0x3eca1805	0.3947145
203	0xbe2b54f3	-0.16731624
204	0xbe440864	-0.19143826
205	0xbedf4046	-0.43603724
206	0xbcf10741	-0.029422404
207	0x3e798e3c	0.24370664
208	0x3da2efb8	0.07955879
209	0x3ea6bb87	0.32564947
210	0xbd806716	-0.06269662
211	0xbebac245	-0.3647634
212	0xbe2cf181	-0.16889001
213	0xbe2b7788	-0.16744816
214	0xbed6e7e0	-0.41973782
215	0x3d12997c	0.035790905
216	0xbe8907ec	-0.26763856
217	0xbe4ba2c3	-0.19886307
218	0x3d988a6c	0.07448277
219	0xbeb07cb8	-0.34470153
220	0xbeb3530a	-0.3502429
221	0xbefbbfca	-0.4916976
222	0xbd65f3f6	-0.056140862
223	0xbd2e995b	-0.04262672
224	0x3dfaac9f	0.12239956
225	0x3e41f939	0.18942727
226	0x3e241a17	0.16025577
227	0xbe8f21fe	-0.2795562
228	0xbe8cfcf6	-0.27536744
229	0x3e0fcdf7	0.14043413
230	0xbe99e95c	-0.30060852
231	0xbbe39f5f	-0.0069464887
232	0x3ec09677	0.37614796
233	0x3e5c87c1	0.21536161
234	0xbdf75ba6	-0.120780274
235	0xbe11041c	-0.14161724
236	0xbcd4aab3	-0.025960302
237	0xbe5db58c	-0.21651286
238	0xbee51b37	-0.44747326
239	0x3e942539	0.2893465
240	0x3e22a676	0.15883812
241	0xbeba1639	-0.3634508
242	0xbe40412d	-0.18774863
243	0xbdd89d50	-0.1057688
244	0x3e8823b2	0.26589733
245	0xbe9b244c	-0.3030113
246	0xbb15cb99	-0.002285695
247	0x3e85feee	0.26171058
248	0x3e217c8a	0.15770164
249	0x3eb1b948	0.3471167
250	0x3d231dbb	0.039823275
251	0xbe9efed0	-0.31053782
252	0x3ed91984	0.4240228
253	0xbe59ea75	-0.21280845
254	0x3ea85b5c	0.32882202
255	0x3dba0a8a	0.090840414

gconv.3.weight f4 [3, 16, 16]
0	0xbe26f5db	-0.16304724
1	0x3e6dc5f7	0.23220049
2	0x3ec74a1b	0.38923725
3	0xbe1723ee	-0.147598
4	0xbe87bcb0	-0.26511145
5	0x3e313507	0.17305385
6	0xbeb2e819	-0.349427
7	0xbe6d9389	-0.23200811
8	0x3dd29e90	0.1028415
9	0x3de4d334	0.11173096
10	0x3e8d3926	0.27582663
11	0x3e80f52e	0.25187057
12	0x3e916684	0.28398526
13	0xbe8298c1	-0.25507167
14	0x3e14d0a5	0.14532717
15	0xbe1f9a46	-0.15586194
16	0xbe1d1077	-0.15338312
17	0x3dd9c791	0.106337674
18	0x3e4cd33f	0.20002459
19	0xbe221723	-0.15829138
20	0xbeca8f06	-0.39562243
21	0xbe9dd13e	-0.30823702
22	0x3e4ec3ea	0.20191923
23	0x3db40a6e	0.08791052
24	0x3dbd92de	0.09256528
25	0x3d8a817c	0.067629784
26	0x3e05492e	0.13016197
27	0x3d80c4f9	0.062875696
28	0x3ebec141	0.37256816
29	0x3e9db945	0.30805412
30	0xbedf79c1	-0.43647578
31	0x3e441864	0.1914993
32	0xbd55689f	-0.052101728
33	0x3d016ede	0.03159987
34	0x3ece078e	0.4024014
35	0x3eb930d4	0.36170065
36	0x3ec6770d	0.38762704
37	0x3d700038	0.05859396
38	0xbe83c92a	-0.25739413
39	0x3e5baaa4	0.21451813
40	0x3e4fb307	0.20283137
41	0x3eb22c3d	0.34799376
42	0xbe20c395	-0.15699609
43	0x3e936166	0.28785247
44	0x3e7324ce	0.23744509
45	0xbdcd9444	-0.10038045
46	0xbe26efcf	-0.16302417
47	0x3dfc321d	0.12314246
48	0x3e2a214b	0.16614263
49	0x3e92e3ad	0.28689328
50	0x3dbc7502	0.09202005
51	0xbec1a556	-0.37821454
52	0xbdf3d9eb	-0.11906799
53	0xbd6afa73	-0.057367753
54	0x3ea7995b	0.32734188
55	0xbeed554d	-0.46354142
56	0xbba42b87	-0.0050100717
57	0xbecb5767	-0.3971512
58	0xbe18b9c5	-0.14914615
59	0xbe157430	-0.14595103
60	0xbd4ea108	-0.05044654
61	0x3eb660fb	0.35620865
62	0xbede07f8	-0.43365455
63	0x3e18dbbb	0.1492757
64	0xbc97b1a5	-0.018517325
65	0x3e12eaaf	0.14347337
66	0xbe773a99	-0.24143447
67	0x3e9cd4f7	0.3063123
68	0xbe89a90d	-0.26886788
69	0xbe9d6b94	-0.30746138
70	0x3e8a22c2	0.26979643
71	0xbe0462c1	-0.12928297
72	0x3ea5e63f	0.32402226
73	0xbda8c0bd	-0.08239887
74	0x3e1cea50	0.15323758
75	0x3dbea510	0.09308827
76	0xbecd1a18	-0.4005897
77	0x3e89ed83	0.2693902
78	0x3e0f3e7a	0.13988677
79	0xbe9eedc4	-0.31040776
80	0x3d01d062	0.03169287
81	0x3eaf2ce9	0.3421395
82	0x3ec86a30	0.39143515
83	0x3e9d6806	0.30743426
84	0x3c752203	0.014961722
85	0x3d792a7d	0.060831536
86	0xbd54cc02	-0.05195237
87	0xbe80dba0	-0.2516756
88	0x3e593070	0.21209884
89	0x3dd3d42b	0.10343202
90	0x3ecc8043	0.39941606
91	0xbceddb5b	-0.02903526
92	0x3ec6cafa	0.38826734
93	0x3e69c8b7	0.22830473
94	0xbe4e5737	-0.20150457
95	0xbe603377	-0.21894632
96	0xbc370bd0	-0.01117225
97	0x3e215f0f	0.15758918
98	0xbe372648	-0.17885697
99	0x3d0eda4b	0.03487615
100	0x3d84341e	0.06455253
101	0x3ec6602f	0.38745257
102	0x3e041691	0.12899233
103	0xbdabb58c	-0.08384237
104	0xbee4cefe	-0.44689173
105	0x3e79ebcf	0.2440636
106	0xbde31835	-0.110886015
107	0xbec54704	-0.38530743
108	0x3cc904e5	0.024538467
109	0x3eb8292a	0.35968906
110	0x3d524b79	0.051341508
111	0xbe0a4ed3	-0.13506632
112	0x3ea158eb	0.31513152
113	0xbece995f	-0.40351388
114	0x3d830236	0.06396906
115	0x3e94dcc5	0.29074684
116	0xbebf4063	-0.3735381
117	0x3d8fbb60	0.07018161
118	0xbe322989	-0.17398657
119	0x3f030922	0.5118581
120	0x3eab0b25	0.3340694
121	0xbe4179f5	-0.18894179
122	0xbeb6087c	-0.35553348
123	0x3e1c0329	0.1523558
124	0xbe2f6e6b	-0.17131965
125	0x3d5bb59c	0.053639993
126	0x3e2da54d	0.16957588
127	0x3e384e9c	0.17998737
128	0xbe46eea3	-0.1942697
129	0xbe8bccec	-0.2730478
130	0xbe5ef689	-0.21773733
131	0x3e9f2317	0.3108146
132	0x3e50478e	0.20339796
133	0x3e9be798	0.3045013
134	0x3d6a748c	0.057240054
135	0x3da63d71	0.08117188
136	0x3ee061e7	0.43824694
137	0x3e63d7d9	0.22250308
138	0x3ead8165	0.33887783
139	0x3d4cb236	0.049974643
140	0xbdfdf904	-0.124010116
141	0x3e41276c	0.18862695
142	0xbe27c6f6	-0.16384491
143	0xbe271fcc	-0.16320723
144	0xbea73a7f	-0.32661816
145	0x3e3d7f7b	0.18505661
146	0x3e10da33	0.14145736
147	0x3e8e6783	0.27813348
148	0xbeb42867	-0.35187075
149	0xbec2a167	-0.38013765
150	0xbda73de2	-0.081661
151	0xbec28e6a	-0.37999278
152	0xbd83e174	-0.06439486
153	0xbd64b6dc	-0.05583845
154	0xbe4318a4	-0.19052368
155	0xbe32074d	-0.17385598
156	0x3e951855	0.29120126
157	0xbe47ed97	-0.19524227
158	0xbeb9fdba	-0.3632639
159	0xbe8a6132	-0.2702728
160	0xbeee2730	-0.46514273
161	0x3ef0060d	0.46879616
162	0x3e805ae8	0.25069356
163	0xbcb2b202	-0.021813396
164	0xbe38ac35	-0.18034442
165	0xbeb5e24e	-0.3552422
166	0xbee2dfe7	-0.4431145
167	0x3e69e297	0.22840343
168	0xbddf1a65	-0.10893706
169	0xbd3327ed	-0.043739248
170	0x3f23a47e	0.6392287
171	0xbd0b1b77	-0.03396174
172	0x3e20a031	0.15686108
173	0x3e70e4db	0.23524801
174	0x3e0433b2	0.12910345
175	0x3dc3baf1	0.095571406
176	0x3d64c33d	0.055850256
177	0xbdb20a31	-0.0869335
178	0xbeb8e951	-0.36115506
179	0x3e3b7366	0.1830574
180	0xbdf3bbf0	-0.119010806
181	0xbdd5aa52	-0.10432877
182	0x3e5ad481	0.21370126
183	0xbeb2e87c	-0.34942997
184	0xbebb0195	-0.36524644
185	0xbec0d6b0	-0.37663794
186	0x3eab68b4	0.3347832
187	0x3ec84fcf	0.3912339
188	0x3da7ec37	0.08199351
189	0xbe4b977d	-0.19882007
190	0x3ebdb838	0.3705461
191	0xbe90af66	-0.28258818
192	0x3de56667	0.11201172
193	0xbe783f58	-0.24242914
194	0x3eb72b92	0.3577543
195	0xbe0811d7	-0.13288055
196	0xbdb0b7d5	-0.08628813
197	0xbd8f2701	-0.06989861
198	0xbd030742	-0.031989343
199	0x3e6ca2aa	0.23108926
200	0x3efb0aeb	0.49031767
201	0xbdc45a04	-0.095874816
202	0x3d8a8e3a	0.06765409
203	0xbe761797	-0.24032436
204	0xbe19647c	-0.14979738
205	0xbd4413bd	-0.047870386
206	0xbe1ff804	-0.15621954
207	0xbd422670	-0.047399938
208	0x3e429a96	0.19004282
209	0x3e26a3f7	0.16273485
210	0x3e32747a	0.17427245
211	0x3d312a7d	0.04325341
212	0xbe9875a0	-0.2977724
213	0xbd5df1a3	-0.05418552
214	0xbea66ddc	-0.3250569
215	0x3db289a8	0.08717662
216	0xbe20a39c	-0.15687412
217	0xbca04fa8	-0.019569233
218	0x3e6957dc	0.22787422
219	0x3ea7cea6	0.32774848
220	0xbde85d93	-0.11345973
221	0xbeb31492	-0.3497663
222	0xbe12537f	-0.14289664
223	0xbde37068	-0.11105424
224	0xbe3fad80	-0.18718529
225	0x3e54b755	0.2077306
226	0xbc3dc321	-0.011582167
227	0xbe96bd20	-0.29441166
228	0x3a69ada9	0.0008914122
229	0x3e662519	0.22475089
230	0xbe5b76f7	-0.214321
231	0x3eed4fa5	0.46349826
232	0x3db1bf88	0.0867911
233	0x3e4474ad	0.19185133
234	0x3eb4783b	0.3524798
235	0xbe070bd1	-0.13188101
236	0x3ee8b3da	0.45449716
237	0xbda2a673	-0.07941904
238	0x3ec2e3b1	0.3806434
239	0x3e1ef8d1	0.15524603
240	0x3e7649c7	0.24051581
241	0x3dd34f76	0.1031789
242	0x3d152b35	0.03641816
243	0x3ecff63c	0.4061755
244	0xbc21f261	-0.009884448
245	0xbe848c1d	-0.25888148
246	0xbdd743ae	-0.10510956
247	0xbe75b4eb	-0.23994796
248	0xbe982a0e	-0.29719585
249	0x3e5db712	0.21651867
250	0x3e82c7ba	0.25543004
251	0xbe614f60	-0.22002935
252	0xbe4d6868	-0.20059359
253	0x3d0450ed	0.03230374
254	0xbceebbcd	-0.029142285
255	0x3d0df7cc	0.034660146

cls.0.weight f4 [256, 64]
0	0x3c129b40	0.008948147
1	0xbe4f458b	-0.20241372
2	0x3dee01e5	0.11621455
3	0xbe27e623	-0.16396384
4	0xbe876242	-0.26442152
5	0x3d727b7d	0.0591998
6	0x3e4e8f24	0.20171791
7	0xbd4ff497	-0.05077037
8	0x3c9004f6	0.01758049
9	0x3c0f327a	0.008740062
10	0xbda54244	-0.0806928
11	0x3e1362bf	0.14393137
12	0xbe3a5313	-0.18195753
13	0x3d969443	0.073524974
14	0xbe1fb2b7	-0.15595518
15	0xbea85032	-0.32873684
16	0x3e1360c5	0.14392383
17	0x3ea6f8e9	0.32611778
18	0x3e277101	0.16351701
19	0x3e3e5b62	0.18589547
20	0xbdbf47b3	-0.093398474
21	0x3d4a9800	0.049461365
22	0x3cd3a773	0.025836682
23	0x3d71a5f9	0.058996174
24	0xbd840860	-0.0644691
25	0x3e964dc8	0.29356217
26	0xbd125687	-0.03572705
27	0xbe7b8c5f	-0.24565266
28	0x3e5d07b1	0.21584965
29	0xbd53f8d9	-0.05175099
30	0x3e3aa5c3	0.18227296
31	0xbd050912	-0.032479353
32	0x3e390325	0.18067606
33	0xbe572908	-0.21011746
34	0x3e15f7f4	0.14645368
35	0xbcdeb383	-0.027185207
36	0x3e48094d	0.19534798
37	0xbd08cd6e	-0.033399038
38	0x3e3b135c	0.18269104
39	0x3e8beb27	0.27327845
40	0xbdc58dfc	-0.09646222
41	0x3db4565a	0.08805533
42	0x3d29ea7b	0.041483384
43	0xbd366739	-0.044532035
44	0x3e3ce890	0.1844809
45	0x3de633c2	0.11240341
46	0x3d6d0f0a	0.05787567
47	0x3e29959d	0.16560979
48	0x3e2651de	0.16242167
49	0xbe179fb5	-0.14807017
50	0x3eaf1962	0.34199053
51	0xbdc06226	-0.0939372
52	0x3b21f06b	0.002470995
53	0x3dadae12	0.08480467
54	0xbe549934	-0.20761567
55	0x3d2a155e	0.041524284
56	0x3d1dd83d	0.0385363
57	0xbd3367f2	-0.0438003
58	0x3e45711e	0.19281432
59	0x3df98526	0.12183599
60	0x3d9647f6	0.07337944
61	0x3ec09517	0.37613747
62	0x3dd6fa0b	0.10496911
63	0xbdf1ecea	-0.11812766
64	0xb88472aa	-6.315608e-05
65	0xbe83cbf3	-0.25741538
66	0xbe739639	-0.23787774
67	0xbc0d41fe	-0.008621691
68	0xbd93e9fa	-0.07222362
69	0x3d815a1c	0.06316015
70	0xbe1fa01c	-0.1558842
71	0x3be4308e	0.006963796
72	0xbe115ea5	-0.1419626
73	0xbcabdff5	-0.020980814
74	0xbe0da681	-0.13833047
75	0x3cf66377	0.030076725
76	0xbd947e09	-0.07250602
77	0xbe2dd482	-0.16975597
78	0xbe24e9dd	-0.16104837
79	0xbe143768	-0.14474261
80	0xbd1d33d1	-0.038379494
81	0xbd224a54	-0.039621666
82	0xbd1c87f2	-0.038215585
83	0xbe8a0f6e	-0.26964897
84	0xbe1cf992	-0.15329579
85	0x3c529d4b	0.012854884
86	0xbc4f6d86	-0.01266039
87	0xbe015031	-0.12628247
88	0xbb94260f	-0.0045211385
89	0xbe5725d3	-0.21010523
90	0x3ef2aacc	0.47395933
91	0x3dc7486e	0.09730612
92	0xbd5c0479	-0.053715203
93	0x3ea38477	0.31937
94	0x3d840cd0	0.06447756
95	0xbe8c4a18	-0.2740028
96	0xbd010453	-0.031498265
97	0x3dcf99f9	0.1013679
98	0x3c1a9f60	0.009437412
99	0x3e1cec43	0.15324502
100	0x3e411b34	0.18858033
101	0xbe37352d	-0.17891379
102	0x3d3d2619	0.04617891
103	0x3d92ec49	0.07173974
104	0xbda560ae	-0.08075081
105	0x3e1c1ccf	0.15245365
106	0xbc2f88bd	-0.010713753
107	0xbe6b60eb	-0.2298619
108	0x3e2390dc	0.15973228
109	0xbd2ccedb	-0.04218946
110	0xbd51f2a6	-0.0512568
111	0xbb320a37	-0.0027166733
112	0xbd5fe9fd	-0.054666508
113	0xbe9f7683	-0.31145105
114	0xbeba719e	-0.36414808
115	0xbe524f57	-0.20538078
116	0xbd004e5d	-0.031324733
117	0x3e35c58a	0.17751136
118	0x3d7f67f1	0.062354986
119	0x3e1d4254	0.15357333
120	0xbe81f4a5	-0.2538196
121	0x3ce1ade8	0.027548745
122	0xbde7646c	-0.11298451
123	0xbef010f1	-0.46887925
124	0xbd4f7420	-0.050647855
125	0xbe0e776c	-0.13912743
126	0xbe636950	-0.22208142
127	0xbe6b97b1	-0.23007084
128	0xbd01be2d	-0.031675506
129	0xbcbad410	-0.022806197
130	0x3d54fedf	0.052000877
131	0x3d79d44f	0.06099349
132	0xbdba7b61	-0.09105564
133	0x3eb414e4	0.35172188
134	0x3d1eb536	0.038747035
135	0xbc653e84	-0.013991956
136	0x3c9b1c04	0.018934257
137	0x3d841f8d	0.0645133
138	0x3de0832d	0.1096252
139	0xbd4c8765	-0.04993381
140	0x3df4b30d	0.11948214
141	0x3e53560d	0.20638295
142	0xbe244d55	-0.16045125
143	0xbe35beac	-0.17748517
144	0xbd87913b	-0.066194974
145	0x3e47e9d3	0.1952279
146	0x3d4e2dd5	0.050336678
147	0xbe031b2b	-0.12803333
148	0xbd54666e	-0.051855497
149	0xbc5365d8	-0.012902699
150	0xbe04bd28	-0.12962782
151	0xbd72b79a	-0.059257127
152	0xbe49fdd7	-0.19725738
153	0x3db7f73c	0.08982703
154	0x3e7a19dc	0.24423927
155	0x3e94fbcc	0.29098356
156	0x3e946748	0.28985047
157	0xbe0cdf65	-0.13757093
158	0xbe6fe482	-0.23427013
159	0xbde2a727	-0.11067038
160	0x3e916a36	0.28401345
161	0xbd88e3d8	-0.06684083
162	0xbe0c892b	-0.137242
163	0xbd39eb25	-0.045390267
164	0x3e20819c	0.15674442
165	0xbc173a8f	-0.00923027
166	0x3d0c66f4	0.03427787
167	0xbdadc63c	-0.08485076
168	0x3d84a968	0.06477624
169	0x3ec83748	0.39104676
170	0xbe07afcb	-0.13250653
171	0xbbc169fb	-0.0059025264
172	0x3e109076	0.14117607
173	0xbd801a48	-0.06255013
174	0xbd288896	-0.041145884
175	0xbe243eb6	-0.16039547
176	0x3d8eed7b	0.069788896
177	0xbe5b6c68	-0.21428072
178	0x3e7a262b	0.24428622
179	0x3dc82598	0.097727954
180	0x3e189980	0.14902306
181	0x3d8c5501	0.06852151
182	0xbd030c00	-0.031993866
183	0xbd3f777f	-0.04674482
184	0x3d21d664	0.0395111
185	0xbbb444f5	-0.0055013844
186	0xbe3fb15d	-0.18720002
187	0xbde8467f	-0.11341571
188	0x3e60f896	0.21969828
189	0xbe179c67	-0.14805757
190	0xbe2d8205	-0.1694413
191	0xbdc249f1	-0.094867595
192	0x37913429	1.7309636e-05
193	0xbcd6648a	-0.026170988
194	0x3a20cd3e	0.0006134099
195	0x3a85c3d6	0.0010205458
196	0xbd71f666	-0.059072874
197	0xbc8544aa	-0.016268093
198	0xbd1cf190	-0.03831631
199	0xbcc5a47f	-0.02412629
200	0xbd3dcedf	-0.046339866
201	0xbd57c605	-0.05267908
202	0x3bc9b7ac	0.0061559286
203	0xb8ad1371	-8.252904e-05
204	0x3cb68f23	0.02228505
205	0xbde487d4	-0.1115872
206	0x3dbccc85	0.092186965
207	0xbe092ed1	-0.13396765
208	0x3c25d8df	0.010122507
209	0x3bb2c620	0.0054557472
210	0xbdbece2d	-0.09316669
211	0x3e02ca54	0.12772495
212	0xbdde1b7d	-0.10845087
213	0xbbab25f5	-0.0052230307
214	0xbe26132c	-0.16218251
215	0xbe8a3972	-0.26996952
216	0xbcf673ed	-0.030084575
217	0xbd013a7e	-0.031549923
218	0x3dc42ac2	0.09578468
219	0xbde9aae4	-0.11409548
220	0x3cdbc94b	0.026829382
221	0xbd9fc3a5	-0.07800988
222	0x3d5e8ac7	0.054331567
223	0x3e278668	0.16359866
224	0x3cfa5699	0.030558871
225	0xb9f17627	-0.00046055132
226	0x3c9f920d	0.019478822
227	0x3c8ba7d2	0.017047796
228	0xbe3b72ae	-0.18305466
229	0x3daba40b	0.08380898
230	0x3d484d4a	0.048901834
231	0x3e1393e8	0.1441189
232	0x3e10c617	0.14138065
233	0x3c6795c9	0.014134833
234	0xbe2ef32e	-0.17084953
235	0xbd84f01a	-0.06491108
236	0x3d999f89	0.07501132
237	0x3bed0ba0	0.007234052
238	0x3d57964c	0.05263357
239	0xbd02c7b1	-0.03192872
240	0x3e448f72	0.19195345
241	0x3e2e8253	0.17041902
242	0xbd8463b7	-0.064643316
243	0xbdd94600	-0.106090546
244	0xbc780774	-0.015138496
245	0x3d9c314b	0.076265894
246	0xb80d75fd	-3.3726905e-05
247	0xbda030c8	-0.07821804
248	0xbe10df04	-0.14147574
249	0x3deee176	0.11664097
250	0xbd8afd91	-0.06786645
251	0xbdd14ae4	-0.102193624
252	0xbc4dec8c	-0.012568604
253	0xbe6c0cfb	-0.23051827
254	0x3bf01974	0.007327253
255	0x3ddf02c2	0.10889198

cls.0.bias f4 [256]
0	0xbc64b60a	-0.013959417
1	0xbe0bda25	-0.13657434
2	0xbd0872c1	-0.033312563
3	0xbe092af7	-0.13395296
4	0xbda5e8b2	-0.08101024
5	0x3ca1f2a1	0.019769015
6	0x3d5d81e0	0.054078937
7	0xbd376cde	-0.04478156
8	0xbdb74ba9	-0.08949978
9	0x3d457639	0.04820845
10	0xbda35f31	-0.07977141
11	0x3d60146f	0.054706987
12	0x3d9956ec	0.07487282
13	0xbd819d08	-0.063287795
14	0x3cc7c213	0.024384534
15	0xbd906b68	-0.07051736
16	0x3d2f8b4a	0.042857446
17	0x3c0f402a	0.008743325
18	0x3d181cf9	0.037137005
19	0x3d28af52	0.041182823
20	0xbd6ee43b	-0.058323126
21	0xbd5ab090	-0.05339104
22	0xbd89ec85	-0.06734566
23	0x3d8df490	0.06931412
24	0x3d502fa1	0.050826672
25	0xbda8b89c	-0.082383364
26	0xbd99676f	-0.074904315
27	0xbdaa4de2	-0.08315636
28	0x39b84145	0.00035143844
29	0x3d835a78	0.0641374
30	0xbd3fcd98	-0.04682693
31	0x3d9f75ee	0.07786165
32	0x3b59dfb8	0.003324492
33	0xbd0dc0d1	-0.034607712
34	0xbd6ffabc	-0.05858873
35	0x3d77f03c	0.06053184
36	0xbd0201c6	-0.031739973
37	0x3c49d576	0.012318959
38	0xbd0fef6e	-0.035140447
39	0x3d509129	0.050919686
40	0xbd593ce7	-0.053036597
41	0x3d3daa8f	0.046305235
42	0xbd72e76e	-0.05930274
43	0x3d80748e	0.06272231
44	0xbda86450	-0.08222258
45	0xbd66e1b1	-0.05636758
46	0xbd86f386	-0.06589417
47	0xbd868487	-0.06568246
48	0x3d336e1b	0.043806177
49	0x3d7888d7	0.060677376
50	0xbcc8713a	-0.024468053
51	0x3d427b55	0.0474809
52	0xbd88a60e	-0.066722974
53	0x3d28da6a	0.04122392
54	0xbc07fac7	-0.008299536
55	0xbd96c8df	-0.07362532
56	0x3d57953a	0.052632548
57	0x3d1293c6	0.03578546
58	0x3d227f9e	0.039672486
59	0xbd1c3562	-0.038136847
60	0xbc85ff96	-0.016357224
61	0xbd3c466b	-0.045965593
62	0xbd462709	-0.04837707
63	0xbd8fa0bf	-0.07013082
64	0x3d72b4ed	0.059254576
65	0xbd626d57	-0.055280056
66	0x3d8f03da	0.069831565
67	0x3c3f2510	0.011666551
68	0xbd4e387e	-0.050346844
69	0x3d4a66d5	0.049414475
70	0xbd889366	-0.06668739
71	0xbd891981	-0.066943176
72	0xbd937073	-0.07199182
73	0xbdf10491	-0.11768449
74	0x3c84a6dd	0.016192848
75	0xbd380657	-0.04492792
76	0xbdbb4d84	-0.09145644
77	0xbd7fb2fd	-0.062426556
78	0x3da32cf4	0.079675585
79	0x3d0ab72c	0.033866093
80	0x3cef50eb	0.02921339
81	0x3cbc60b2	0.022995327
82	0xbc57a786	-0.013162499
83	0x3d6f9dd5	0.05850013
84	0x3cbcf371	0.0230653
85	0xbdb8944a	-0.09012659
86	0x3d2c15f8	0.04201314
87	0x3b846265	0.00404005
88	0x3c35e41d	0.01110175
89	0x3d7b7634	0.061392024
90	0x3d1e2104	0.038605705
91	0xbd3503f8	-0.044193238
92	0x3d825550	0.06363928
93	0xbdea26b4	-0.11433163
94	0xbd62cee6	-0.055373095
95	0xbc72b305	-0.014813189
96	0x3d907b0b	0.070547186
97	0xbd88a245	-0.066715755
98	0xbd421916	-0.047387205
99	0xbd84d487	-0.06485849
100	0xbd41bae8	-0.04729739
101	0x3d98af42	0.07455303
102	0xbd0f1ab1	-0.034937564
103	0x3d606d2e	0.054791622
104	0x3d5c5669	0.053793345
105	0x3c101a9a	0.008795405
106	0xbcec9d0d	-0.028883481
107	0xbd663bbd	-0.056209315
108	0x3d725e7d	0.059172142
109	0x3d0dad2e	0.034588985
110	0xbd6dc449	-0.05804852
111	0xbaaa3e7e	-0.0012988595
112	0xbd7378b1	-0.059441272
113	0x3d61ec8d	0.055157233
114	0x3d3a4b19	0.045481775
115	0xbca871a3	-0.020561999
116	0x3d0698e5	0.032860655
117	0x3cc14c84	0.023596056
118	0xbd9d1c01	-0.07671357
119	0xbda05216	-0.07828157
120	0x3c4d0ec0	0.012515724
121	0xbd603d7b	-0.054746132
122	0xbd8e3059	-0.06942815
123	0xbd858ef1	-0.065214045
124	0xbdf89424	-0.121376306
125	0xbc3ead0d	-0.011637938
126	0x3d36d4bc	0.044636473
127	0xbd08a4ee	-0.033360414
128	0x3b686aaa	0.0035463967
129	0x3d50e4b0	0.050999343
130	0x3d82fde6	0.063960835
131	0x3ddf7e9e	0.10912822
132	0x3ca2b4c7	0.019861592
133	0xbd8f668b	-0.070019804
134	0xbd939b2d	-0.07207332
135	0x3ced74be	0.028986331
136	0x3d7efc89	0.062252555
137	0xbd6295c2	-0.0553186
138	0xbd83c253	-0.06433549
139	0x3d7c5c49	0.061611447
140	0xbd4f2eea	-0.05058185
141	0xbd95e543	-0.07319119
142	0xbc1573d9	-0.0091218585
143	0xbd93e21e	-0.07220863
144	0x3d757bd8	0.05993256
145	0x3da123d9	0.078681655
146	0xbd97c1e8	-0.074100316
147	0xbda360ea	-0.07977469
148	0x3d68f88d	0.05687766
149	0x3d5fe7f0	0.054664552
150	0x3d15cb13	0.03657062
151	0x3d86fd37	0.06591266
152	0xbd95a324	-0.07306507
153	0xbcea3448	-0.028589383
154	0xbd7437df	-0.059623595
155	0x3d6d94e9	0.05800334
156	0xbd95662a	-0.07294877
157	0xbd072272	-0.032991834
158	0xbd8a4b1c	-0.06752607
159	0xbdb13d52	-0.08654274
160	0xbd9e28e0	-0.0772264
161	0x3cd1cd7a	0.025610674
162	0xbd3832bf	-0.04497027
163	0xbd9b7f05	-0.075925864
164	0x3d33cf67	0.043898966
165	0x3d952c69	0.07283861
166	0x3d73ceae	0.059523277
167	0xbda8b25c	-0.08237144
168	0x3d94d83c	0.07267806
169	0xbd43b07e	-0.047775738
170	0xbd5a2aff	-0.05326366
171	0x3d7e57a3	0.062095296
172	0xbd86a2b4	-0.06574002
173	0x3c4bb55f	0.012433379
174	0x3b444bcc	0.0029952405
175	0xbd44439c	-0.04791604
176	0xbd48356c	-0.048879072
177	0xbd8abcc0	-0.067742825
178	0xbdc08058	-0.0939948
179	0x3cda918b	0.026680728
180	0x3cfe6e0e	0.031058338
181	0x3d913818	0.07090777
182	0xbc5b5fd6	-0.013389548
183	0x3d46cfe6	0.04853811
184	0xbd7bfa58	-0.061518043
185	0xbc84fa25	-0.01623256
186	0xbd915df1	-0.07097996
187	0xbd9c4c4c	-0.0763174
188	0x3d832716	0.064039394
189	0xbd4b5b26	-0.049647473
190	0xbdac8881	-0.084244736
191	0x3d797e80	0.060911655
192	0x3cd96575	0.026537636
193	0xbc8b89f0	-0.017033547
194	0xbd6e885c	-0.05823551
195	0xbd715f91	-0.05892903
196	0xbdbe636a	-0.092963055
197	0xbd4ab871	-0.049492303
198	0x3d8c979e	0.06864856
199	0x3d87ff25	0.06640462
200	0x3d362c0c	0.0444756
201	0x3da46a95	0.080281414
202	0x3d2fa52e	0.042882137
203	0xbd99190b	-0.0747548
204	0x3d833969	0.064074345
205	0xbdd20692	-0.102551594
206	0x3d49348f	0.04912239
207	0xbafc5eba	-0.0019254305
208	0xbcc2dadb	-0.023785999
209	0xbda15266	-0.078770444
210	0x3d6f4228	0.0584127
211	0xbd7fccac	-0.06245105
212	0x3ccdeb54	0.025136627
213	0x3d407752	0.046988793
214	0x3d0f685c	0.035011634
215	0xbd6d8c46	-0.057995103
216	0x3d536cc0	0.051617384
217	0xbd9bd80f	-0.07609569
218	0xbd87ebe4	-0.066367894
219	0xbd21075d	-0.039313663
220	0x3d4738d5	0.048638184
221	0x3d9320a9	0.07183964
222	0xbd28adc6	-0.04118135
223	0x3c846a02	0.01616383
224	0xbd877732	-0.066145316
225	0x3d77965e	0.060446136
226	0xbc9cbb6a	-0.019132335
227	0xbd8ca4cb	-0.06867369
228	0x3d1a456b	0.03766386
229	0x3d76f5ef	0.060293134
230	0xbd8f0455	-0.06983248
231	0x3bc77874	0.006087357
232	0xbdb3dd0d	-0.087823965
233	0x3aa6c984	0.0012724851
234	0x3d764465	0.06012382
235	0x3d869dfe	0.06573103
236	0xbd90393f	-0.07042169
237	0x3d45d360	0.048297286
238	0xbda5c872	-0.080948725
239	0x3d43fb9e	0.047847383
240	0xbd9b2419	-0.075752445
241	0x3d059502	0.032612808
242	0x3dad7e41	0.08471347
243	0xbda4d383	-0.08048155
244	0x3d3ac24d	0.045595456
245	0x3d739612	0.05946929
246	0xbcc15dfd	-0.023604387
247	0x3d11cb5f	0.03559434
248	0x3c283491	0.010266439
249	0xbc5366b2	-0.012902902
250	0xbd942140	-0.072329044
251	0xbda1cca5	-0.07900361
252	0xbdcb52b8	-0.09927887
253	0xbd8c3f1f	-0.06847977
254	0x3c3f5fe8	0.011680581
255	0xbd3fe932	-0.04685325

cls.2.weight f4 [256]
0	0x3f77255c	0.9654138
1	0x3f6fb5dd	0.93636876
2	0x3f5f2996	0.8717283
3	0x3f1e6e39	0.61886936
4	0x3f677db4	0.9042618
5	0x3f6e76df	0.9315013
6	0x3f913a22	1.1345866
7	0x3f5fb329	0.8738275
8	0x3f5f118b	0.87136143
9	0x3f433907	0.7625889
10	0x3f71ad5a	0.9440514
11	0x3f6fc174	0.9365456
12	0x3f6b6764	0.91954637
13	0x3f48f394	0.7849667
14	0x3f4e31f2	0.8054496
15	0x3f727d73	0.9472267
16	0x3f57a1d8	0.8423133
17	0x3f702db5	0.93819743
18	0x3f89e6db	1.0773576
19	0x3f703a68	0.9383912
20	0x3f633bfb	0.887634
21	0x3f5130f2	0.8171531
22	0x3f400520	0.7500782
23	0x3f64142b	0.89093274
24	0x3f4e63e8	0.80621195
25	0x3f5ce981	0.862938
26	0x3f58e5d0	0.84725666
27	0x3f1a3683	0.6023943
28	0x3f6fd9e7	0.9369187
29	0x3f8817fe	1.0632322
30	0x3f6cf18c	0.9255607
31	0x3f5376ec	0.82603335
32	0x3f653b5f	0.8954372
33	0x3f71ceed	0.9445637
34	0x3f05e7d6	0.5230688
35	0x3f2846ba	0.6573292
36	0x3f6a6357	0.9155783
37	0x3f69de76	0.91355073
38	0x3f555818	0.83337545
39	0x3f68b4e2	0.90901005
40	0x3f39ebe6	0.7262558
41	0x3f44720e	0.76736534
42	0x3f5d27e1	0.86388975
43	0x3f6e92e7	0.93192905
44	0x3f2c20cc	0.67237544
45	0x3f6d55b9	0.9270893
46	0x3f60156d	0.87532693
47	0x3f58b76f	0.846549
48	0x3f5a42a2	0.85257924
49	0x3f72da94	0.94864774
50	0x3f6f5401	0.93487555
51	0x3fab9304	1.3404241
52	0x3f5f2759	0.87169415
53	0x3f930818	1.1486845
54	0x3f77e5a4	0.9683478
55	0x3f7264bc	0.9468496
56	0x3f52ef5d	0.8239649
57	0x3f63cda4	0.8898566
58	0x3f82254d	1.0167633
59	0x3f41ac61	0.75653654
60	0x3f770ef8	0.96507215
61	0x3f4c21cf	0.7973909
62	0x3f6fea94	0.9371731
63	0x3f088ea4	0.5334265
64	0x3f5a60c7	0.8530392
65	0x3f26d6fb	0.65171784
66	0x3f78bde0	0.97164726
67	0x3f309a44	0.6898539
68	0x3f7371e0	0.95095634
69	0x3f795d98	0.9740844
70	0x3f7bef29	0.98411804
71	0x3f64b6e3	0.89341563
72	0x3f4a68be	0.79066074
73	0x3f5ff590	0.87484074
74	0x3f3f2e83	0.74680346
75	0x3f76887b	0.96302
76	0x3f55afc2	0.8347131
77	0x3f5ecc59	0.8703056
78	0x3f6cbac3	0.92472476
79	0x3f85efd1	1.0463811
80	0x3f6e128d	0.92997056
81	0x3fb45cc4	1.409081
82	0x3f591090	0.847909
83	0x3f619b81	0.88127905
84	0x3f751f4e	0.9575089
85	0x3f4291d2	0.76003754
86	0x3f61e33d	0.88237363
87	0x3f6f7eb2	0.93552697
88	0x3f6188d2	0.88099396
89	0x3f659316	0.8967756
90	0x3f788f20	0.9709339
91	0x3f467098	0.77515554
92	0x3f70a7af	0.94005865
93	0x3f6a6f97	0.9157652
94	0x3f515ad7	0.81779236
95	0x3f57a85a	0.8424126
96	0x3f7a3bf5	0.9774774
97	0x3f66e6fd	0.9019621
98	0x3f3988cd	0.72474366
99	0x3f741bd5	0.9535497
100	0x3f5f5597	0.87239975
101	0x3f5e5dd2	0.8686191
102	0x3f5a5e68	0.853003
103	0x3f6a8ed0	0.91624165
104	0x3f7ab810	0.9793711
105	0x3f52829e	0.82230556
106	0x3f5d0aee	0.863448
107	0x3f5d816a	0.86525595
108	0x3f7692fc	0.9631803
109	0x3f84fc28	1.0389452
110	0x3f38f8f0	0.7225485
111	0x3f6f3eee	0.934554
112	0x3e2b5bc0	0.16734219
113	0x3f751f43	0.95750827
114	0x3f58ba40	0.84659195
115	0x3f530e90	0.82444096
116	0x3f5ade1a	0.8549515
117	0x3fc044aa	1.5020955
118	0x3f747279	0.9548717
119	0x3f7517bb	0.95739335
120	0x3f6dcac5	0.92887527
121	0x3f5341fb	0.82522553
122	0x3f6bface	0.9217957
123	0x3f5d31d4	0.86404157
124	0x3f6a6007	0.91552776
125	0x3f4821e7	0.7817673
126	0x3f4ac4d3	0.7920658
127	0x3f699741	0.9124642
128	0x3f73fbcc	0.95306087
129	0x3f70a79d	0.9400576
130	0x3f723916	0.94618356
131	0x3f8a5863	1.0808223
132	0x3f8be984	1.0930638
133	0x3f37df0b	0.7182471
134	0x3f4bf1f5	0.7966607
135	0x3f695247	0.9114117
136	0x3f64c3e9	0.89361435
137	0x3f6fb1b8	0.9363055
138	0x3f713bb7	0.9423174
139	0x3f74d33a	0.95634806
140	0x3eb1f842	0.34759718
141	0x3f7c4742	0.9854623
142	0x3f7ee542	0.9956857
143	0x3f3907d9	0.722776
144	0x3f7361e6	0.95071256
145	0x3f4e9398	0.8069396
146	0x3f73e47d	0.9527052
147	0x3f74374d	0.9539688
148	0x3f7034ef	0.9383077
149	0x3f685960	0.90761375
150	0x3f654982	0.8956529
151	0x3f74f113	0.9568035
152	0x3f5db547	0.8660473
153	0x3f678df1	0.9045096
154	0x3f278bd2	0.65447724
155	0x3f5af314	0.8552716
156	0x3f67c766	0.9053863
157	0x3f6d9b54	0.92815137
158	0x3f4fced4	0.8117497
159	0x3f6c3ccf	0.92280287
160	0x3f5d9ef2	0.86570656
161	0x3f7dadca	0.99093306
162	0x3f62fe37	0.8866915
163	0x3f3814a1	0.7190648
164	0x3faba8f2	1.3410933
165	0x3f368fac	0.71312976
166	0x3f74ff78	0.95702314
167	0x3f58c48e	0.8467492
168	0x3f69dd03	0.9135286
169	0x3f6f6841	0.93518454
170	0x3ee2df01	0.44310763
171	0x3f6c1c87	0.9223103
172	0x3f40e884	0.7535479
173	0x3f8422af	1.0323085
174	0x3f7f8cd4	0.9982426
175	0x3f71f260	0.9451046
176	0x3f54d30a	0.8313452
177	0x3f411235	0.75418407
178	0x3f6be699	0.9214874
179	0x3fab589e	1.3386419
180	0x3f9e49dc	1.236629
181	0x3f5c875b	0.86144036
182	0x3f47517c	0.7785871
183	0x3f57f0d3	0.84351844
184	0x3f603937	0.875873
185	0x3f89d9c1	1.0769578
186	0x3f696752	0.9117328
187	0x3f6fbfe3	0.9365217
188	0x3f459711	0.77183634
189	0x3f6e80a6	0.9316505
190	0x3f747245	0.9548686
191	0x3f2be5dd	0.6714762
192	0x3f70c296	0.94046915
193	0x3f805d2e	1.0028436
194	0x3f63916c	0.8889377
195	0x3f1668dd	0.5875376
196	0x3f600e4c	0.87521815
197	0x3f5287a1	0.82238203
198	0x3f81e822	1.0148966
199	0x3f658dab	0.89669293
200	0x3f79568b	0.9739768
201	0x3f78a578	0.97127485
202	0x3f1c62c5	0.6108821
203	0x3f64533a	0.89189494
204	0x3f6d119a	0.9260498
205	0x3f21a39b	0.6314027
206	0x3f6dc9f6	0.9288629
207	0x3f9f69e2	1.2454188
208	0x3f6f432f	0.9346189
209	0x3f56284e	0.8365525
210	0x3f70d109	0.9406896
211	0x3dd01af7	0.10161393
212	0x3f673016	0.9030775
213	0x3fa24f0a	1.2680371
214	0x3f486484	0.78278375
215	0x3f626873	0.88440627
216	0x3f6febad	0.9371899
217	0x3f67ca75	0.905433
218	0x3f6be5c7	0.9214749
219	0x3f75111e	0.95729244
220	0x3f5d89e7	0.8653855
221	0x3f65b367	0.8972687
222	0x3f609e15	0.87741214
223	0x3f646296	0.8921293
224	0x3f555848	0.8333783
225	0x3f933459	1.150035
226	0x3f592f51	0.84837824
227	0x3f68e8b1	0.9098006
228	0x3f6ebcac	0.9325664
229	0x3f67c491	0.9053431
230	0x3f75b74a	0.959828
231	0x3f62c2aa	0.88578284
232	0x3f008748	0.5020642
233	0x3f68f070	0.9099188
234	0x3f600c07	0.8751835
235	0x3f5340e2	0.8252088
236	0x3f68a5c3	0.9087793
237	0x3f772c70	0.9655218
238	0x3f5dba5e	0.866125
239	0x3f764d0c	0.96211314
240	0x3f6f9c1e	0.9359759
241	0x3f6e0acb	0.9298522
242	0x3f5bc261	0.85843474
243	0x3f5df715	0.8670514
244	0x3f6a209e	0.9145602
245	0x3f732e4e	0.9499253
246	0x3f62ac73	0.88544387
247	0x3f75a027	0.959475
248	0x3f384bc2	0.719906
249	0x3f74c55c	0.95613647
250	0x3f4ac967	0.79213566
251	0x3f749e32	0.95553887
252	0x3f521623	0.8206503
253	0x3f5200bf	0.8203239
254	0x3f728324	0.94731355
255	0x3f69c384	0.9131396
