医学影像/EV_GCN/save_models/ev_gcn/fold2.pth (torch, 543861 bytes, 20 tensors)

gconv.0.weight f4 [3, 2000, 16]
-0.06134628 -0.12626114 0.016019024 -0.05543671 -0.075321585 -0.04702904 0.0561919 0.03028909
0.12414818 -0.119167455 -0.02470414 -0.08611833 0.046934478 0.048597183 -0.09664341 -0.097572654
-0.04290275 -0.035108574 -0.010077491 -0.08053153 -0.05506627 -0.09447181 0.019881895 0.017169986
-0.033427387 -0.026923079 -0.041227166 -0.06848711 0.014380346 0.04088596 -0.1022781 -0.11520891
-0.008803749 -0.05429403 -0.040173486 -0.08206934 -0.01984219 -0.11111265 0.13066739 -0.0067495625
0.07596187 -0.039102655 -0.039848395 -0.018454721 0.0016105283 0.046393134 -0.010917583 -0.038388055
-0.027141895 0.039005227 -0.054956198 -0.08364242 -0.070844695 -0.11695091 0.07325179 0.106496245
0.090594135 -0.072483994 -0.061575368 -0.11651007 0.037905045 0.07053582 -0.0651223 -0.024446685
-0.039837033 0.0015422308 -0.08555637 -0.008921334 -0.05577625 -0.028363664 0.034823094 0.102337316
-0.071534075 -0.10446378 -0.019212821 -0.055634283 -0.011929385 0.01784861 -0.022060411 -0.11856337
0.014848943 -0.06518842 0.043539077 -0.025238581 -0.05731014 -0.016983015 0.07837388 0.032466
-0.0066119367 0.08162088 -0.042793665 -0.03155799 0.05378667 0.044038415 -0.041348767 -0.060077313
0.022478662 0.087641306 -0.115785435 -0.048820056 -0.032960884 -0.1246933 0.072920755 0.009051385
-0.011353427 -0.10702188 -0.038707428 -0.06575302 -0.013070437 0.10238825 -0.072514094 -0.07392204
-0.02364786 -0.015640702 -0.058923014 -0.1027872 -0.06647882 -0.036541812 0.09489216 0.04951715
0.08368046 -0.004385961 -0.039551258 -0.08368903 0.0067887753 0.01663985 -0.06921206 -0.03505447
-0.0561858 0.054102514 -0.053197563 -0.02017623 -0.052715097 -0.015336081 0.07358228 0.03186938
0.054286487 -0.08444532 -0.019985666 -0.058252797 -0.010394841 0.03407332 -0.030670201 -0.08494147
-0.036995884 0.006999751 -0.08582915 -0.0378655 -0.08750469 -0.08684207 0.102315836 0.02566699
0.063034974 -0.027152834 -0.097686715 -0.071765535 0.060594793 0.06952468 -0.10535005 -0.04948415
-0.03146364 -0.06920916 -0.037399225 -0.102555215 -0.054753046 -0.06462526 0.114718094 0.047379065
0.010263498 -0.036283147 -0.070664845 -0.086245865 -0.013282685 0.082724676 -0.02818595 -0.053990595
-0.0043168394 -0.0026827739 -0.06937944 -0.015439855 -0.073857255 -0.017377999 0.118928544 0.0044331527
-0.01063096 -0.09676117 -0.06456426 -0.124250345 -0.0028896136 0.045395147 -0.053171247 -0.05565443
-0.068584494 -0.055322025 -0.09007355 -0.06115053 -0.02613267 -0.030383488 0.10646462 -0.030510144
0.030762725 -0.029427622 -0.08184826 -0.024387999 -0.019813439 0.09635727 -0.10802102 -0.07408121
-0.073979706 -0.02112682 -0.06465906 -0.0751088 -0.04603992 -0.090843014 0.09020728 0.07859755
0.061307635 -0.05952305 -0.04124726 -0.041375473 0.06838914 0.012445538 -0.09504821 -0.026903223
0.032206554 0.029598758 -0.15236802 -0.100281596 -0.03481886 -0.053441327 0.044270385 -0.027793504
-0.0065031936 -0.10537185 -0.014073083 -0.060131345 -0.026754709 0.11375022 -0.051801845 -0.04053141
-0.047919832 0.042467795 -0.025539743 -0.054936226 -0.052278686 -0.09775247 0.07279114 0.07453985
-0.0039601247 -0.06687774 -0.0341796 -0.07253626 0.009030367 0.015719973 -0.0765815 -0.07127772
00000000: 3d46 7bbd 9a4a 01be 543a 833c 9b11 63bd
00000010: 3442 9abd 86a1 40bd 7a29 663d d320 f83c
00000020: 6741 fe3d 110e f4bd 5660 cabc cf5e b0bd
00000030: 5e3e 403d d70d 473d fbec c5bd 2cd4 c7bd
00000040: cbba 2fbd 02ce 0fbd 101c 25bc b7ed a4bd
00000050: 2b8d 61bd 707a c1bd 5bdf a23c 12a8 8c3c
00000060: 28eb 08bd ca8d dcbc d1dd 28bd f842 8cbd
00000070: 8b9b 6b3c 0978 273d 2e77 d1bd a6f2 ebbd
00000080: 9a3d 10bc 6b63 5ebd f48c 24bd f813 a8bd
00000090: 178c a2bc 078f e3bd accd 053e 6f2b ddbb
000000a0: e691 9b3d 1b2a 20bd 1238 23bd 5b2e 97bc
000000b0: 5d18 d33a ba06 3e3d a9df 32bc cb3c 1dbd
000000c0: ae58 debc f2c3 1f3d c019 61bd b84c abbd
000000d0: 0617 91bd f583 efbd 0905 963d b41a da3d
000000e0: 6b89 b93d 7d72 94bd 7436 7cbd d59c eebd
000000f0: 5242 1b3d 1675 903d d75e 85bd 6a44 c8bc
00000100: 282c 23bd ae24 ca3a 2e38 afbd c92a 12bc
00000110: a375 64bd ea5a e8bc a9a2 0e3d 3a96 d13d
00000120: 7580 92bd 1bf1 d5bd 3564 9dbc c6e0 63bd
00000130: 7873 43bc 4037 923c 09b8 b4bc 5ad1 f2bd
00000140: fb48 733c 8281 85bd 0856 323d 24c1 cebc
00000150: 0abe 6abd f71f 8bbc 7c82 a03d 12fb 043d
00000160: f2a8 d8bb d928 a73d 6948 2fbd f342 01bd
00000170: 694f 5c3d a061 343d 535d 29bd a113 76bd
00000180: 2c25 b83c 497d b33d ea20 edbd 8af7 47bd
00000190: fe01 07bd 335f ffbd 7a57 953d 434c 143c
000001a0: b903 3abc 4a2e dbbd ae8b 1ebd 85a9 86bd
000001b0: 6325 56bc eeb0 d13d 4582 94bd 7064 97bd
000001c0: 28b9 c1bc ee20 80bc 4259 71bd 1882 d2bd
000001d0: 0c26 88bd deac 15bd d256 c23d 7fd2 4a3d
000001e0: a960 ab3d 1cb8 8fbb 8000 22bd 2765 abbd
000001f0: 6074 de3b 4b50 883c 0dbf 8dbd 4795 0fbd
00000200: 1523 66bd 999a 5d3d b0e5 59bd 9f48 a5bc
00000210: c9eb 57bd 3044 7bbc 4eb2 963d 7889 023d
00000220: 825b 5e3d abf1 acbd fbb8 a3bc 7c9a 6ebd
00000230: 204f 2abc 7790 0b3d 1340 fbbc cbf5 adbd
00000240: ff88 17bd 2b5e e53b 32c7 afbd db18 1bbd
00000250: a935 b3bd 41da b1bd f78a d13d 9443 d23c
00000260: 7b18 813d 9f6f debc f90f c8bd cff9 92bd
00000270: 3f32 783d f562 8e3d c4c1 d7bd e4af 4abd
00000280: 05e0 00bd 88bd 8dbd ee2f 19bd 7808 d2bd
00000290: bb44 60bd 405a 84bd 52f1 ea3d 8d10 423d
000002a0: 3b28 283c a39d 14bd bbb8 90bd aca1 b0bd
000002b0: 9e9f 59bc 8e6b a93d 39e6 e6bc 3e25 5dbd
000002c0: 4674 8dbb 7ad1 2fbb cf16 8ebd 72f7 7cbc
000002d0: 7942 97bd 4e5c 8ebc cf90 f33d fb43 913b
000002e0: 7a2d 2ebc b82a c6bd 443a 84bd f776 febd
000002f0: ac5f 3dbb 43f0 393d 18ca 59bd e6f5 63bd
00000300: 0776 8cbd 5999 62bd 7b78 b8bd fa78 7abd
00000310: 2e14 d6bc cbe6 f8bc 1f0a da3d 69f0 f9bc
00000320: 1c02 fc3c 3212 f1bc 0fa0 a7bd 57c9 c7bc
00000330: cb4f a2bc f656 c53d 203a ddbd e4b7 97bd
00000340: ac82 97bd 2712 adbc f86b 84bd a4d2 99bd
00000350: 5b94 3cbd e70b babd 98be b83d c1f7 a03d
00000360: b71d 7b3d 71ce 73bd e3f2 28bd 5479 29bd
00000370: 9b0f 8c3d 5fe8 4b3c a3a8 c2bd 2664 dcbc
00000380: 05eb 033d 1879 f23c 5d06 1cbe 7060 cdbd
00000390: 399e 0ebd 4be5 5abd dd54 353d 34af e3bc
000003a0: be18 d5bb 32cd d7bd ca92 66bc 494c 76bd
000003b0: b12c dbbc e0f5 e83d 2c2e 54bd 4404 26bd
000003c0: 9647 44bd b6f2 2d3d b938 d1bc cf04 61bd
000003d0: 2d22 56bd 7232 c8bd 8513 953d 59a8 983d
000003e0: efc3 81bb 32f7 88bd e9ff 0bbd e48d 94bd
000003f0: 1bf4 133c 2cc7 803c c3d6 9cbd 0efa 91bd

gconv.1.weight f4 [3, 16, 16]
0.165773 -0.5305451 -0.18454407 -0.302814 -0.029635187 0.27829257 0.16201328 0.06900173
-0.082124576 -0.20145746 -0.22383341 0.17870267 -0.25306246 0.07581642 0.12547114 0.19356644
-0.07812572 -0.31565863 0.26458904 0.011255841 -0.33211926 -0.23694031 0.00046225643 0.34416157
0.3517265 0.16333248 0.36369613 -0.42133287 0.22360508 0.24984592 0.047952496 0.2071076
-0.303613 -0.03644248 0.45328984 0.30209878 -0.057014376 -0.2813785 0.19114925 0.3232828
-0.35964277 0.07967501 -0.2820023 -0.37773243 -0.018977 0.37455377 -0.12002521 -0.0723628
-0.17117341 -0.12428174 0.21521379 -0.019406587 -0.062307432 0.12831669 -0.180936 0.16932188
-0.19482921 -0.12072908 -0.08118983 0.39658073 0.43340307 0.4664118 -0.12043705 0.19947325
0.05282105 0.15123107 0.06387848 -0.3099161 0.31265014 0.33406463 -0.01101805 -0.27301517
0.31393707 -0.23075819 -0.15162097 0.028273638 -0.33560678 -0.09126351 -0.19824225 -0.38276657
-0.108896 -0.2776805 -0.42288858 -0.057180427 -0.29324552 0.33351693 -0.4544709 0.24445242
-0.04744356 -0.019863255 -0.05969048 -0.15914564 -0.008023239 -0.0442455 -0.16486003 0.036685683
-0.21210702 -0.43126482 0.03445448 -0.30859914 0.34092435 -0.25161546 -0.062436584 0.256969
-0.21661125 0.33282918 -0.11303124 -0.38745326 -0.23391971 0.019566406 0.11796111 0.40090433
-0.3116726 -0.2717725 0.19869967 -0.5223539 -0.3047559 -0.21291779 0.37274286 -0.30638844
-0.047472283 -0.14763944 0.30029634 -0.012492488 0.37485796 -0.10725168 0.15989676 -0.015851181
-0.34417653 -0.13976897 0.074376814 0.09831359 -0.033351347 0.27423826 0.053111207 -0.42077544
0.06152408 0.33982673 -0.2732482 0.015310384 0.28465387 0.47104654 0.060366955 0.32577652
0.30208343 -0.09168467 0.009458647 -0.16268967 -0.35282385 -0.22770053 -0.32289565 -0.2593927
-0.08818808 0.13939214 -0.49945724 0.26735592 0.14661108 -0.32732922 0.15619269 0.31457305
0.07045506 0.3010041 -0.42685366 -0.20892176 0.29067406 -0.32358035 -0.0037046997 -0.2601942
0.1886853 -0.31043792 0.48602095 0.1001043 0.4676191 0.19468099 0.20075917 0.25095242
0.07114351 0.43470216 0.2810082 -0.12157693 0.08930944 -0.26012847 0.1848478 -0.4331878
-0.33083853 0.10391841 0.117406845 0.34285036 -0.29975066 0.003807721 0.15006804 0.45068347
-0.18693632 0.04259941 0.21257597 -0.19908346 -0.14235891 0.24251495 -0.1767604 0.014408775
0.46687198 -0.031924598 -0.03928027 0.027281506 -0.17227097 0.011144472 -0.40238243 0.3611725
0.19551675 0.05346316 0.09989975 -0.33579147 0.018896017 -0.37362838 -0.28998345 0.3101804
-0.0392386 0.3141206 -0.042319432 -0.097081214 -0.32017618 0.16503613 -0.15289925 -0.14269473
-0.3940167 0.25871518 -0.3000477 0.027151737 0.39617226 -0.37254468 0.1298242 -0.40115282
-0.32294014 -0.40218422 -0.35131335 0.39020672 0.15530044 0.52783823 -0.035962615 0.4181773
-0.24689358 0.2590778 -0.13447402 0.13373454 -0.123039454 -0.042487137 0.30305365 -0.09604528
0.19720207 0.007989186 0.050539155 0.35925654 0.42502475 -0.0009697285 -0.39015663 0.26753512
00000000: 66c0 293e ced1 07bf 1ff9 3cbe 700a 9bbe
00000010: 7ec5 f2bc 5d7c 8e3e cfe6 253e c750 8d3d
00000020: ee30 a8bd dd4a 4ebe 9634 65be d5fd 363e
00000030: 6791 81be a445 9b3d 827b 003e 4836 463e
00000040: 6100 a0bd 029e a1be 3778 873e 6b6a 383c
00000050: 890b aabe 7ba0 72be 025b f239 f235 b03e
00000060: 7f15 b43e a140 273e 6136 ba3e f1b8 d7be
00000070: bbf8 643e 9cd7 7f3e d669 443d 0414 543e
00000080: 2a73 9bbe b644 15bd 9b15 e83e b1ac 9a3e
00000090: e887 69bd d810 90be a1bc 433e 5385 a53e
000000a0: 1923 b8be a72c a33d 9b62 90be 2566 c1be
000000b0: a775 9bbc 83c5 bf3e c7cf f5bd f332 94bd
000000c0: 1548 2fbe 6d87 febd 0161 5c3e 90fa 9ebc
000000d0: 1436 7fbd 7365 033e 4947 39be b762 2d3e
000000e0: 4f81 47be cf40 f7bd db46 a6bd a10c cb3e
000000f0: 02e7 dd3e 87cd ee3e b3a7 f6bd b742 4c3e
00000100: e35a 583d 51dc 1a3e b8d2 823d 53ad 9ebe
00000110: ae13 a03e 850a ab3e 0d85 34bc a5c8 8bbe
00000120: 5cbc a03e e04b 6cbe 8742 1bbe 1e9e e73c
00000130: a7d4 abbe 5de8 babd 0400 4bbe fbf9 c3be
00000140: de04 dfbd 232c 8ebe da84 d8be 0636 6abd
00000150: 4724 96be bbc2 aa3e 69b0 e8be bc51 7a3e
00000160: 2e54 42bd 44b8 a2bc 017e 74bd 13f7 22be
00000170: e773 03bc c53a 35bd 11d1 28be ba43 163d
00000180: 9532 59be bece dcbe 2420 0d3d b500 9ebe
00000190: a38d ae3e bed3 80be 81bd 7fbd 7191 833e
000001a0: 57cf 5dbe 9668 aa3e ec7c e7bd 4660 c6be
000001b0: a688 6fbe ba49 a03c 9895 f13d 5543 cd3e
000001c0: 8d93 9fbe c425 8bbe ed77 4b3e fcb8 05bf
000001d0: f708 9cbe 1f07 5abe 27d8 be3e f2de 9cbe
000001e0: 4c72 42bd cb2e 17be 71c0 993e 4bad 4cbc
000001f0: 62ed bf3e c5a6 dbbd fabb 233e 56da 81bc
00000200: e837 b0be 991f 0fbe df52 983d a358 c93d
00000210: 6c9b 08bd f568 8c3e 238b 593d e16f d7be
00000220: ac00 7c3d c5fd ad3e 30e7 8bbe 68d8 7a3c
00000230: 27be 913e 032d f13e 5743 773d 2ecc a63e
00000240: aeaa 9a3e 2cc5 bbbd 71f8 1a3c 1f98 26be
00000250: 54a5 b4be 542a 69be 9452 a5be 1fcf 84be
00000260: f49b b4bd d0bc 0e3e dcb8 ffbe e0e2 883e
00000270: 3721 163e b297 a7be faf0 1f3e b80f a13e
00000280: be4a 903d 361d 9a3e 908c dabe 96ef 55be
00000290: 3bd3 943e 53ac a5be 8cca 72bb 2d38 85be
000002a0: b836 413e b8f1 9ebe bdd7 f83e 7c03 cd3d
000002b0: c56b ef3e 745a 473e d093 4d3e d67c 803e
000002c0: b0b3 913d 4891 de3e 4fe0 8f3e 53fd f8bd
000002d0: dee7 b63d 8f2f 85be be48 3d3e cbca ddbe
000002e0: ab63 a9be 2dd3 d43d 0073 f03d 158a af3e
000002f0: eb78 99be f58a 793b 70ab 193e fcbf e63e
00000300: 3c6c 3fbe b87c 2e3d 84ad 593e 89dc 4bbe
00000310: 89c6 11be d755 783e ae00 35be c812 6c3c
00000320: d809 ef3e 5ec3 02bd 59e4 20bd 777d df3c
00000330: cd67 30be 4e97 363c 1205 cebe 9aeb b83e
00000340: 8b35 483e 30fc 5a3d 3d98 cc3d dcec abbe
00000350: d2cb 9a3c 384c bfbe b678 94be f7cf 9e3e
00000360: a7b8 20bd 6ad4 a03e 2457 2dbd 84d2 c6bd
00000370: 22ee a3be 3bff 283e 9f91 1cbe 911e 12be
00000380: 8fbc c9be 5176 843e da9f 99be 526d de3c
00000390: 17d7 ca3e 2dbe bebe a3f0 043e e763 cdbe
000003a0: 6958 a5be 17eb cdbe 58df b3be 2dc9 c73e
000003b0: 1407 1f3e 6820 073f 894d 13bd 561b d63e
000003c0: acd1 7cbe d8a5 843e 8fb3 09be b5f1 083e
000003d0: 1cfc fbbd fe06 2ebd d929 9b3e 63b3 c4bd
000003e0: 57ef 493e 13e5 023c 2502 4f3d 79f0 b73e
000003f0: d89c d93e 6135 7eba 9cc2 c7be 5dfa 883e

gconv.2.weight f4 [3, 16, 16]
0.3489445 0.23190016 0.21990727 0.15002525 -0.1837688 -0.110195264 -0.032179497 0.40136302
-0.31204328 0.22816227 0.16618642 0.04379765 0.38131827 -0.058107894 0.11074596 0.09496806
0.20164056 -0.020107403 -0.34333146 0.26393822 -0.14459524 0.392606 0.30964628 -0.080899104
0.39661562 -0.17663142 -0.45006478 -0.22115926 -0.427092 -0.1490836 0.30148104 0.3191615
0.04577146 -0.27527976 -0.28154486 0.26958847 -0.35856506 0.33865613 0.39707 -0.49283546
-0.13039246 0.30798158 0.107266866 -0.31133163 0.2776467 0.02526397 -0.094664946 0.29221296
-0.02873313 0.3797374 0.11761357 -0.4112084 -0.15974094 -0.34301084 0.25888398 0.28370687
0.0045957817 0.31629372 0.44503763 -0.21696375 0.2409253 -0.022485705 -0.059951033 -0.04423169
-0.022236105 -0.16378027 -0.029062463 0.10209901 -0.4880325 -0.39553612 0.009422622 0.3910313
0.05397097 -0.3847827 -0.1291018 0.22018008 -0.3125644 0.31087345 -0.31307983 0.0448803
0.4191662 -0.23304528 0.37568682 0.02927203 -0.4061526 -0.07798723 -0.18019488 -0.32101548
-0.14845926 -0.41378298 -0.10689686 0.091245316 0.070609145 -0.049533512 0.2830781 -0.08053544
-0.28112918 -0.23733303 0.18943907 0.35622808 -0.19945034 -0.254795 0.2750203 0.36078438
0.10362286 -0.17117676 -0.06111493 -0.091614366 -0.34965423 0.033261098 -0.010133901 0.040493947
-0.00730083 0.11011878 -0.23795916 -0.28875193 0.082272604 -0.19532719 0.3819897 -0.4000873
-0.17645352 -0.17115976 -0.39386585 0.068367556 0.37188014 -0.17725971 0.29485378 0.3097278
0.03141883 0.36676985 -0.25520554 -0.12849534 -0.37563878 -0.13124548 -0.4108128 -0.22819284
-0.15791734 0.26969033 -0.02755363 0.21965507 -0.3041138 0.14368193 0.49433014 -0.3615801
0.16584449 0.115823746 -0.31508073 -0.072768584 0.11220122 -0.13384017 -0.3009923 -0.40133977
0.09131933 -0.04179115 0.08363862 -0.34069854 0.26688483 0.36156386 -0.38549742 0.13024093
0.22409339 -0.053227052 -0.41609058 0.22650513 -0.25027984 -0.3371241 0.20821545 0.07856488
0.28731656 0.3973828 0.24790554 0.32072946 0.36280897 0.21295436 0.23531789 0.071908265
-0.21881923 0.1625947 -0.05465503 -0.059273034 0.3745326 0.017921664 -0.024074253 0.3657845
-0.31779712 -0.07170189 0.08409566 -0.110064596 -0.14206511 -0.18564773 -0.4244908 0.3739878
0.34622487 -0.4053451 0.47704613 -0.32578057 0.03320191 0.1086181 -0.21430165 0.099272065
-0.09966471 -0.12691782 0.44869298 -0.26456046 0.06866871 -0.24677014 0.1523994 0.18239003
0.43200463 -0.35730848 0.30546638 -0.5141749 0.1862902 -0.14259875 -0.13266872 -0.31874186
-0.13513932 0.2895232 0.42308655 -0.09986666 -0.030378608 -0.41273436 0.10336294 -0.004156129
0.008614979 0.3768806 0.04862492 0.23944576 0.16932257 0.071547665 0.46280783 0.13675767
0.23917529 0.16334747 -0.14771496 -0.10782486 0.11196306 0.22804548 0.27538577 -0.3370272
0.39181906 0.016764335 0.47535318 0.1532205 -0.39789432 0.24710417 -0.23872818 0.15304226
-0.3988448 0.11904334 -0.14699993 0.25614464 -0.41771027 -0.10390171 0.18623242 0.10722439
00000000: daa8 b23e 3c77 6d3e 5f2f 613e 38a0 193e
00000010: e32d 3cbe 0eae e1bd a6ce 03bd 747f cd3e
00000020: 23c4 9fbe 5fa3 693e c62c 2a3e 2a65 333d
00000030: 263c c33e 8b02 6ebd c7ce e23d 9d7e c23d
00000040: dd7a 4e3e 48b8 a4bc 24c9 afbe e922 873e
00000050: c610 14be a703 c93e f589 9e3e 6eae a5bd
00000060: 3411 cb3e dede 34be e46e e6be 9377 62be
00000070: cdab dabe 5fa9 18be b95b 9a3e 2369 a33e
00000080: db7a 3b3d 78f1 8cbe a626 90be 8007 8a3e
00000090: d795 b7be 5664 ad3e c24c cb3e ee54 fcbe
000000a0: 9a85 05be c3af 9d3e bbae db3d dc66 9fbe
000000b0: b527 8e3e 63f6 ce3c b2df c1bd f09c 953e
000000c0: be61 ebbc f16c c23e 62df f03d e889 d2be
000000d0: 2193 23be 1e9f afbe 718c 843e 0742 913e
000000e0: 3698 963b 40f1 a13e f9db e33e bf2b 5ebe
000000f0: 1fb5 763e f133 b8bc 378f 75bd 4a2c 35bd
00000100: 7e28 b6bc 04b6 27be 6714 eebc 4919 d13d
00000110: 65df f9be b683 cabe 5761 1a3c 4135 c83e
00000120: aa10 5d3d 3d02 c5be 4333 04be e376 613e
00000130: 7108 a0be ce2a 9f3e 004c a0be 68d4 373d
00000140: f49c d63e 6ca3 6ebe 065a c03e e5cb ef3c
00000150: 3cf3 cfbe c5b7 9fbd 0285 38be 245c a4be
00000160: b405 18be 5ddb d3be beec dabd d3de ba3d
00000170: 879b 903d a7e3 4abd 9def 903e c4ef a4bd
00000180: 2af0 8fbe 6e07 73be 51fc 413e 8763 b63e
00000190: b63c 4cbe 7e74 82be 76cf 8c3e bbb8 b83e
000001a0: 3938 d43d f648 2fbe a653 7abd 50a0 bbbd
000001b0: e105 b3be ca3c 083d a908 26bc fbdc 253d
000001c0: cd3b efbb f485 e13d 91ab 73be 4bd7 93be
000001d0: 8a7e a83d da03 48be 2794 c33e 3ed8 ccbe
000001e0: 3bb0 34be 8144 2fbe c9a8 c9be 4a04 8c3d
000001f0: 1367 be3e 9283 35be 13f7 963e a494 9e3e
00000200: 08b1 003d 42c9 bb3e 4daa 82be 4894 03be
00000210: ba53 c0be 3765 06be 0e56 d2be 62ab 69be
00000220: 15b5 21be da14 8a3e 26b8 e1bc 42ed 603e
00000230: ceb4 9bbe 5b21 133e d718 fd3e 0721 b9be
00000240: 23d3 293e 0035 ed3d 4352 a1be b207 95bd
00000250: c1c9 e53d 660d 09be aa1b 9abe 687c cdbe
00000260: a105 bb3d 322d 2bbd ba4a ab3d 0a70 aebe
00000270: 21a5 883e e61e b93e eb5f c5be e15d 053e
00000280: bd78 653e 9c04 5abd d309 d5be f6f0 673e
00000290: ae24 80be 889b acbe 6e36 553e a0e6 a03d
000002a0: 281b 933e c275 cb3e f3da 7d3e a736 a43e
000002b0: 19c2 b93e b510 5a3e 2cf7 703e a444 933d
000002c0: 2612 60be 3a7f 263e f4dd 5fbd 48c8 72bd
000002d0: bdc2 bf3e 74d0 923c 5e37 c5bc 1b48 bb3e
000002e0: 4eb6 a2be 71d8 92bd 583a ac3d 8c69 e1bd
000002f0: 8479 11be 701a 3ebe dc56 d9be 547b bf3e
00000300: 6344 b13e 6589 cfbe 643f f43e b6cc a6be
00000310: bafe 073d 2b73 de3d e471 5bbe 274f cb3d
00000320: 031d ccbd bff6 01be 16bb e53e 7874 87be
00000330: 2ea2 8c3d 50b1 7cbe 970e 1c3e 74c4 3a3e
00000340: b62f dd3e 23f1 b6be 1766 9c3e f7a0 03bf
00000350: dcc2 3e3e 6805 12be 4fda 07be 2232 a3be
00000360: f661 0abe 633c 943e cd9e d83e e486 ccbd
00000370: 8fdc f8bc eb51 d3be f3af d33d 2330 88bb
00000380: d725 0d3c 7ef6 c03e ed2a 473d 4531 753e
00000390: e562 2d3e 9587 923d 26f5 ec3e 340a 0c3e
000003a0: 5eea 743e 8f44 273e 9742 17be 48d3 dcbd
000003b0: e44c e53d c184 693e 5dff 8c3e d48e acbe
000003c0: 829c c83e 5c55 893c 7e61 f33e d6e5 1c3e
000003d0: ceb8 cbbe e008 7d3e 2975 74be 1cb7 1c3e
000003e0: 6335 ccbe ffcc f33d 2687 16be 6425 833e
000003f0: 1fde d5be 6bca d4bd b6b3 3e3e 7698 db3d

gconv.3.weight f4 [3, 16, 16]
0.030375946 0.31761768 -0.2929573 0.23089011 -0.13416158 0.20358108 -0.36817217 -0.1669793
0.35352474 -0.116162054 -0.27943718 -0.04556101 0.34151864 -0.09843272 0.1430922 0.41478118
0.14563587 0.008288111 0.2613337 0.4456522 0.19909193 0.43791512 -0.054275356 0.0013905774
-0.227155 -0.12631539 0.08758883 -0.32355025 0.40068024 0.11716669 0.10755984 0.44413236
0.09844768 -0.38641414 0.0131962 -0.26391047 0.08545721 -0.35681337 -0.1214679 0.4969564
-0.087749474 -0.36527386 0.21477349 0.120482385 0.2515708 -0.28631213 -0.23250459 0.13122208
-0.18230055 0.39312306 0.2485981 -0.32548773 -0.1666569 0.14326838 0.22960466 -0.3993345
-0.025126649 0.2124788 -0.21018654 0.42017096 0.26585397 0.43878853 -0.21087937 -0.23849116
0.3374367 -0.07095264 -0.3348321 -0.075201504 -0.3736112 0.021430006 0.33572346 -0.24596877
-0.21602942 -0.20536354 -0.108870104 -0.15932614 -0.058457155 -0.29194027 0.04198768 0.009333846
0.032385696 0.12023018 0.14125863 -0.4252219 0.29290062 0.24893759 -0.11013994 0.42218268
0.21377636 0.2215302 -0.35053417 0.17549612 0.14737979 -0.1679441 -0.15866786 -0.44167015
-0.094926745 0.12574428 -0.14686313 0.077796064 -0.0107158655 0.25749353 -0.2821485 0.53018856
0.34200153 0.21867591 0.20773381 0.15632269 -0.04833999 -0.100892216 0.46038958 0.41041005
-0.32133088 0.3121873 -0.28993386 0.001929649 0.09940727 -0.25162914 -0.34671262 0.13460214
-0.38801405 -0.0059842626 0.13665587 0.037185 -0.41466904 -0.14248721 0.046677314 0.40294868
0.37218186 -0.07885694 -0.24035119 0.31107476 -0.22250612 0.10307572 0.15981108 0.11562585
-0.29877388 -0.060929574 -0.223401 -0.15174624 0.23671658 0.031556275 0.418557 -0.015313968
-0.5029123 -0.23717427 -0.32137278 0.40779343 0.41391212 0.270989 0.041888744 -0.2356083
-0.30562127 -0.043241393 -0.2970535 -0.15288849 -0.27083114 -0.26706535 0.1132207 0.18168221
-0.14088121 -0.31932253 -0.005597657 -0.15609659 -0.018695094 -0.21536863 0.25142837 -0.2999065
0.10915576 0.19822352 -0.354675 0.32402244 -0.48139113 -0.2555093 -0.054299705 0.091612235
0.015623845 -0.18330945 -0.102083124 -0.13091022 -0.24751957 0.042269163 0.30324596 -0.28047648
-0.055902965 -0.3019012 0.22134979 0.069147386 -0.11083455 0.089738905 -0.39333966 -0.36709362
-0.32317856 0.30792204 0.33722505 0.26304397 -0.036415886 -0.31594327 0.061078675 0.10619997
-0.30910364 -0.24110965 -0.19685507 -0.35968968 0.21885028 -0.37255934 -0.16920292 0.13300443
0.17814006 -0.059203878 0.17295836 -0.31356904 0.23841174 -0.27440777 0.23605856 0.32742056
0.19767687 0.26960185 0.3572416 0.104235105 0.18694228 0.31935582 0.13718377 0.4240884
0.35235614 -0.23620455 -0.24283217 0.09646819 -0.24262579 -0.32391822 -0.24935971 -0.417193
-0.05990919 -0.15021545 -0.34227437 0.27553862 -0.1770092 0.029125243 0.4376495 0.23463087
-0.12978195 -0.23840755 -0.061851095 -0.3466178 0.26976198 -0.23987828 0.2997513 -0.3166873
0.3125567 -0.32177562 0.09396274 0.12278348 -0.08632882 -0.041468333 -0.40561348 0.28255543
00000000: fad6 f83c c99e a23e 80fe 95be 756e 6c3e
00000010: a761 09be 8f77 503e 1081 bcbe 9ffc 2abe
00000020: 3201 b53e 5fe6 edbd 6412 8fbe 2e9e 3abd
00000030: 88db ae3e 1897 c9bd c386 123e 335e d43e
00000040: 9221 153e dbca 073c 88cd 853e 862c e43e
00000050: c1de 4b3e 6936 e03e d64f 5ebd 0944 b63a
00000060: 529b 68be d258 01be c661 b33d 61a8 a5be
00000070: f625 cd3e 17f5 ef3d 5548 dc3d 5165 e33e
00000080: f09e c93d 13d8 c5be e034 583c 461f 87be
00000090: 3104 af3d 3eb0 b6be 2ac4 f8bd 1271 fe3e
000000a0: ffb5 b3bd 2d05 bbbe 95ed 5b3e 78bf f63d
000000b0: e3cd 803e 8197 92be af15 6ebe 155f 063e
000000c0: ffac 3abe 6d47 c93e 8090 7e3e 54a6 a6be
000000d0: 1ba8 2abe f2b4 123e 7c1d 6b3e 9275 ccbe
000000e0: 67d6 cdbc 0b94 593e 243b 57be a620 d73e
000000f0: 031e 883e e4a8 e03e c3f0 57be 0737 74be
00000100: 81c4 ac3e 9e4f 91bd 1d6f abbe 3f03 9abd
00000110: f849 bfbe fb8d af3c f2e3 ab3e 3ddf 7bbe
00000120: d136 5dbe d24a 52be 4af7 debd 6426 23be
00000130: c570 6fbd 3279 95be 46fb 2b3d fdec 183c
00000140: dda6 043d 3e3b f63d 1aa6 103e afb6 d9be
00000150: 12f7 953e 7fe9 7e3e 0d91 e1bd 5428 d83e
00000160: 31e8 5a3e d0d8 623e 3779 b3be 41b5 333e
00000170: baea 163e 8af9 2bbe d479 22be 9722 e2be
00000180: f468 c2bd 1cc3 003e 4a63 16be 8b53 9f3d
00000190: 9991 2fbc 31d6 833e c575 90be 70ba 073f
000001a0: d31a af3e 94ec 5f3e 2cb8 543e 0e13 203e
000001b0: 2700 46bd 94a0 cebd 2fb8 eb3e 4421 d23e
000001c0: 7b85 a4be 04d7 9f3e 3672 94be 47ec fc3a
000001d0: 0a96 cb3d 89d5 80be 5184 b1be 25d5 093e
000001e0: c7a9 c6be a217 c4bb 84ef 0b3e 4c4f 183d
000001f0: 804f d4be 2be8 11be b630 3f3d 4a4f ce3e
00000200: 9f8e be3e bf7f a1bd 9f1e 76be 3145 9f3e
00000210: a5d8 63be 5d19 d33d 84a5 233e 3fcd ec3d
00000220: e4f8 98be 4a91 79bd 3bc3 64be 5e63 1bbe
00000230: d565 723e 2741 013d 1a4d d63e 70e7 7abc
00000240: dcbe 00bf d0dd 72be f98a a4be 4dca d03e
00000250: 4aec d33e 12bf 8a3e 8893 2b3d 4d43 71be
00000260: 647a 9cbe e31d 31bd 6517 98be cd8e 1cbe
00000270: 61aa 8abe cabc 88be 41e0 e73d e70a 3a3e
00000280: 2a43 10be 3e7e a3be 8d6c b7bb c9d7 1fbe
00000290: 7426 99bc 9889 5cbe 38bb 803e 588d 99be
000002a0: 0e8d df3d 1bfb 4a3e f697 b5be 45e6 a53e
000002b0: e678 f6be 1dd2 82be 5e69 5ebd 329f bb3d
000002c0: 28fb 7f3c 79b5 3bbe f510 d1bd 540d 06be
000002d0: c575 7dbe 6e22 2d3d 0e43 9b3e 9d9a 8fbe
000002e0: 82fa 64bd cb92 9abe 85a9 623e 259d 8d3d
000002f0: 39fd e2bd 08c9 b73d d163 c9be b2f3 bbbe
00000300: a977 a5be f5a7 9d3e c3a8 ac3e b3ad 863e
00000310: d328 15bd 51c3 a1be a22d 7a3d 5f7f d93d
00000320: d542 9ebe 73e5 76be 6094 49be 3f29 b8be
00000330: 4a1a 603e 19c0 bebe 8843 2dbe 5032 083e
00000340: 596a 363e c47f 72bd ff1b 313e 1f8c a0be
00000350: 3522 743e 2d7f 8cbe 56b9 713e aba3 a73e
00000360: ce6b 4a3e 4109 8a3e 5fe8 b63e 3779 d53d
00000370: cc6d 3f3e 9b82 a33e e779 0c3e 1d22 d93e
00000380: 0668 b43e 9bdf 71be ffa8 78be 1d91 c53d
00000390: e572 78be 9cd8 a5be 2758 7fbe 529a d5be
000003a0: 5763 75bd 14d2 19be 963e afbe 6613 8d3e
000003b0: e641 35be 1098 ee3c 9813 e03e 1343 703e
000003c0: 8fe5 04be 1c21 74be 9357 7dbd e377 b1be
000003d0: 3e1e 8a3e a7a2 75be 0179 993e d624 a2be
000003e0: 6f07 a03e c6bf a4be 896f c03d e875 fb3d
000003f0: 2acd b0bd b3da 29bd 92ac cfbe 1bab 903e

cls.0.weight f4 [256, 64]
0.063022025 0.0056853434 -0.007869604 -0.22556238 -0.17944948 0.2105335 -0.201244 0.3427462
-0.32582468 0.022530718 -0.046100855 0.14411709 -0.4529956 -0.11053379 -0.1809375 -0.02067311
0.004493685 0.10083353 0.037381623 -0.29314336 -0.031504728 -0.2138688 0.07565097 0.027968675
-0.16910213 -0.1261633 0.31493488 -0.022689417 0.2052635 -0.11353957 0.0948663 0.20033884
-0.21473446 0.1389918 -0.03304561 0.09731615 0.103526086 -0.48821816 -0.28655082 0.15279192
-0.21424472 0.2109183 -0.23350908 -0.1080026 0.059546944 -0.03162449 0.2472633 -0.2292158
-0.13261585 0.0965429 0.07847761 -0.08928304 0.07304595 0.15500963 0.03874965 -0.20224008
-0.12192972 -0.013450966 -0.14619765 0.23451637 0.11041242 0.13817269 -0.11967086 0.005268145
0.00801924 0.19557942 0.02923257 0.19894423 0.16244204 0.210839 0.2089787 0.20314446
0.011976155 -0.18487304 0.0068803276 0.07572062 -0.093943305 -0.031071035 -0.3011547 -0.44731918
0.24065436 0.28560406 0.035592563 0.1816013 -0.2685049 -0.16349298 0.08058393 -0.5219818
0.47939333 0.0748924 0.07327459 -0.26054782 -0.2149136 0.14787704 0.36257666 -0.077335894
0.20562333 0.039555546 0.3020277 0.19677633 0.3053036 0.2659078 -0.11464019 0.10635959
-0.0032596441 -0.021837424 -0.32534626 -0.05677973 0.190532 0.19377357 0.025752557 -0.23952793
-0.083964854 0.20110027 0.071082264 0.20964938 0.0064774486 0.046082493 -0.26376176 -0.0749164
-0.12037581 -0.055275954 0.22722697 -0.15447383 0.054747663 0.013564692 0.1443853 -0.21921615
-0.012797282 0.0056194374 -0.0044328454 0.26744083 0.0050127744 0.09067599 -0.1268263 -0.27456367
-0.036059614 0.08787482 -0.07803025 -0.0648728 -0.04698782 0.13650894 0.22660854 -0.23279463
0.13095899 -0.22607289 -0.008759331 -0.34450912 -0.115455516 -0.16406262 -0.12508707 0.028128834
0.07740934 0.14895646 -0.10365856 -0.27385318 -0.14374204 -0.12339618 0.27549553 0.17032754
-0.39998925 -0.41151378 0.28378347 -0.13199118 0.049812626 -0.12084155 0.2030976 0.04716415
0.13486548 0.04241597 -0.2713717 -0.055760354 -0.2233491 -0.16112033 0.29549158 0.15343946
0.26925552 0.11993934 -0.05522636 -0.19753109 -0.2282978 0.17777821 0.387674 -0.023392566
0.22354989 -0.2806005 -0.15344001 0.06901442 -0.06742179 0.017461885 -0.32119754 0.1922756
-0.36434576 0.106942385 -0.011396322 -0.14707518 -0.12369015 0.087266855 0.020164127 -0.14330305
-0.18378088 0.010223544 -0.19520248 -0.017066237 -0.012905765 -0.15400234 0.20967722 0.17170909
0.06308151 -0.23046528 -0.0062672 0.13451071 -0.18162397 0.0017005024 -0.16230573 -0.2924666
0.0156158665 -0.2041512 -0.03884158 -0.083130054 0.22680897 -0.10596217 -0.035519812 0.19637837
-0.00407945 -0.2932285 0.21186827 0.1504103 0.049148764 -0.14492708 -0.3312234 -0.045953892
-0.090929575 0.16819097 0.24817657 0.0178179 -0.23736423 -0.28066212 0.2994753 0.004705381
0.03709039 0.15233377 -0.0944398 0.10538231 -0.105486035 -0.18375456 0.22164208 0.122498006
-0.2704984 -0.12722187 0.14278308 0.07105847 0.019786812 0.026029972 0.0158395 0.12640297
00000000: b111 813d 1e4c ba3b 83ef 00bc d3f9 66be
00000010: 9bc1 37be 1896 573e e812 4ebe 6e7c af3e
00000020: 7ed2 a6be 5792 b83c 40d4 3cbd 6e93 133e
00000030: 0aef e7be 8a5f e2bd ae47 39be a75a a9bc
00000040: c33f 933b cf81 ce3d 791d 193d e316 96be
00000050: 1a0b 01bd 6c00 5bbe e5ee 9a3d 901e e53c
00000060: 1c29 2dbe f430 01be 253f a13e 28df b9bc
00000070: 9830 523e 6f87 e8bd 4349 c23d a025 4d3e
00000080: 5ae3 5bbe de53 0e3e d55a 07bd b14d c73d
00000090: 7c05 d43d bbf7 f9be cab6 92be 7c75 1c3e
000000a0: f862 5bbe f8fa 573e 011d 6fbe 7830 ddbd
000000b0: 7fe7 733d ae88 01bd 9732 7d3e 8cb7 6abe
000000c0: 73cc 07be 49b8 c53d dfb8 a03d 07da b6bd
000000d0: 1d99 953d d8ba 1e3e f4b7 1e3d 0618 4fbe
000000e0: 4ab6 f9bd 7161 5cbc d6b4 15be 0f25 703e
000000f0: e81f e23d 247d 0d3e ff15 f5bd 67a0 ac3b
00000100: 2163 033c f945 483e 2579 ef3c 09b8 4b3e
00000110: 3557 263e 2ee6 573e 83fe 553e 1a05 503e
00000120: a337 443c 5c4f 3dbe 5f74 e13b 6a13 9b3d
00000130: 5965 c0bd af88 febc f330 9abe 0507 e5be
00000140: 196e 763e b23a 923e 82c9 113d b1f5 393e
00000150: 7979 89be b46a 27be 3009 a53d 99a0 05bf
00000160: 0b73 f53e 3061 993d fd10 963d 8666 85be
00000170: 5012 5cbe 146d 173e a6a3 b93e 4862 9ebd
00000180: ec8e 523e ff04 223d 60a3 9a3e bc7f 493e
00000190: c150 9c3e 1125 883e 7ac8 eabd 0fd3 d93d
000001a0: c19f 55bb 66e4 b2bc c993 a6be dd91 68bd
000001b0: d21a 433e 946c 463e 07f7 d23c cf46 75be
000001c0: c4f5 abbd 3bed 4d3e 9493 913d 54ae 563e
000001d0: c740 d43b ffc0 3c3d c80b 87be c56d 99bd
000001e0: 9887 f6bd 0a69 62bd 30ae 683e 632e 1ebe
000001f0: 163f 603d 713e 5e3c bdd9 133e 337a 60be
00000200: b1ab 51bc 4223 b83b 6741 91bb 01ee 883e
00000210: 3342 a43b 55b4 b93d c1de 01be 9c93 8cbe
00000220: 3fb3 13bd b7f7 b33d 53ce 9fbd 08dc 84bd
00000230: 4d76 40bd 00c9 0b3e 120c 683e b761 6ebe
00000240: 1d1a 063e a77f 67be 4c83 0fbc 8063 b0be
00000250: f173 ecbd 0800 28be d316 00be 716e e63c
00000260: ca88 9e3d 0b88 183e f04a d4bd 7c36 8cbe
00000270: 1d31 13be 23b7 fcbd c00d 8d3e 586a 2e3e
00000280: 64cb ccbe efb1 d2be 114c 913e b228 07be
00000290: 5308 4c3d c67b f7bd d1f8 4f3e 322f 413d
000002a0: 2d1a 0a3e 5ebc 2d3d 3bf1 8abe f864 64bd
000002b0: a0b5 64be bafc 24be ac4a 973e 3c1f 1d3e
000002c0: dcdb 893e c2a2 f53d 0935 62bd 9745 4abe
000002d0: e6c6 69be 7e0b 363e 357d c63e c4a1 bfbc
000002e0: 43ea 643e deaa 8fbe 611f 1dbe 6f57 8d3d
000002f0: 6f14 8abd 3a0c 8f3c 0174 a4be e5e3 443e
00000300: 878b babe 9c04 db3d a4b7 3abc e09a 16be
00000310: 4351 fdbd f7b8 b23d 3d2f a53c 09be 12be
00000320: 0e31 3cbe a780 273c 29e3 47be 7ece 8bbc
00000330: b472 53bc cab2 1dbe a0b5 563e 82d4 2f3e
00000340: e130 813d 17ff 6bbe 165d cdbb 2dbd 093e
00000350: a2fb 39be 64e3 de3a 7933 26be 2fbe 95be
00000360: b1d9 7f3c 030d 51be 5918 1fbd 1740 aabd
00000370: 9c40 683e b202 d9bd 397d 11bd 6917 493e
00000380: e8ac 85bb 0c22 96be fff3 583e 2805 1a3e
00000390: 3750 493d c467 14be 1d96 a9be 263a 3cbd
000003a0: 4939 babd 413a 2c3e 0022 7e3e d8f6 913c
000003b0: 9c0f 73be f2b2 8fbe d454 993e 992f 9a3b
000003c0: 18ec 173d 62fd 1b3e a769 c1bd aed2 d73d
000003d0: 1009 d8bd 282a 3cbe 24f6 623e 3ce0 fa3d
000003e0: c47e 8abe 7346 02be ba35 123e 1a87 913d
000003f0: f417 a23c cf3c d53c d7c1 813c c86f 013e

cls.0.bias f4 [256]
-0.009220269 -0.05453529 -0.05769296 0.018520178 -0.019181736 0.06513271 -0.08731203 0.033576936
-0.059919856 -0.01947387 0.038120776 0.055885043 0.10861758 -0.060627878 -0.05123654 -0.07087769
-0.058317047 0.030319221 0.08342831 0.058208875 0.04267314 -0.0099372575 -0.058639653 0.054423496
-0.11352619 -0.017611146 -0.055163946 -0.014138531 -0.05532241 0.05316063 0.053574402 0.010001138
0.056413613 -0.05577807 0.043630548 -0.060478117 -0.05864122 -0.048284896 0.03240299 -0.021891518
0.04013021 -0.12497886 -0.05042477 -0.09032573 0.061534543 -0.07320943 0.031484794 0.058410335
-0.027312143 0.058766283 -0.05866588 0.012142476 -0.08168305 0.0532297 -0.056461047 -0.015838211
-0.016837116 -0.0625457 0.0048136422 -0.057640344 0.05337071 -0.07604383 0.018493826 -0.065542944
-0.04742683 -0.036752883 -0.052769486 0.06468204 -0.054286797 0.04222612 0.057253793 -0.060822163
-0.05175944 -0.05915164 -0.04957216 -0.07112061 0.045750763 -0.019475106 -0.018723542 -0.14460218
-0.013957643 0.06998192 0.05262524 -0.09495231 -0.022803852 -0.05663942 0.04366485 -0.05657621
-0.057223357 0.067512326 -0.06686766 -0.05399222 -0.026143212 -0.04113207 -0.05239572 0.059457727
-0.041161843 0.05304718 -0.08083258 -0.05729697 0.022416696 0.05215225 -0.044680465 -0.058068175
-0.06221263 0.053881075 0.058487993 0.055494647 -0.052508775 -0.05393623 0.035087436 -0.048643168
0.057448506 0.042898748 -0.056098733 0.0127609465 0.054872695 -0.060548395 -0.053306345 -0.03230248
0.07260535 0.040866908 0.05755168 0.049712155 -0.04081194 -0.07078612 0.034227487 0.06363493
0.054225292 -0.006512648 -0.022971071 0.057770807 -0.047198057 -0.06261272 0.05630499 -0.0640837
-0.043238625 -0.030756682 0.056527276 -0.054071974 0.007488966 0.05709759 -0.006364243 -0.0008687464
-0.022507176 -0.06736804 0.048479807 0.047869537 -0.019012319 -0.07699418 0.030530822 0.060260765
-0.07933202 -0.09753149 0.049590256 -0.05104161 0.03742216 -0.059625097 0.023132179 -0.07887375
0.03892129 -0.077008165 0.04911918 0.023495821 0.072792575 -0.051967543 -0.059815433 0.059933
0.064672574 0.05184943 -0.05707188 -0.06602568 -0.0461043 0.05720457 -0.07664698 0.053545997
-0.047430616 0.054519515 0.05695574 0.04302909 -0.059649587 -0.07426001 0.049590155 -0.054639284
-0.06366765 -0.059238352 -0.06956661 -0.06348175 -0.053544447 0.025607504 -0.058678143 -0.05445565
-0.069450684 -0.04495023 -0.057613373 -0.037033785 -0.058201153 -0.02657793 0.05579124 0.06313968
0.05970818 -0.057302788 0.08884752 -0.065042935 -0.10837719 -0.08333641 0.056321215 0.052904677
-0.06070196 -0.052573655 -0.05448264 0.04764999 -0.07640728 -0.062409636 0.042597633 0.026214004
-0.103064366 0.018466864 0.06078935 0.06903097 -0.044313267 0.054419655 0.05638739 0.069939
-0.051442575 -0.067537844 0.06478029 0.04100061 -0.04110585 -0.05876928 -0.00790721 0.05499191
-0.075499415 -0.06619546 0.041230142 -0.060818832 -0.056276325 -0.07384139 -0.098180845 0.05333151
0.074429825 0.04249303 -0.059091065 0.051780794 0.03664901 -0.023290047 -0.06289398 0.05847209
-0.044503484 -0.06393662 0.024818212 0.057086837 -0.064158656 0.05814512 0.055417262 0.021827074
00000000: 9c10 17bc 6560 5fbd 744f 6cbd a1b7 973c
00000010: 0423 9dbc 4c64 853d a6d0 b2bd f887 093d
00000020: 866e 75bd aa87 9fbc 8824 1c3d b7e7 643d
00000030: e572 de3d f054 78bd 68dd 51bd 5328 91bd
00000040: dbdd 6ebd 0460 f83c 76dc aa3d 6e6c 6e3d
00000050: 08ca 2e3d e1cf 22bc 2230 70bd 2ceb 5e3d
00000060: 6b80 e8bd 4045 90bc 97f3 61bd 4ca5 67bc
00000070: c099 62bd f6be 593d d570 5b3d d0db 233c
00000080: f611 673d 8c77 64bd f2b5 323d e7b7 77bd
00000090: c731 70bd 62c6 45bd ffb8 043d d755 b3bc
000000a0: 935f 243d ebf4 ffbd 348a 4ebd b2fc b8bd
000000b0: a50b 7c3d d3ee 95bd 33f6 003d ad3f 6f3d
000000c0: b7bd dfbc eab4 703d a24b 70bd 3cf1 463c
000000d0: 7149 a7bd 6307 5a3d b343 67bd 23bf 81bc
000000e0: feed 89bc f617 80bd c2bb 9d3b 4818 6cbd
000000f0: 3f9b 5a3d debc 9bbd 5d80 973c 613b 86bd
00000100: a342 42bd 318a 16bd d124 58bd 0478 843d
00000110: d55b 5ebd 4cf5 2c3d f482 6a3d a920 79bd
00000120: b501 54bd fd48 72bd 2d0c 4bbd afa7 91bd
00000130: 2765 3b3d 428a 9fbc 1d62 99bc 9812 14be
00000140: 99ae 64bc ae52 8f3d 908d 573d 5b76 c2bd
00000150: 25cf babc bdfe 67bd ead9 323d 75bc 67bd
00000160: 0a63 6abd e743 8a3d e9f1 88bd f226 5dbd
00000170: 4a2a d6bc 1a7a 28bd e59c 56bd f289 733d
00000180: 5299 28bd 0048 593d 8d8b a5bd 3ab0 6abd
00000190: 38a3 b73c 999d 553d dd02 37bd e5d8 6dbd
000001a0: acd2 7ebd 67b2 5c3d 1b91 6f3d 5b4e 633d
000001b0: 7113 57bd 3cec 5cbd d8b7 0f3d 0f3e 47bd
000001c0: 204f 6b3d 99b6 2f3d c9c7 65bd 4a13 513c
000001d0: 31c2 603d 9801 78bd c157 5abd 9b4f 04bd
000001e0: 1db2 943d 0f64 273d 4fbb 6b3d f99e 4b3d
000001f0: 6c2a 27bd 50f8 90bd 1f32 0c3d 0853 823d
00000200: 571b 5e3d 0d68 d5bb d42d bcbc 15a1 6c3d
00000210: c052 41bd 193b 80bd 10a0 663d 513e 83bd
00000220: fc1a 31bd 70f5 fbbc 2589 673d 937a 5dbd
00000230: 0066 f53b 2adf 693d 248b d0bb 96bc 63ba
00000240: f860 b8bc 41f8 89bd c392 463d d912 443d
00000250: b9bf 9bbc 20af 9dbd c61b fa3c fed3 763d
00000260: d378 a2bd 97be c7bd 271f 4b3d 0211 51bd
00000270: fb47 193d 7239 74bd b27f bd3c 9088 a1bd
00000280: ee6b 1f3d 75b6 9dbd 3131 493d 4f7a c03c
00000290: 4614 953d ebdb 54bd 0701 75bd 4e7c 753d
000002a0: 0e73 843d 1160 543d 34c4 69bd 7938 87bd
000002b0: ddd7 3cbd 574f 6a3d 18f9 9cbd 0c53 5b3d
000002c0: 9b46 42bd db4f 5f3d 6c4a 693d 453f 303d
000002d0: 2053 74bd a215 98bd 0c1f 4b3d 71cd 5fbd
000002e0: 2f64 82bd eaa3 72bd f078 8ebd b802 82bd
000002f0: 6c51 5bbd d4c6 d13c 7e58 70bd e30c 5fbd
00000300: 293c 8ebd bb1d 38bd 00fc 6bbd bdb0 17bd
00000310: 5564 6ebd f6b9 d9bc 5b85 643d 604f 813d
00000320: 9190 743d 54b6 6abd b0f5 b53d 3b35 85bd
00000330: dcf4 ddbd 48ac aabd 13b1 663d 93b2 583d
00000340: 9ea2 78bd 7957 57bd 3029 5fbd a32c 433d
00000350: 6c7b 9cbd 3fa1 7fbd db7a 2e3d c0be d63c
00000360: 6913 d3bd d247 973c 41fe 783d 1c60 8d3d
00000370: d481 35bd 25e7 5e3d 77f6 663d 2e3c 8f3d
00000380: 73b5 52bd 4851 8abd 87ab 843d 41f0 273d
00000390: 9c5e 28bd 0eb8 70bd 3e8d 01bc 323f 613d
000003a0: 709f 9abd 7c91 87bd f0e0 283d 2b1d 79bd
000003b0: 0182 66bd 283a 97bd 0a13 c9bd 2472 5a3d
000003c0: aa6e 983d 2c0d 2e3d 7909 72bd 1918 543d
000003d0: 461d 163d c5ca bebc 8fce 80bd 6e80 6f3d
000003e0: 4949 36bd 34f1 82bd 904f cb3c e3d3 693d
000003f0: 9d65 83bd 9429 6e3d 36fd 623d b1ce b23c

cls.2.weight f4 [256]
0.9716689 0.99448866 0.9532751 0.9712632 0.87542695 1.0001233 0.97002816 0.8730635
0.94648266 0.9803424 0.9460337 0.97814447 0.98873794 0.78928113 0.9381253 0.93200475
0.9192337 0.9505268 0.85674417 0.98090583 0.96904427 0.9187049 0.90648973 0.9600055
0.9533451 0.9311197 0.90016335 0.9179961 0.9634797 0.94554585 0.98454404 0.92972827
0.9870411 0.95351297 0.98835945 0.93890953 0.9522585 0.9231875 0.98170906 0.964044
0.9756586 0.8837112 0.9734036 0.9351968 0.9953621 0.9614868 0.9256031 0.9638838
0.9509133 0.9815804 0.94298065 0.85976434 0.91603166 0.9708234 0.91799843 0.8856989
0.9255381 0.92655915 0.9477796 0.97566646 0.8998637 0.9053552 0.9887746 0.92932475
0.91336894 0.971814 0.9451317 0.85901576 0.8887851 0.9316955 0.9994343 0.94176424
0.94950026 0.95352024 0.9688564 0.9795065 0.97558206 0.9209746 0.97818387 0.8984777
0.92739326 1.0220013 0.95086694 0.9431445 0.9731803 0.93073195 0.9483639 0.9377409
0.9353614 0.9680103 0.86129886 0.9551902 0.9358035 0.96604294 0.89102155 0.98466915
0.9338342 0.954083 0.90226513 0.8427277 0.9198309 0.9444742 0.93192804 0.9103587
0.9531517 0.99854434 1.0124296 0.94975024 0.9733897 0.97034407 0.93121076 0.98138785
0.99122006 0.9391601 0.9876408 0.88486725 0.9631334 0.94174117 0.916868 0.98212844
0.95729166 0.94003963 0.9810369 1.0137259 0.94714236 0.9344966 0.9423221 0.9843652
0.9619841 0.923356 0.8771256 0.96065784 0.8282978 0.97618824 0.96131897 0.93753713
0.975229 0.93387735 0.949108 0.9589559 0.98055845 0.98776317 0.92690325 0.9185375
0.96813834 0.877887 0.9875407 0.950131 0.9676658 0.917937 0.9369096 0.9705371
0.964735 0.8975369 0.92970663 0.9602444 0.94878495 0.91737217 0.9386493 0.9482556
0.9831739 0.9220272 0.9868369 0.9663593 0.9953074 0.9598422 0.9752198 0.9625657
0.8481622 0.97091895 0.93529 0.94035584 0.9409052 0.98263276 0.9180717 0.98167723
0.97020805 0.9395687 0.9967148 0.9885907 0.86470944 0.90304077 0.93008417 0.9301016
0.9330247 0.8923407 0.97674775 0.9666609 0.96056753 0.977881 0.92536426 0.97025734
0.8777096 0.95113206 0.92142034 0.98331887 0.8978121 0.8886856 0.9782832 0.96798235
0.98676467 0.75191045 0.929075 0.9645429 0.9402848 0.9588342 0.9518945 0.96756023
0.9344616 0.97534144 0.97088623 0.99370754 0.95358145 0.9598524 0.89610195 0.9797025
0.9438967 0.9591989 0.9966423 0.9694052 0.98799384 0.97621065 0.98375607 0.85410064
0.9553603 0.92967385 0.97693074 0.9015514 0.9803426 0.97585094 0.9025964 0.98561054
0.93366164 0.92430764 0.97439414 0.88967365 0.9594015 0.96392775 0.9344704 0.98789555
1.011907 0.9421029 0.98977286 1.0062332 0.98177755 0.94421315 0.8760248 0.93232393
0.9405909 0.95775366 0.90162855 0.9743723 0.9605195 1.0083493 0.98452944 0.91026783
00000000: 4bbf 783f cf96 7e3f d609 743f b4a4 783f
00000010: fb1b 603f 0a04 803f c453 783f 1781 5f3f
00000020: b04c 723f b8f7 7a3f 442f 723f ad67 7a3f
00000030: ee1d 7d3f 540e 4a3f fb28 703f dd97 6e3f
00000040: e652 6b3f b955 733f 9653 5b3f a51c 7b3f
00000050: 4913 783f 3f30 6b3f b60f 683f ecc2 753f
00000060: 6d0e 743f dc5d 6e3f 1b71 663f cb01 6b3f
00000070: 9ba6 763f 4b0f 723f 140b 7c3f ac02 6e3f
00000080: baae 7c3f 6d19 743f 2005 7d3f 605c 703f
00000090: 37c7 733f 0456 6c3f 4951 7b3f 96cb 763f
000000a0: c3c4 793f e63a 623f fa30 793f 0f69 6f3f
000000b0: 0dd0 7e3f 0024 763f 53f4 6c3f 17c1 763f
000000c0: 0e6f 733f da48 7b3f 2e67 713f 8419 5c3f
000000d0: 0d81 6a3f e287 783f f201 6b3f 2abd 623f
000000e0: 11f0 6c3f fb32 6d3f afa1 723f 47c5 793f
000000f0: 785d 663f 5cc5 673f 5520 7d3f 3ae8 6d3f
00000100: 8cd2 693f cdc8 783f 27f4 713f 75e8 5b3f
00000110: 6c87 633f 9983 6e3f edda 7f3f 7617 713f
00000120: 7312 733f e719 743f f906 783f f0c0 7a3f
00000130: bfbf 793f fec4 6b3f 426a 7a3f a202 663f
00000140: a569 6d3f f0d0 823f 046c 733f eb71 713f
00000150: 5822 793f 7344 6e3f fac7 723f ca0f 703f
00000160: d873 6f3f 86cf 773f 157e 5c3f 5887 743f
00000170: d190 6f3f 974e 773f fd19 643f 4713 7c3f
00000180: c20f 6f3f c93e 743f d9fa 663f 01bd 573f
00000190: 0a7a 6b3f 10c9 713f d692 6e3f 450d 693f
000001a0: c001 743f 9aa0 7f3f 4b97 813f d522 733f
000001b0: 1130 793f 7868 783f d463 6e3f 3c3c 7b3f
000001c0: 99c0 7d3f cc6c 703f 07d6 7c3f a986 623f
000001d0: e98f 763f f315 713f dcb7 6a3f c56c 7b3f
000001e0: 1111 753f 70a6 703f 3c25 7b3f c5c1 813f
000001f0: ec77 723f 2b3b 6f3f 053c 713f 5cff 7b3f
00000200: 9744 763f 0f61 6c3f 4e8b 603f aced 753f
00000210: 530b 543f 79e7 793f 0019 763f 6f02 703f
00000220: 9ca8 793f 9612 6f3f bef8 723f 227e 753f
00000230: e105 7b3f 0cde 7c3f 8849 6d3f 4625 6b3f
00000240: ead7 773f 34bd 603f 78cf 7c3f c93b 733f
00000250: f2b8 773f ebfd 6a3f 4fd9 6f3f 1f75 783f
00000260: dff8 763f fac4 653f 4101 6e3f 94d2 753f
00000270: 92e3 723f e7d8 6a3f 524b 703f e1c0 723f
00000280: 49b1 7b3f f909 6c3f 58a1 7c3f 5363 773f
00000290: 77cc 7e3f 38b8 753f 01a8 793f b56a 763f
000002a0: 2821 593f 258e 783f 2a6f 6f3f 29bb 703f
000002b0: 2adf 703f d28d 7b3f bf06 6b3f 334f 7b3f
000002c0: 8e5f 783f 9387 703f b328 7f3f 4814 7d3f
000002d0: 995d 5d3f ae2d 673f ff19 6e3f 231b 6e3f
000002e0: b5da 6e3f 7170 643f 240c 7a3f 1777 773f
000002f0: c1e7 753f 6956 7a3f ace4 6c3f c962 783f
00000300: 94b1 603f 647d 733f 34e2 6b3f c9ba 7b3f
00000310: 04d7 653f e680 633f c570 7a3f b1cd 773f
00000320: 9c9c 7c3f 347d 403f dcd7 6d3f 49ec 763f
00000330: 81b6 703f 2876 753f 5caf 733f 07b2 773f
00000340: e038 6f3f faaf 793f 008c 783f 9e63 7e3f
00000350: ea1d 743f e3b8 753f f066 653f c8cd 7a3f
00000360: 37a3 713f 0f8e 753f f323 7f3f f02a 783f
00000370: 2aed 7c3f f1e8 793f 70d7 7b3f 57a6 5a3f
00000380: 7e92 743f 1bff 6d3f 2218 7a3f 13cc 663f
00000390: bcf7 7a3f 5ed1 793f 8f10 673f f950 7c3f
000003a0: 7304 6f3f 6d9f 6c3f e571 793f a7c1 633f
000003b0: 569b 753f f8c3 763f 7439 6f3f b9e6 7c3f
000003c0: 2b86 813f a82d 713f c161 7d3f 40cc 803f
000003d0: c655 7b3f f4b7 713f 2943 603f c8ac 6e3f
000003e0: 91ca 703f 582f 753f 21d1 663f 7770 793f
000003f0: 9be4 753f 9711 813f 1f0a 7c3f 5007 693f

cls.2.bias f4 [256]
0.0014994462 0.022203295 0.002876109 -0.010942718 -0.0025289534 0.016130505 0.017974338 0.006098954
-0.016431952 0.010444269 -0.009217949 -0.0024453022 -0.011373395 0.024743581 0.01960094 0.008825992
0.0342276 -0.02733659 0.054268118 0.0073884847 -0.011227965 0.0033704257 0.03486714 -0.012954941
-0.020322148 0.008594568 0.05843346 -0.019236598 0.016238393 0.01749164 0.017176578 0.043794427
0.0021193596 0.0005580698 0.02336166 -0.018801032 0.015510529 -0.01819589 0.015953025 0.013440697
0.005009963 -0.049011435 -0.00936161 -0.032848883 0.01572189 -0.0052938345 -0.015040913 0.024066659
-0.016916715 -0.014882914 0.004876977 0.0038024264 -0.09618092 0.014325855 -0.011255706 0.062202573
-0.07438128 0.020729085 0.05072795 0.0076273894 0.04369015 0.014601375 -0.0055104974 0.014129036
-0.016719433 -0.009825056 -0.023659635 0.052202176 0.032693032 -0.008214212 -0.005662157 -0.008990905
8.403264e-05 0.038574617 -0.009304578 0.02032651 -0.0077898246 0.029588902 0.024486538 -0.06720991
0.021759558 0.009779821 0.030836506 0.013125551 0.016528508 -0.019049805 -0.011896474 0.024119569
0.046939842 -0.0041924734 -0.015815847 -0.0020224773 -0.025409978 0.0135198105 0.017304622 0.020681325
0.03791791 -0.0007284322 0.018992929 -0.0071560945 -0.014038808 0.03258061 -0.01696259 0.02883499
0.0023299917 -0.006791245 0.0142145725 0.01842269 0.018264432 -0.0075096274 0.01503269 -0.010399556
-0.016248083 -0.019891914 0.017659763 -0.007304261 -0.009413471 0.036059216 0.003860299 0.015022813
0.022482574 0.04929945 0.021406986 -0.007898752 0.020806106 -0.019630933 -0.021775067 0.011221829
0.011307215 0.013348176 -0.04399883 0.0031918045 -0.041973654 0.0194333 0.00848018 -0.044511084
0.012357965 0.020535225 0.035204522 0.020984164 -0.013501553 -0.010172167 0.0010663801 -0.023533275
-0.009628871 0.006435446 0.007010861 -2.0744066e-05 0.012060001 -0.07729432 -0.021792695 0.036253672
-0.0041780234 0.043042492 -0.008730541 0.035447255 0.014488399 0.02369009 -0.010793722 0.019142328
0.010173379 0.061001215 -0.013927996 0.013748561 0.013610846 0.016439414 -0.006477639 0.01926406
0.050020132 0.015034995 0.030489406 0.007790678 0.01616462 0.020736486 0.01632716 0.018730512
0.018554145 0.015814973 0.008612912 0.017837346 -0.017886354 -0.014441366 -0.018360035 0.051244102
0.050133884 -0.016188547 0.01770524 -0.013077226 0.017475994 -0.0021438494 -0.017832706 0.02008907
0.018637309 0.005469113 0.056710538 0.019029245 0.012899724 -0.007804873 0.018835932 0.005968574
0.011517489 -0.0033464653 -0.02426061 0.028235342 -0.008477538 -0.011621084 0.03135148 -0.0045777834
0.027453281 0.013438383 0.02640056 0.01447806 0.028166428 0.032047037 -0.03352155 0.007702617
-0.024495456 0.0066099986 -0.019204853 -0.017532915 0.014582354 -0.014776908 -0.0079196645 0.023410784
0.009001183 0.016868442 0.014328737 -0.017644972 0.02507398 0.017176583 -0.010061481 0.017166648
0.0036692303 0.011447214 -0.019665424 0.016629519 -0.0116797155 -0.011624043 0.013550278 -0.0053372052
0.013403654 -0.015957264 -0.007881074 0.014612364 0.013790843 0.009125186 -0.012665701 0.011886407
0.021438204 -0.020114938 -0.018635718 0.029380938 0.010675699 -0.015826603 -0.0050405683 0.0072770542
00000000: 1189 c43a afe3 b53c 1a7d 3c3b 1649 33bc
00000010: ccbc 25bb 1f24 843c eb3e 933c bcd9 c73b
00000020: 4d9c 86bc 701e 2b3c e106 17bc 5d41 20bb
00000030: 7a57 3abc 0db3 ca3c 2792 a03c e59a 103c
00000040: 3d32 0c3d fcf0 dfbc 3f48 5e3d 1a1b f23b
00000050: 80f5 37bc 5ce2 5c3b d9d0 0e3d f640 54bc
00000060: a27a a6bc 3bd0 0c3c ec57 6f3d 1296 9dbc
00000070: 6106 853c a14a 8f3c e5b5 8c3c c961 333d
00000080: f4e4 0a3b 6e4b 123a f460 bf3c 9f04 9abc
00000090: e01f 7e3c 8c0f 95bc ebaf 823c 5f36 5c3c
000000a0: 9e2a a43b 37c0 48bd 7061 19bc 8d8c 06bd
000000b0: 31cb 803c e777 adbb 296e 76bc 7127 c53c
000000c0: ec94 8abc 77d7 73bc 0ccf 9f3b 2132 793b
000000d0: 81fa c4bd feb6 6a3c da69 38bc 20c8 7e3d
000000e0: 3655 98bd 0bd0 a93c 1cc8 4f3d 2eef f93b
000000f0: 71f4 323d 9b3a 6f3c 6791 b4bb 797d 673c
00000100: 31f7 88bc 46f9 20bc dad1 c1bc f3d1 553d
00000110: 21e9 053d e794 06bc 9e89 b9bb 974e 13bc
00000120: ae3a b038 6b00 1e3d 3b72 18bc c883 a63c
00000130: c941 ffbb 6d64 f23c fe97 c83c 59a5 89bd
00000140: 1a41 b23c 8b3b 203c d79c fc3c 8d0c 573c
00000150: cb66 873c 560e 9cbc 6ee9 42bc 6796 c53c
00000160: fe43 403d 0461 89bb 3c90 81bc 8a8b 04bb
00000170: 9628 d0bc 3282 5d3c 6cc2 8d3c e26b a93c
00000180: cf4f 1b3d 42f4 3eba 0f97 9b3c ac7d eabb
00000190: 0703 66bc 3f73 053d 21f5 8abc 5b37 ec3c
000001a0: c6b2 183b 1889 debb 3de4 683c 2eeb 963c
000001b0: 4a9f 953c 5213 f6bb ac4b 763c e662 2abc
000001c0: b31a 85bc 5ef4 a2bc 35ab 903c 9558 efbb
000001d0: f63a 1abc d4b2 133d 12fd 7c3b 3f22 763c
000001e0: 602d b83c 38ee 493d b45d af3c c469 01bc
000001f0: 9171 aa3c 0dd1 a0bc a061 b2bc c3db 373c
00000200: e641 393c 4fb2 5a3c 1e38 34bd 982d 513b
00000210: 91ec 2bbd 9532 9f3c 74f0 0a3c 4151 36bd
00000220: 1079 4a3c 7d39 a83c 9e32 103d fbe6 ab3c
00000230: 9e35 5dbc 29a9 26bc c7c5 8b3a dbc8 c0bc
00000240: 6ac2 1dbc 6fe0 d23b 5dbb e53b 8b03 aeb7
00000250: 4f97 453c 7c4c 9ebd 9886 b2bc bb7e 143d
00000260: cde7 88bb 534d 303d 8b0a 0fbc 2431 113d
00000270: c060 6d3c b811 c23c 27d8 30bc 5fd0 9c3c
00000280: 3fae 263c 69dc 793d 4032 64bc a541 613c
00000290: 0700 5f3c f3ab 863c 6042 d4bb a9cf 9d3c
000002a0: e9e1 4c3d 5755 763c ebc4 f93c f248 ff3b
000002b0: aa6b 843c 90df a93c 89c0 853c bb70 993c
000002c0: ddfe 973c 678e 813c 2c1d 0d3c a01f 923c
000002d0: 6786 92bc 7b9b 6cbc c967 96bc 56e5 513d
000002e0: 3059 4d3d d89d 84bc 940a 913c dc41 56bc
000002f0: d129 8f3c d37f 0cbb e515 92bc d591 a43c
00000300: 45ad 983c 3f36 b33b 4f49 683d 38e3 9b3c
00000310: 5d59 533c 05c0 ffbb d04d 9a3c 0794 c33b
00000320: dab3 3c3c 5f50 5bbb 30be c6bc ce4d e73c
00000330: 5fe5 0abc 5c66 3ebc 696a 003d 3b01 96bb
00000340: b4e5 e03c aa2c 5c3c fd45 d83c 6335 6d3c
00000350: 48bd e63c c143 033d e54d 09bd 3c66 fc3b
00000360: b2aa c8bc b098 d83b 7f53 9dbc 30a1 8fbc
00000370: d3ea 6e3c d81a 72bc 7bc1 01bc f9c7 bf3c
00000380: b379 133c b02f 8a3c 14c3 6a3c 308c 90bc
00000390: f367 cd3c e8b5 8c3c e9d8 24bc 12a1 8c3c
000003a0: 7877 703b 188d 3b3c 6219 a1bc a13a 883c
000003b0: 475c 3fbc c572 3ebc fc01 5e3c b9e3 aebb
000003c0: 009b 5b3c cfb8 82bc 9f1f 01bc b268 6f3c
000003d0: fdf2 613c ce81 153c cd83 4fbc 34bf 423c
000003e0: 2c9f af3c 15c8 a4bc efa9 98bc 4bb0 f03c
000003f0: 21e9 2e3c cba6 81bc 5a2b a5bb 5b74 ee3b
