医学影像/EV_GCN/save_models/ev_gcn/fold7.pth (torch, 543861 bytes, 20 tensors)

gconv.0.weight f4 [3, 2000, 16]
0.07411814 -0.06491551 -0.061368424 -0.030726014 -0.0454095 -0.08507196 0.051794212 -0.08845939
0.08153047 -0.012061382 -0.032785613 0.07988675 -0.044734124 -0.041239757 -0.093035534 0.031553846
-0.08273424 0.14294285 -0.049319074 -0.053152088 -0.041575924 -0.04856406 -0.024815666 -0.023506481
-0.053607717 -0.026355911 -0.06321509 -0.025420964 0.019207153 0.04594905 -0.027028477 -0.031635903
0.0076557244 0.009789943 0.08973306 -0.11090863 -0.039659817 -0.020844268 0.06462488 -0.10706972
0.093016446 -0.08080284 -0.08842271 0.045573834 0.018629886 -0.06225144 -0.030402709 -0.029128222
-0.0022975842 -0.01651252 0.053949453 -0.07395909 -0.112123884 -0.042138863 0.090510234 -0.10692126
0.037211273 -0.07291932 -0.076579414 0.018667635 0.053233776 -0.037376408 -0.056254398 0.00452786
0.015422129 0.21689953 -0.025654906 -0.029651545 -0.10400827 0.036432777 0.11701373 -0.08187215
-0.091733366 -0.07151401 -0.039983384 -0.034512363 -0.0034182137 0.088046595 -0.09114482 -0.124085404
0.05022509 0.010182067 0.05627319 -0.05308302 -0.09605957 -0.09446844 0.013230141 -0.096268415
0.008658345 -0.06760116 -0.079467274 -0.02616113 -0.020937005 0.023475679 -0.06071375 -0.029095763
0.007170696 0.014999533 -0.008744605 -0.039468884 0.07687788 -0.08373784 -0.046793327 -0.07518435
0.085975096 -0.047408085 -0.07835074 0.009767442 0.0057014637 -0.07470873 -0.07196953 -0.015739009
0.0018726808 0.032909427 0.04849329 -0.074832745 0.010410828 -0.049983747 -0.03392428 -0.074543774
0.18399934 -0.10180555 -0.054811504 0.088002965 -0.070580006 -0.12570018 -0.010777139 -0.02026532
0.026087517 0.015245173 0.029781561 -0.07786444 -0.09045768 -0.014575577 0.04220138 -0.067261465
-0.013121772 -0.028077418 -0.10252344 -0.19164312 0.05349244 0.038531546 -0.04392984 -0.14175394
-0.035059914 0.07520157 0.016717855 -0.074975915 -0.080599 0.053641636 -0.10030135 -0.106103756
0.028556556 -0.054867893 -0.07038738 0.14834803 -0.05056863 -0.01895684 -0.013547947 0.0040172166
-0.18674754 0.25563392 0.024320593 -0.10737177 -0.086395346 -0.10581467 -0.059235077 -0.031956766
-0.08381439 -0.08948804 -0.090238184 -0.085536145 -0.03700956 0.09878502 -0.094029464 -0.121955425
-0.23830701 0.1664252 -0.0041761375 -0.06536795 -0.10945174 -0.06856419 -0.13766244 -0.06301419
-0.16461948 -0.016807193 -0.0772048 -0.064584516 0.03645961 0.10729112 -0.01800611 -0.13855319
-0.16176024 0.007279945 0.063688345 -0.09791918 -0.05844224 -0.09802796 -0.16214876 -0.011780655
0.020798195 -0.02998491 -0.021157233 0.021262635 -0.07950663 -0.0057483553 -0.01200938 -0.12350517
-0.016842535 0.09158454 0.08341795 -0.042088743 -0.11649617 -0.06014706 0.049879845 -0.09465716
-0.0053730835 -0.07817915 -0.053776022 0.033265676 -0.1370384 0.096186176 -0.06375328 -0.09234734
-0.047585294 0.1669541 0.0011315907 -0.031346112 -0.056155734 -0.03131358 -0.09769573 -0.11209649
-0.010324602 -0.1056437 -0.072669365 0.044416964 0.07167473 0.07597145 -0.07307596 -0.082125455
0.0056059533 0.3588308 -0.08009556 -0.0893081 -0.07304214 -0.10258069 -0.2627831 -0.04491162
-0.28201976 -0.0072843595 -0.09315384 -0.14031011 0.013897101 0.1017313 -0.07091705 -0.12694044
00000000: 40cb 973d 6cf2 84bd 755d 7bbd 1fb5 fbbc
00000010: 50ff 39bd 353a aebd 2b26 543d 322a b5bd
00000020: 72f9 a63d 1a9d 45bc 354a 06bd aa9b a33d
00000030: 213b 37bd 05eb 28bd 6a89 bebd 9b3e 013d
00000040: 9270 a9bd 9c5f 123e cc02 4abd 01b6 59bd
00000050: 844b 2abd 1ceb 46bd 394a cbbc aa90 c0bc
00000060: c493 5bbd 5ae8 d7bc ea76 81bd a03f d0bc
00000070: 5258 9d3c 1235 3c3d d36a ddbc a694 01bd
00000080: dfdc fa3b ff65 203c f7c5 b73d 1024 e3bd
00000090: 5572 22bd 99c1 aabc 0d5a 843d 5f47 dbbd
000000a0: 687f be3d f67b a5bd f716 b5bd a1ab 3a3d
000000b0: b49d 983c 5efb 7ebd 1a0f f9bc 4f9e eebc
000000c0: 1193 16bb 4445 87bc 1afa 5c3d dd77 97bd
000000d0: 35a1 e5bd cd99 2cbd 6e5d b93d 89f9 dabd
000000e0: d96a 183d b956 95bd abd5 9cbd deec 983c
000000f0: a90b 5a3d 0118 19bd 036b 66bd 715e 943b
00000100: 19ad 7c3c e91a 5e3e 3d2a d2bc cce7 f2bc
00000110: 4a02 d5bd 893a 153d e5a4 ef3d 96ac a7bd
00000120: b4de bbbd f075 92bd 9ec5 23bd d65c 0dbd
00000130: 1c04 60bb c651 b43d 23aa babd 7d20 febd
00000140: d3b8 4d3d afd2 263c b77e 663d 956d 59bd
00000150: e1ba c4bd ab78 c1bd 3cc3 583c 6028 c5bd
00000160: bbdb 0d3c 7a72 8abd bdbf a2bd de4f d6bc
00000170: 1584 abbc 1150 c03c fbae 78bd 3d5a eebc
00000180: 28f8 ea3b 9ac0 753c 8845 0fbc 20aa 21bd
00000190: 2672 9d3d bf7e abbd 5caa 3fbd 41fa 99bd
000001a0: b613 b03d fb2e 42bd 5a76 a0bd 9f07 203c
000001b0: 58d3 ba3b e400 99bd c364 93bd 18ef 80bc
000001c0: be74 f53a 09cc 063d e6a0 463d e941 99bd
000001d0: 2d92 2a3c c2bb 4cbd 30f4 0abd 68aa 98bd
000001e0: 536a 3c3e 6e7f d0bd 0782 60bd e63a b43d
000001f0: 408c 90bd 8cb7 00be 9992 30bc 7503 a6bc
00000200: 7db5 d53c e4c6 793c 76f8 f33c 6477 9fbd
00000210: e041 b9bd 67ce 6ebc 5bdb 2c3d 61c0 89bd
00000220: b3fc 56bc 9d02 e6bc cff7 d1bd 183e 44be
00000230: e41a 5b3d 41d3 1d3d c7ef 33bd f227 11be
00000240: fc9a 0fbd 4803 9a3d e2f3 883c f98c 99bd
00000250: 1711 a5bd 55b7 5b3d cb6a cdbd ed4c d9bd
00000260: 70ef e93c 28bd 60bd 4227 90bd 8ce8 173e
00000270: 0d21 4fbd 604b 9bbc 35f8 5dbc dba2 833b
00000280: bf3a 3fbe 73e2 823e fb3b c73c bbe5 dbbd
00000290: 0bf0 b0bd 5db5 d8bd 7ba0 72bd 19e5 02bd
000002a0: e1a6 abbd 8145 b7bd ccce b8bd 932d afbd
000002b0: 5697 17bd cd4f ca3d 8592 c0bd c4c3 f9bd
000002c0: c106 74be 5e6b 2a3e fbd7 88bb a2df 85bd
000002d0: 3c28 e0bd 626b 8cbd 62f7 0cbe 950d 81bd
000002e0: 0292 28be 3daf 89bc 8d1d 9ebd e344 84bd
000002f0: ac56 153d 72bb db3d 8d81 93bc e3e0 0dbe
00000300: 7aa4 25be 9b8c ee3b 096f 823d da89 c8bd
00000310: 2161 6fbd e2c2 c8bd 530a 26be a603 41bc
00000320: fa60 aa3c eaa2 f5bc ef51 adbc fa2e ae3c
00000330: 5fd4 a2bd b35c bcbb fec2 44bc 47f0 fcbd
00000340: 5bf9 89bc ad90 bb3d 08d7 aa3d 3f65 2cbd
00000350: 8b95 eebd c35c 76bd cf4e 4c3d 9ddb c1bd
00000360: b110 b0bb 641c a0bd 3f44 5cbd 9741 083d
00000370: cb53 0cbe 42fd c43d 1491 82bd 9a20 bdbd
00000380: cce8 42bd 04f6 2a3e e251 943a c864 00bd
00000390: 8e03 66bd ab42 00bd b314 c8bd d892 e5bd
000003a0: 8528 29bc b95b d8bd add3 94bd 90ee 353d
000003b0: 33ca 923d eb96 9b3d d9a8 95bd 6431 a8bd
000003c0: 25b2 b73b acb8 b73e 2409 a4bd 2ae7 b6bd
000003d0: 1e97 95bd d315 d2bd 828b 86be 3ff5 37bd
000003e0: e564 90be a3b1 eebb 71c7 bebd 74ad 0fbe
000003f0: abb0 633c 8058 d03d f53c 91bd adfc 01be

gconv.1.weight f4 [3, 16, 16]
0.20725873 0.0036825414 0.2034627 0.03166135 -0.11567244 -0.30184594 -0.12703824 -0.47138053
-0.34002152 -0.3138116 -0.07965976 0.058571007 0.104541846 -0.41051057 -0.44849512 -0.23292665
0.18041296 0.034619283 0.47722554 -0.011551682 -0.11394932 0.001662951 0.106304266 -0.35795927
0.38801777 -0.25855646 0.26280695 0.33269763 -0.30517203 -0.23796365 -0.14554596 0.36493236
0.3261651 -0.2334269 -0.19924569 -0.26329082 -0.36862206 -0.40982008 0.18547787 0.33510396
0.21503745 -0.39381284 -0.27983323 -0.16762945 -0.31746578 -0.1649457 0.30012205 0.12063595
-0.18341689 0.3587991 0.060471192 -0.41033095 0.27243525 -0.21719073 -0.28312334 0.08151842
-0.16692941 0.19449274 -0.18804225 -0.34221315 -0.14592771 0.18749715 0.14533643 0.1449513
0.2052275 -0.12209259 -0.12982112 -0.37353432 -0.23918112 0.004812638 -0.14660545 0.19928414
0.43093884 -0.30056787 -0.4153013 -0.15526386 0.10666972 -0.4295456 -0.18204658 0.425269
0.15353248 0.0008064376 -0.28432304 0.29478115 -0.065533 0.1907145 0.16872777 0.262554
0.27543503 0.21237229 0.20721538 -0.28603584 0.066065975 -0.37812108 -0.32693008 0.042469148
0.32922086 0.012431426 -0.1496034 -0.20693105 0.38864797 0.16162851 0.15216087 0.12074404
0.3323561 0.20541058 -0.5182839 -0.44453546 -0.35942212 -0.19417335 0.3650857 0.2966794
-0.40588668 -0.31719333 -0.40734524 -0.006739778 -0.27415895 -0.034096565 0.2021817 0.15131009
-0.05761207 -0.066991575 -0.019465052 0.02887204 -0.022266354 0.059505012 0.06019903 0.20244221
-0.58424526 -0.18805008 -0.075717255 -0.16890979 -0.073467076 0.114222184 0.13345742 -0.08218055
0.13365197 -0.007155881 0.09109922 -0.0376432 0.045624264 0.14506404 -0.3420928 0.058651995
0.11979063 -0.09810187 0.29393968 0.45321044 0.1539583 0.097952746 0.096633434 0.08715003
-0.046720307 0.20713608 0.35807386 -0.16073924 -0.36345965 0.04190261 -0.052942716 -0.066761665
-0.0019883509 0.14519373 0.029590921 -0.32827964 -0.053334672 -0.14861189 0.005218975 0.22983092
0.0962155 0.099688366 -0.007996115 0.2870782 0.24723555 -0.19501647 -0.41902968 0.21585505
-0.34540918 -0.16513292 0.05345239 -0.10155579 0.36831534 -0.15066072 -0.1529339 0.059920605
-0.23728918 0.045024868 0.35566485 0.25874692 0.17227216 0.09335082 0.3286457 0.280613
-0.4234573 0.31373164 -0.20300592 0.44056958 0.30653676 -0.35431987 -0.19081028 0.056171145
-0.19375086 0.24828632 -0.085200965 0.21753423 -0.42470133 0.3644066 0.02679565 -0.25791028
0.012374772 0.06900117 0.2111207 -0.07509344 0.029299675 0.09093583 0.10945495 0.10562267
0.16098785 -0.20168494 -0.08286541 -0.49753833 0.1909033 -0.6063597 -0.14434016 0.29856125
-0.44365722 0.23796861 0.13202514 0.02929279 0.30103523 0.09245593 -0.27960527 0.4487432
-0.266412 -0.2931886 -0.11423559 -0.16819279 -0.09551311 0.24742638 -0.40696967 -0.2861411
0.0012999349 -0.1406764 -0.17638218 -0.07681923 -0.020128103 -0.3063 0.094460465 0.27493608
-0.013749667 0.10435603 0.55178523 -0.0782689 0.4680559 -0.13891527 0.14646082 -0.186471
00000000: a23b 543e cb56 713b 8758 503e 55af 013d
00000010: ace5 ecbd 8d8b 9abe 5016 02be ca58 f1be
00000020: 4d17 aebe eaab a0be a824 a3bd 27e8 6f3d
00000030: 091a d63d 712e d2be 27a1 e5be 5384 6ebe
00000040: 2dbe 383e f3cc 0d3d e856 f43e 4443 3dbc
00000050: 435e e9bd 60f7 d93a 0db6 d93d 7046 b7be
00000060: 44aa c63e 8361 84be a28e 863e 5857 aa3e
00000070: 823f 9cbe beac 73be 000a 15be 6ad8 ba3e
00000080: 1dff a63e 7607 6fbe 1007 4cbe 0ece 86be
00000090: 08bc bcbe f0d3 d1be e9ed 3d3e bf92 ab3e
000000a0: c732 5c3e d6a1 c9be 4d46 8fbe 0ea7 2bbe
000000b0: e08a a2be 87e7 28be 99a9 993e fb0f f73d
000000c0: a3d1 3bbe 84b4 b73e a4b0 773d e616 d2be
000000d0: a27c 8b3e 3f67 5ebe 8bf5 90be 21f3 a63d
000000e0: 8bef 2abe 1b29 473e 268e 40be 9036 afbe
000000f0: 136e 15be 41ff 3f3e 13d3 143e 1d6e 143e
00000100: 2827 523e ae0b fabd d4ef 04be e43f bfbe
00000110: e5eb 74be 55b3 9d3b bd1f 16be 2411 4c3e
00000120: 04a4 dc3e 08e4 99be 5fa2 d4be 7dfd 1ebe
00000130: a775 da3d 67ed dbbe 6b6a 3abe dcbc d93e
00000140: 9e37 1d3e 1c67 533a ca92 91be 8eed 963e
00000150: 2a36 86bd a94a 433e f9c6 2c3e 7a6d 863e
00000160: d205 8d3e 1f78 593e 4530 543e 4a73 92be
00000170: 994d 873d 1699 c1be 6163 a7be 21f4 2d3d
00000180: a38f a83e 2ead 4b3c a231 19be bce5 53be
00000190: defc c63e f281 253e 0fd0 1b3e a748 f73d
000001a0: 942a aa3e 2757 523e 41ae 04bf 279a e3be
000001b0: 2d06 b8be 61d5 46be 83ec ba3e 5de6 973e
000001c0: 61d0 cfbe 2a67 a2be 8e8f d0be 5bd9 dcbb
000001d0: 905e 8cbe d7a8 0bbd b808 4f3e 08f1 1a3e
000001e0: a2fa 6bbd e132 89bd 2c75 9fbc 0e85 ec3c
000001f0: ee67 b6bc 87bb 733d 4293 763d 034d 4f3e
00000200: 1991 15bf 3390 40be a611 9bbd b0f6 2cbe
00000210: e875 96bd 52ed e93d 10a9 083e 474e a8bd
00000220: 10dc 083e e17b eabb 3a92 ba3d c22f 1abd
00000230: 82e0 3a3d ab8b 143e ca26 afbe 133d 703d
00000240: ca54 f53d a2e9 c8bd 437f 963e 330b e83e
00000250: 3fa7 1d3e 739b c83d c0e7 c53d b77b b23d
00000260: cb5d 3fbd 7b1b 543e 7555 b73e d498 24be
00000270: 6217 babe 12a2 2b3d 76da 58bd 57ba 88bd
00000280: fe4e 02bb aaad 143e a968 f23c 4514 a8be
00000290: 7575 5abd b72d 18be ef03 ab3b cc58 6b3e
000002a0: a20c c53d 6a29 cc3d 2302 03bc eafb 923e
000002b0: 512b 7d3e 66b2 47be 0f8b d6be 1b09 5d3e
000002c0: 79d9 b0be 9b18 29be e5f0 5a3d 7bfc cfbd
000002d0: d493 bc3e ce46 1abe b49a 1cbe 4f6f 753d
000002e0: effb 72be ff6b 383d b419 b63e 7a7a 843e
000002f0: 1d68 303e b72e bf3d 4044 a83e 82ac 8f3e
00000300: 65cf d8be 6fa1 a03e c9e0 4fbe 5692 e13e
00000310: 63f2 9c3e 6a69 b5be c563 43be b713 663d
00000320: a066 46be c53e 7e3e d87d aebd 4bc1 5e3e
00000330: 7472 d9be 8093 ba3e 8d82 db3c d10c 84be
00000340: 8ebf 4a3c 7c50 8d3d 0630 583e 97ca 99bd
00000350: df05 f03c 903c ba3d eb29 e03d b350 d83d
00000360: 00da 243e 7f86 4ebe 57b5 a9bd 58bd febe
00000370: 287c 433e 643a 1bbf e8cd 13be 05dd 983e
00000380: 0a27 e3be 0bae 733e 9931 073e 6ff7 ef3c
00000390: 4a21 9a3e 8959 bd3d 6c28 8fbe abc1 e53e
000003a0: 2767 88be d11c 96be 59f4 e9bd bb3a 2cbe
000003b0: 619c c3bd 575d 7d3e 545e d0be 1681 92be
000003c0: 9462 aa3a 790d 10be 889d 34be 6753 9dbd
000003d0: b1e3 a4bc 5bd3 9cbe 7d74 c13d 6cc4 8c3e
000003e0: 4946 61bc 9db8 d53d cc41 0d3f 724b a0bd
000003f0: 06a5 ef3e ce3f 0ebe d3f9 153e 41f2 3ebe

gconv.2.weight f4 [3, 16, 16]
-0.2429898 -0.21766499 0.15471736 0.28312027 0.4124986 -0.05925688 0.2754414 -0.08099137
-0.2345528 0.16970073 -0.2730322 0.2313005 -0.47938183 -0.23066849 0.2639699 -0.20070285
-0.05295436 0.21312995 -0.12666576 0.18279715 0.32461256 -0.37016562 0.36944726 0.02524151
-0.4965218 0.23326837 -0.30650195 -0.4053048 0.19710855 -0.2348645 -0.452336 0.31776416
-0.37300253 -0.25825542 0.2510972 0.18776362 -0.02535634 -0.0731487 -0.4174214 0.19058672
-0.27062723 0.3488893 0.046554934 -0.16043383 0.26518846 0.14720026 0.099886686 -0.32517081
-0.34120893 -0.31534246 0.34914055 -0.20722003 -0.2709835 -0.3020215 -0.3692046 -0.536863
0.23186521 -0.17162779 -0.12470059 0.18809009 0.43233126 0.35347635 0.27678967 0.47319368
-0.2759148 -0.045417886 0.11306619 -0.32696527 0.22009648 0.35763994 0.002359788 -0.26458898
-0.18241048 0.1763851 -0.15785547 -0.0031232594 -0.32000607 -0.33782586 0.31773496 -0.2772577
0.23252904 -0.31678417 -0.41476414 0.21253166 -0.046456274 0.35569105 -0.10794367 0.28081787
-0.0071693053 -0.0022672953 -0.24125746 -0.056561723 -0.3642939 -0.1462453 -0.29274124 0.19351666
0.19360192 -0.039393887 -0.082953975 -0.3723974 -0.19325483 -0.13886908 -0.087241374 0.22487146
-0.22484875 -0.0014434543 0.3906821 -0.036376942 -0.19329019 -0.0589214 0.31185964 0.37956458
-0.37185434 0.19040765 -0.082211025 -0.2655894 0.24278378 -0.13380882 0.37719312 -0.18283622
-0.37916085 -0.3933504 -0.31839508 0.15434134 0.14564171 0.020295283 -0.18766944 0.19165412
-0.5173323 -0.44897935 0.33663967 -0.19816937 -0.16341527 -0.24116062 -0.05753715 -0.12509263
0.04763895 -0.090102576 0.06709888 0.28831637 -0.49649945 -0.37225115 0.15703146 -0.08519193
-0.26793745 0.29483873 -0.008475784 0.23058364 0.3690251 -0.33090287 -0.31350636 0.006837654
-0.06799155 -0.11054248 0.4779726 0.035212208 0.14263782 -0.19447787 -0.30191514 0.4350336
-0.031996194 0.11408289 -0.22909556 -0.02769668 0.24132216 -0.29461855 0.1529741 0.1518754
-0.34360832 -0.000579431 0.061853666 0.022878429 0.20574218 -0.312585 -0.1490268 -0.040276036
0.27635828 0.04681665 -0.07368953 -0.13857298 0.24212268 0.29294264 -0.13949871 -0.08616104
0.3387278 0.25297683 0.25429446 -0.051657762 -0.30420926 -0.027356401 -0.42185226 0.017514564
0.052685697 0.26244244 -0.3530438 -0.0017242039 -0.25219256 -0.34290585 -0.34381035 0.11486291
0.24839298 -0.2085177 0.15607075 0.078285 0.22550239 0.070272304 0.3472815 -0.40797693
-0.32133278 0.2749446 0.346616 -0.29946905 -0.32183725 0.31178415 -0.44233978 -0.034641214
-0.06152315 -0.24103355 0.24791104 0.29689062 0.42302683 -0.24944748 -0.18498701 -0.06701717
0.34543929 -0.48123175 0.11393394 -0.13357115 0.12730071 0.183883 -0.14244503 0.4241454
-0.2422463 -0.05715932 -0.35411993 0.26680595 -0.52865493 -0.28079003 -0.06628334 0.27250403
-0.051030137 -0.004459581 0.24182749 0.18203618 -0.13410278 -0.2851559 0.31508842 -0.018834248
-0.4335535 -0.37983927 0.24522583 -0.47411764 -0.251029 0.0286955 0.037983023 -0.24152592
00000000: 51d2 78be 92e3 5ebe 3a6e 1e3e 24f5 903e
00000010: 0433 d33e 58b7 72bd a806 8d3e cede a5bd
00000020: 9c2e 70be 07c6 2d3e e0ca 8bbe 0ada 6c3e
00000030: 8971 f5be 5c34 6cbe 1027 873e 0c85 4dbe
00000040: ace6 58bd bd3e 5a3e abb4 01be 2d2f 3b3e
00000050: 9e33 a63e 5986 bdbe 3128 bd3e 48c7 ce3c
00000060: 1b38 febe e7dd 6e3e d3ed 9cbe 1c84 cfbe
00000070: d3d6 493e 5280 70be 9698 e7be fcb1 a23e
00000080: 30fa bebe 0e3a 84be d08f 803e 1b45 403e
00000090: 19b8 cfbc fcce 95bd 42b8 d5be 2a29 433e
000000a0: a78f 8abe 9ea1 b23e 63b0 3e3d c448 24be
000000b0: c8c6 873e aabb 163e 6491 cc3d ca7c a6be
000000c0: f0b2 aebe 9174 a1be 8dc2 b23e 7d31 54be
000000d0: 59be 8abe 90a2 9abe 6308 bdbe db6f 09bf
000000e0: 136e 6d3e 32bf 2fbe 0663 ffbd b09a 403e
000000f0: 865a dd3e dafa b43e 60b7 8d3e 7146 f23e
00000100: b444 8dbe 1b08 3abd 3f8f e73d fe67 a7be
00000110: f960 613e 951c b73e aca6 1a3b 3578 87be
00000120: d0c9 3abe 4c9e 343e dda4 21be 99af 4cbb
00000130: d6d7 a3be 83f7 acbe 28ae a23e b9f4 8dbe
00000140: 181c 6e3e 8931 a2be f75b d4be e6a1 593e
00000150: ef48 3ebd 231d b63e 9211 ddbd 5cc7 8f3e
00000160: 7eec eabb e796 14bb 320c 77be 44ad 67bd
00000170: bb84 babe 54c1 15be 2ee2 95be 3b29 463e
00000180: 953f 463e 7c5b 21bd c6e3 a9bd dfaa bebe
00000190: 98e4 45be b233 0ebe 9bab b2bd b444 663e
000001a0: c03e 66be 4a32 bdba 7c07 c83e fdff 14bd
000001b0: dded 45be 9157 71bd 11ac 9f3e 4a56 c23e
000001c0: b163 bebe 39fa 423e 415e a8bd 55fb 87be
000001d0: 509c 783e 2e05 09be 751f c13e 6b39 3bbe
000001e0: 5f21 c2be 3965 c9be ae04 a3be a80b 1e3e
000001f0: 1a23 153e 4b42 a63c 6b2c 40be fa40 443e
00000200: e46f 04bf 9fe0 e5be 095c ac3e e9ec 4abe
00000210: 5556 27be cff2 76be 13ac 6bbd 4818 00be
00000220: 0f21 433d b387 b8bd 236b 893d 349e 933e
00000230: 2d35 febe b497 bebe dbcc 203e 1b79 aebd
00000240: 192f 89be 1af5 963e 04de 0abc 1e1e 6c3e
00000250: dcf0 bc3e 1a6c a9be e883 a0be 660e e03b
00000260: 273f 8bbd 1964 e2bd d3b8 f43e ad3a 103d
00000270: a60f 123e 3525 47be 9f94 9abe b9bc de3e
00000280: 710e 03bd 4aa4 e93d 0798 6abe 26e4 e2bc
00000290: 281d 773e 3ed8 96be 3ea5 1c3e 3a85 1b3e
000002a0: 6eed afbe f5e4 17ba 455a 7d3d 8b6b bb3c
000002b0: 14ae 523e 240b a0be 7b9a 18be 7cf8 24bd
000002c0: d57e 8d3e d1c2 3f3d 89ea 96bd 13e6 0dbe
000002d0: 02ef 773e 94fc 953e c0d8 0ebe 3375 b0bd
000002e0: bb6d ad3e 2e86 813e e232 823e 1797 53bd
000002f0: 51c1 9bbe 881a e0bc 05fd d7be b47a 8f3c
00000300: f5cc 573d db5e 863e 28c2 b4be affe e1ba
00000310: 621f 81be 5b91 afbe e907 b0be 3f3d eb3d
00000320: bb5a 7e3e aa85 55be 03d1 1f3e e353 a03d
00000330: 19ea 663e edea 8f3d e1ce b13e 5ae2 d0be
00000340: bb85 a4be 8ac5 8c3e a777 b13e 0254 99be
00000350: dac7 a4be 2ca2 9f3e 5c7a e2be f2e3 0dbd
00000360: b3ff 7bbd 80d1 76be 64dc 7d3e 0c02 983e
00000370: f996 d83e 296f 7fbe 3c6d 3dbe 4c40 89bd
00000380: 6bdd b03e 0264 f6be 3356 e93d e0c6 08be
00000390: 1e5b 023e d34b 3c3e 1cdd 11be 9629 d93e
000003a0: 6a0f 78be e41f 6abd 354f b5be ca9a 883e
000003b0: ee55 07bf b6c3 8fbe 8fbf 87bd a685 8b3e
000003c0: fa04 51bd ad21 92bb a0a1 773e b167 3a3e
000003d0: 3d52 09be f4ff 91be 4553 a13e 484a 9abc
000003e0: b9fa ddbe 4b7a c2be 7b1c 7b3e 8cbf f2be
000003f0: e086 80be d312 eb3c 1694 1b3d 9252 77be

gconv.3.weight f4 [3, 16, 16]
-0.23610279 -0.45105842 -0.04400614 0.2091679 -0.09514176 -0.2006468 -0.47289515 -0.34623483
0.0023071608 -0.10817698 0.15517946 0.17126946 -0.08190753 -0.3109705 0.005723108 0.40070772
0.01828513 -0.29844585 -0.03749033 -0.21446468 -0.22147092 -0.043093957 0.097345255 -0.47129303
-0.2892942 -0.1724032 0.25283894 0.31732336 0.42057762 -0.4946477 0.0049061608 0.16138086
-0.07788962 0.1816473 -0.4288855 -0.13821694 0.09840435 -0.2325842 -0.327591 0.0015448678
-0.09796771 0.3107042 -0.07029733 0.49475816 0.02823551 0.33644426 -0.3873912 0.08355636
-0.023932619 0.10563156 -0.26629856 0.12758987 -0.29427984 0.112902276 -0.266764 0.1296867
-0.055114944 0.18209325 0.15721518 -0.049627416 0.30126056 -0.26051858 0.2948439 -0.22952595
0.17150488 -0.31319186 -0.14544995 -0.21275698 -0.3334708 0.21381524 -0.28306592 0.054986198
-0.022112485 -0.1966406 0.17427862 0.3028273 0.22975375 0.39880812 0.1473647 -0.1584705
-0.28187943 0.24916072 0.2621488 -0.10562505 -0.39922407 0.2758023 0.37180868 -0.21409884
-0.09242296 -0.33533296 0.1229182 0.33101222 0.004692125 -0.09021744 -0.37405005 -0.050683334
-0.20685036 0.16961013 0.032367095 0.27679548 -0.17606707 -0.07259991 0.099241614 0.07613348
-0.36345014 -0.24579966 -0.025005497 0.025837384 0.057473592 -0.26082548 -0.015576249 0.19485897
0.36933064 0.09537659 -0.08847562 0.23869659 0.100565486 0.05322629 -0.025079837 -0.3018079
0.33676395 0.24800146 -0.114127055 0.28378293 -0.07175279 0.25540146 -0.3364686 -0.4363214
0.18887909 -0.08746605 -0.10669455 -0.26354465 -0.07494575 -0.22076422 0.1924442 -0.39482158
0.0006345357 0.23768945 -0.23777428 0.11414262 0.06558351 -0.20032379 0.2772659 -0.12717597
0.012570191 0.17276417 -0.08400303 0.32602474 -0.20802593 -0.100210905 -0.27047533 -0.27362102
0.26047295 0.11067538 -0.059653834 0.20935036 -0.33550814 -0.05506691 0.12909171 -0.20392098
0.32750243 -0.36791325 0.08802457 -0.323571 -0.002174102 0.060922567 0.19277915 0.4278719
0.18487543 -0.2677964 0.16296743 0.17097607 0.31070304 0.009296967 -0.28570294 0.15941195
0.25647646 -0.21422881 -0.25960273 0.36235029 0.24353878 -0.47478452 0.22514859 -0.084307425
0.35326833 -0.37547016 -0.18617435 0.012532626 0.36700806 -0.008571956 0.10406088 -0.3643501
0.33044976 0.1817182 0.20842269 0.0954064 0.14365038 0.33151317 0.3283729 -0.16700447
-0.3814545 -0.2649876 0.43558967 0.16138099 -0.31094056 -0.16633976 -0.41951168 0.32889494
-0.04663432 0.22777113 -0.2332436 -0.31511846 0.32221156 -0.2606178 0.4604165 0.21118872
0.09100738 0.07716433 0.24926484 0.37503934 0.24399741 -0.07251745 0.22994535 0.21967492
0.013405767 0.25330317 -0.07654814 -0.03571035 0.36146197 0.17061941 0.015042872 -0.42366958
-0.2944364 -0.39034554 0.06994175 0.31493878 0.13585694 0.17414604 0.026287725 0.19006984
0.13177459 0.17188777 -0.11397925 0.22654603 -0.03983899 0.27208865 0.19141611 0.12586159
-0.28929046 0.30506012 -0.106345445 0.10854413 0.44491684 -0.2625599 0.099263065 -0.32662413
00000000: eec4 71be 21f1 e6be c83f 34bd 1c30 563e
00000010: afd9 c2bd 5b76 4dbe 501f f2be b145 b1be
00000020: bc33 173b e48b ddbd 5de7 1e3e 4361 2f3e
00000030: 23bf a7bd 8637 9fbe e988 bb3b 9029 cd3e
00000040: b2ca 953c e5cd 98be 768f 19bd a19c 5bbe
00000050: 46c9 62be 4a83 30bd f35c c73d 524d f1be
00000060: 5f1e 94be 778a 30be 1b74 813e 3578 a23e
00000070: f355 d73e 7742 fdbe dcc3 a03b 0641 253e
00000080: 9884 9fbd c001 3a3e e196 dbbe be88 0dbe
00000090: 3888 c93d 8d2a 6ebe 02ba a7be 297d ca3a
000000a0: 4ba3 c8bd 9f14 9f3e 0cf8 8fbd f150 fd3e
000000b0: 284e e73c 6c42 ac3e 2458 c6be 991f ab3d
000000c0: 570e c4bc 5c55 d83d 4958 88be eba6 023e
000000d0: d9ab 96be 4f39 e73d 4a95 88be 97cc 043e
000000e0: 35c0 61bd a776 3a3e 04fd 203e 1e46 4bbd
000000f0: d33e 9a3e b162 85be c8f5 963e da08 6bbe
00000100: fa9e 2f3e af5a a0be d5f0 14be f7dc 59be
00000110: afbc aabe 62f2 5a3e 04ee 90be 3539 613d
00000120: 3e25 b5bc 275c 49be 1876 323e 2e0c 9b3e
00000130: 9144 6b3e 9430 cc3e c6e6 163e 1746 22be
00000140: 8052 90be fd23 7f3e 5e38 863e f251 d8bd
00000150: 1967 ccbe f635 8d3e b55d be3e ba3c 5bbe
00000160: 4048 bdbd c3b0 abbe 8abc fb3d 6f7a a93e
00000170: 66c0 993b ecc3 b8bd 7d83 bfbe 5499 4fbd
00000180: 95d0 53be 47ae 2d3e 5c93 043d 23b8 8d3e
00000190: ed4a 34be 43af 94bd 303f cb3d dfeb 9b3d
000001a0: 2316 babe e8b2 7bbe 54d8 ccbc eca8 d33c
000001b0: 6e69 6b3d eb8a 85be 8633 7fbc 1c89 473e
000001c0: e818 bd3e cd54 c33d b532 b5bd e16c 743e
000001d0: 47f5 cd3d cf03 5a3d 3b74 cdbc 9186 9abe
000001e0: 536c ac3e 18f4 7d3e 72bb e9bd ff4b 913e
000001f0: 20f3 92bd fbc3 823e 9d45 acbe 8565 dfbe
00000200: 8569 413e 6721 b3bd ac82 dabd 53ef 86be
00000210: 287d 99bd 0410 62be 1810 453e 0e26 cabe
00000220: f856 263a dd64 733e 1a7b 73be 9bc3 e93d
00000230: a650 863d ae21 4dbe ccf5 8d3e 6b3a 02be
00000240: 34f3 4d3c 17e9 303e c809 acbd b7ec a63e
00000250: c004 55be 603b cdbd be7b 8abe 0e18 8cbe
00000260: b65c 853e c6a9 e23d 9457 74bd f15f 563e
00000270: b9c7 abbe d78d 61bd 9e30 043e a9d0 50be
00000280: 66ae a73e 205f bcbe 3a46 b43d 19ab a5be
00000290: 617b 0ebb f189 793d e667 453e 0712 db3e
000002a0: fc4f 3d3e 9c1c 89be efe0 263e 5a14 2f3e
000002b0: 7814 9f3e 4e52 183c a847 92be e33c 233e
000002c0: e250 833e cc5e 5bbe a6ea 84be fa85 b93e
000002d0: 3b62 793e f516 f3be 5a8d 663e 5fa9 acbd
000002e0: 96df b43e a03d c0be 7da4 3ebe a555 4d3c
000002f0: 7be8 bb3e 6471 0cbc df1d d53d 198c babe
00000300: b630 a93e 5614 3a3e c26c 553e 6e64 c33d
00000310: 1619 133e 18bc a93e 7e20 a83e 3803 2bbe
00000320: 014e c3be 74ac 87be 9c05 df3e 0f41 253e
00000330: 9a33 9fbe f854 2abe 3cca d6be eb64 a83e
00000340: a103 3fbd d63c 693e 69d7 6ebe 3557 a1be
00000350: eaf8 a43e b26f 85be b6bb eb3e db41 583e
00000360: 1462 ba3d 5508 9e3d 483f 7f3e 2805 c03e
00000370: 75da 793e 0784 94bd cb76 6b3e 76f2 603e
00000380: dda3 5b3c f4b0 813e 45c5 9cbd 0445 12bd
00000390: 8b11 b93e dbb6 2e3e 6176 763c 38eb d8be
000003a0: 5ec0 96be 5fdb c7be 9f3d 8f3d a83f a13e
000003b0: 151e 0b3e 5753 323e 5b59 d73c aba1 423e
000003c0: ebef 063e 5903 303e f46d e9bd affb 673e
000003d0: 352e 23bd 344f 8b3e 9602 443e dce1 003e
000003e0: e11d 94be d730 9c3e a4cb d9bd 634c de3d
000003f0: 24cc e33e 406e 86be 6f4a cb3d 473b a7be

cls.0.weight f4 [256, 64]
0.00028571291 0.028969096 0.03284461 -0.123561755 0.036145244 0.014535765 -0.13954586 0.0045592766
-0.008785983 -0.0027356907 -0.04380246 0.0008246092 -0.005376373 0.0010375141 -0.045486614 0.0072014984
-0.15096189 -0.05501344 0.0026895348 -0.043774117 -0.094454974 -0.0025309154 -0.009887491 -0.23687518
-0.103895076 0.08294355 -0.004084656 -0.03235736 0.21254048 0.1276918 -0.004361671 0.08587501
-0.17135473 0.050920457 -0.08800074 0.005107033 0.4125734 0.41927972 -0.06497586 -0.07368121
-0.064648464 0.0143122915 -0.036215253 -0.05307257 0.035571378 -0.010710665 0.11750548 0.2818369
-0.26879868 0.02730536 -0.058448788 -0.029654985 0.23854518 -0.093720034 0.2885435 0.40264064
-0.02784367 0.05241523 0.32793027 0.07857967 -0.13767895 0.051431537 -0.14167202 -0.012507445
0.0026371484 -0.18089463 -0.3717915 -0.10421233 0.06690463 0.0061674346 -0.1365059 0.020614257
-0.21525434 -0.08190246 0.21864648 -0.01619924 0.21113795 0.041611098 0.035111595 0.0909058
0.076011226 0.31527936 0.08528848 -0.032560024 -0.047389984 -0.041136313 -0.03645565 -0.14756314
-0.50388736 -0.37419456 0.102795854 0.017497694 0.11895374 -0.028686162 0.0300901 0.049927488
-0.0043751355 0.25951377 -0.26030204 0.13158472 -0.3245063 0.039203793 -0.28905436 -0.16533224
0.05388238 0.046347823 -0.3413081 0.020258097 -0.004549559 -0.04110197 -0.11792576 -0.12843023
-0.06271743 0.20623955 0.052501414 -0.09278593 0.09557438 0.014894023 -0.04680706 -0.1347876
-0.060133364 -0.06882867 -0.18038344 0.029720245 -0.047997646 0.05202912 -0.31028777 -0.025192253
-0.06691404 0.1488796 -0.14452392 0.008666158 0.040674653 0.11521702 -0.13167562 0.01649756
0.098831944 -0.11686693 -0.18038072 0.014503349 0.1780492 -0.012448558 -0.06750363 0.023305478
0.05981544 -0.02815752 0.32337102 -0.14602943 0.014818419 0.13440485 0.11659139 0.32128936
-0.10267317 -0.19422993 -0.08451856 -0.04623505 -0.09356622 -0.080946885 -0.1817664 -0.07418237
0.044214446 -0.2636167 -0.26202843 0.16759351 -0.10757514 0.32301992 0.017335534 -0.06424141
0.040011324 -0.032291725 -0.16789867 0.034678496 -0.14179285 -0.10606315 0.055944532 -0.022380708
-0.22519323 0.10207171 0.3011262 0.21589883 0.05954452 -0.25135556 0.25912654 0.039336413
-0.027706899 0.123024434 0.16457592 -0.2124488 -0.14863957 -0.42378068 -0.013019334 -0.09569965
-0.08011049 -0.03897911 0.068785526 0.13671276 0.40286422 -0.075922035 0.00888518 -0.02219247
0.06121168 0.07130716 -0.09264265 0.05639204 0.123168245 0.057516765 -0.052304875 0.07381051
0.23901983 0.013870547 -0.23186444 0.3430229 0.042807143 0.0037518893 0.05469713 0.122818805
-0.0678111 0.24148361 0.039023507 -0.11175082 0.007602566 -0.09705941 0.17905721 0.24084215
0.17064886 -0.09932374 -0.075165845 -0.1536814 -0.18356445 -0.35850224 0.17594695 -0.2734114
0.17388476 0.23121187 -0.25007164 -0.17854139 -0.45395976 -0.26826376 -0.15524884 -0.14812495
-0.25544715 0.49746928 -0.32859218 -0.21908711 0.30426598 0.010106115 0.10991104 0.07258731
0.12334089 0.13676763 0.10138377 -0.19891581 -0.07559846 0.09050959 0.04034964 -0.066866755
00000000: bdcb 9539 9950 ed3c 1288 063d f20d fdbd
00000010: 090d 143d 6b27 6e3c 1ce5 0ebe fc65 953b
00000020: 15f3 0fbc 4649 33bb 356a 33bd 962a 583a
00000030: 492c b0bb 32fd 873a 2c50 3abd 8cfa eb3b
00000040: c195 1abe c655 61bd e842 303b 7d4c 33bd
00000050: 9c71 c1bd b7dd 25bb 25ff 21bc 688f 72be
00000060: f1c6 d4bd 4fde a93d 94d8 85bb 2789 04bd
00000070: 36a4 593e a4c1 023e 59ec 8ebb 3ddf af3d
00000080: 9d77 2fbe f891 503d bb39 b4bd e658 a73b
00000090: d23c d33e d5ab d63e 1012 85bd 2de6 96bd
000000a0: 6a66 84bd 1a7e 6a3c 7256 14bd a062 59bd
000000b0: 4bb3 113d c97b 2fbc b7a6 f03d ed4c 903e
000000c0: fb9f 89be 7eaf df3c ff67 6fbd 03ef f2bc
000000d0: 3045 743e 4af0 bfbd f9bb 933e ea26 ce3e
000000e0: 6918 e4bc 5ab1 563d 7ae6 a73e 61ee a03d
000000f0: b6fb 0cbe e0a9 523d 7812 11be 07ec 4cbc
00000100: 02d4 2c3b 713c 39be 755b bebe 466d d5bd
00000110: 4b05 893d 3118 ca3b 34c8 0bbe 3bdf a83c
00000120: a26b 5cbe 7abc a7bd dde4 5f3e 45b4 84bc
00000130: 8c34 583e 6670 2a3d 2dd1 0f3d d22c ba3d
00000140: c6ab 9b3d 4c6c a13e baab ae3d a95d 05bd
00000150: 001c 42bd 8d7e 28bd 8552 15bd cb1a 17be
00000160: c3fe 00bf 6e96 bfbe a286 d23d 5357 8f3c
00000170: 059e f33d 3eff eabc 837f f63c c480 4c3d
00000180: 4c5d 8fbb fdde 843e 4f46 85be 25be 063e
00000190: b125 a6be 2894 203d effe 93be db4c 29be
000001a0: c5b3 5c3d 37d7 3d3d efbf aebe 4ff4 a53c
000001b0: 7814 95bb 8a5a 28bd 1083 f1bd 3783 03be
000001c0: ff71 80bd 7630 533e b90b 573d 8d06 bebd
000001d0: 80bc c33d 0f06 743c c2b8 3fbd c305 0abe
000001e0: 674e 76bd 0cf6 8cbd 70b6 38be df77 f33c
000001f0: 2e99 44bd 7d1c 553d 0ade 9ebe fc5f cebc
00000200: 3a0a 89bd e573 183e 14fe 13be 80fc 0d3c
00000210: 779a 263d e7f6 eb3d f9d5 06be e425 873c
00000220: 6768 ca3d ee57 efbd b9b5 38be 749f 6d3c
00000230: 8852 363e 09f5 4bbc 583f 8abd 21eb be3c
00000240: 0901 753d 99aa e6bc e390 a53e bd88 15be
00000250: f4c8 723c 6da1 093e 77c7 ee3d 0a80 a43e
00000260: 5046 d2bd 36e4 46be 1118 adbd f760 3dbd
00000270: a59f bfbd 7bc7 a5bd f920 3abe edec 97bd
00000280: 351a 353d c5f8 86be 9728 86be a29d 2b3e
00000290: 5b50 dcbd de62 a53e 4003 8e3c 0091 83bd
000002a0: eae2 233d 5444 04bd a1ed 2bbe 0a0b 0e3d
000002b0: 2532 11be a337 d9bd 1826 653d bf57 b7bc
000002c0: 0e99 66be f90a d13d 372d 9a3e 9514 5d3e
000002d0: f4e4 733d adb1 80be 3cac 843e 381f 213d
000002e0: 94f9 e2bc 3cf4 fb3d 9786 283e 2e8c 59be
000002f0: f934 18be c8f9 d8be 0b4f 55bc 2efe c3bd
00000300: f810 a4bd 8fa8 1fbd 6ddf 8c3d 6efe 0b3e
00000310: 3844 ce3e 037d 9bbd 2593 113c fccc b5bc
00000320: 19b9 7a3d 7d09 923d 6ebb bdbd 57fb 663d
00000330: a23f fc3d b396 6b3d a33d 56bd f729 973d
00000340: 9dc1 743e 4a41 633c df6d 6dbe b3a0 af3e
00000350: 8b56 2f3d 42e2 753b 190a 603d 6d88 fb3d
00000360: 8ce0 8abd 7b47 773e 1dd7 1f3d 9ddd e4bd
00000370: f21e f93b 15c7 c6bd c65a 373e 539f 763e
00000380: 93be 2e3e 3f6a cbbd 8df0 99bd a85e 1dbe
00000390: 52f8 3bbe 9b8d b7be 702b 343e 94fc 8bbe
000003a0: d90e 323e cec2 6c3e 6409 80be 8ed3 36be
000003b0: 6a6d e8be de59 89be 8df9 1ebe 11ae 17be
000003c0: f8c9 82be 4bb4 fe3e 3c3d a8be 5f58 60be
000003d0: c0c8 9b3e 1e94 253c 0a19 e13d a8a8 943d
000003e0: 269a fc3d d00c 0c3e 4ba2 cf3d 96b0 4bbe
000003f0: 5ed3 9abd 185d b93d aa45 253d 70f1 88bd

cls.0.bias f4 [256]
-0.07813669 0.032026906 -0.08608649 -0.059923276 -0.06096357 -0.05899947 -0.05753702 -0.06398421
-0.014808178 0.024561465 0.061138183 0.051032368 0.07940355 -0.067221396 0.08061954 0.04454628
-0.052077692 0.030590944 0.060719695 -0.07526549 0.0005881221 -0.050253842 -0.061270006 0.035510365
-0.057411823 0.029703997 -0.060020488 -0.058518983 0.059794363 0.060842875 0.024593648 0.012154666
-0.053377077 0.08461451 -0.06890031 0.047544315 -0.05575753 0.07225166 0.050184287 0.06666728
0.0626561 0.0017384329 0.05877317 0.04536703 0.06827971 -0.06218372 -0.059952173 -0.053946942
0.052860927 0.01240027 -0.06073855 -0.033618018 -0.061914414 0.06029981 -0.060599647 -0.06669861
-0.028957611 -0.057493757 0.01366794 -0.062381856 0.061735783 -0.029318314 0.055749312 0.022769045
0.029418098 0.048169546 -0.061855733 0.058261506 0.05075529 0.0010033856 0.061487433 0.021676159
-0.061375454 -0.07027823 -0.11078415 0.04938618 0.05659821 0.033834744 0.047764994 -0.09235447
-0.037256863 -0.06274488 -0.03851329 0.048135664 0.044350263 -0.08480603 -0.027591031 0.052883416
-0.08756014 -0.06430213 -0.07889003 -0.056163833 -0.07373453 -0.004851031 0.061075963 -0.065001145
0.05793931 0.055818476 -0.06110307 -0.030249182 -0.062974475 0.056714635 -0.059321456 -0.062330306
-0.066628024 -0.026819209 -0.01943183 -0.060506456 0.07138801 -0.037376594 -0.02971735 -0.053727496
-0.07719181 0.042828277 -0.05243482 -0.07569245 -0.060755175 0.065327324 0.038711958 0.075568594
-0.05304067 -0.057038017 0.054628715 -0.06084451 -0.068041615 -0.10672089 0.046028044 0.0077855675
0.056289777 -0.054894414 -0.0052731866 0.049873035 0.006264529 -0.053399872 -0.06168576 0.040414806
0.05175648 0.05674716 -0.06016751 0.030452302 0.066019155 -0.084509924 0.07107229 -0.064959414
-0.10035177 0.031572804 -0.047712732 0.0678645 -0.06265338 0.04974923 -0.058774874 0.05860078
0.059396114 0.062430736 -0.052905533 -0.06291363 -0.06140264 -0.07033349 -0.061350577 -0.036576174
-0.09426787 0.008842481 -0.01906228 0.01174111 0.050363157 -0.04122025 0.08195205 -0.060062926
-0.061313663 -0.07572101 -0.033946063 0.05992145 -0.088989735 0.0593907 -0.065014765 0.020236226
0.05589838 -0.06865973 0.0049380288 0.023860937 -0.07894787 -0.065467 0.055896033 -0.07096446
0.05989626 0.054425362 -0.059558943 0.0552844 -0.06700714 -0.083161004 -0.056988455 0.01775188
-0.03087887 -0.08819838 -0.0594554 0.054923072 -0.0647499 -0.05125014 0.041342523 0.062154483
0.06882936 -0.055652488 -0.06634341 -0.06609557 -0.03915604 -0.04415516 0.082137175 -0.040679082
-0.021042446 -0.06572405 -0.060512587 0.05852642 0.047423646 0.030566415 0.01679091 -0.060669422
0.06941342 -0.046050616 -0.046446234 0.052783936 -0.095742755 -0.066659704 -0.04985925 -0.06254353
0.016924085 -0.055566907 0.05949838 -0.06739057 -0.066761814 0.048877455 0.05614505 -0.07145693
0.054367058 -0.066489674 -0.012011816 -0.04813328 -0.059980366 0.00037030605 0.059922997 -0.0590793
-0.055808965 -0.047565427 -0.058882244 -0.096503645 -0.07146873 -0.069763854 -0.02157062 0.024057163
-0.07726374 0.051585514 -0.00026268902 -0.058028024 -0.05885536 0.071981184 -0.08199648 -0.059372317
00000000: 2106 a0bd a52e 033d 1d4e b0bd 1c72 75bd
00000010: f0b4 79bd 6ea9 71bd f0ab 6bbd 270a 83bd
00000020: 009e 72bc 2035 c93c 086c 7a3d 5107 513d
00000030: 549e a23d 5fab 89bd db1b a53d 2976 363d
00000040: 6b4f 55bd dc99 fa3c 37b5 783d cb24 9abd
00000050: 352c 1a3a f9d6 4dbd 42f6 7abd 5173 113d
00000060: a928 6bbd cc55 f33c 0bd8 75bd 9ab1 6fbd
00000070: efea 743d 6136 793d 9e78 c93c 5d24 473c
00000080: eca1 5abd 5f4a ad3d 9b1b 8dbd d4bd 423d
00000090: 0262 64bd aef8 933d 0a8e 4d3d db88 883d
000000a0: d751 803d 21dc e33a 23bc 703d c7d2 393d
000000b0: 3cd6 8b3d 5bb4 7ebd 6990 75bd 78f7 5cbd
000000c0: b384 583d 812a 4b3c fcc8 78bd 0cb3 09bd
000000d0: f899 7dbd effc 763d 5637 78bd 4899 88bd
000000e0: 8338 edbc 937e 6bbd 7fef 5f3c 1e84 7fbd
000000f0: a9de 7c3d f62c f0bc 6459 643d 2686 ba3c
00000100: 39fe f03c 6e4d 453d 705c 7dbd 9ea3 6e3d
00000110: c7e4 4f3d 0984 833a 3fda 7b3d 3392 b13c
00000120: d464 7bbd 08ee 8fbd cde2 e2bd 2a49 4a3d
00000130: 86d3 673d 4d96 0a3d 3aa5 433d 5724 bdbd
00000140: a79a 18bd 6380 80bd 1dc0 1dbd e729 453d
00000150: 9fa8 353d c9ae adbd 9606 e2bc 489c 583d
00000160: bb52 b3bd d6b0 83bd 1991 a1bd 0c0c 66bd
00000170: 2102 97bd 66f5 9ebb ca2a 7a3d 521f 85bd
00000180: c551 6d3d eaa1 643d 3647 7abd 22cd f7bc
00000190: c3f8 80bd 9b4d 683d 0efb 72bd 104e 7fbd
000001a0: 4674 88bd f5b3 dbbc 802f 9fbc 9ed5 77bd
000001b0: e133 923d 3318 19bd cd71 f3bc 5d11 5cbd
000001c0: bd16 9ebd b46c 2f3d e5c5 56bd a504 9bbd
000001d0: 6bda 78bd 55ca 853d 6e90 1e3d b5c3 9a3d
000001e0: 2c41 59bd b2a0 69bd 5cc2 5f3d 1838 79bd
000001f0: 6759 8bbd 7b90 dabd e787 3c3d 131e ff3b
00000200: 1c90 663d f7d8 60bd b2ca acbb ab47 4c3d
00000210: ae46 cd3b d3b9 5abd 35aa 7cbd ff89 253d
00000220: 9afe 533d b66f 683d 3572 76bd 1b77 f93c
00000230: 0d35 873d 8a13 adbd 598e 913d 7109 85bd
00000240: 3b85 cdbd 7c52 013d 6d6e 43bd 8bfc 8a3d
00000250: 6a50 80bd d9c5 4b3d ecbd 70bd 5f07 703d
00000260: 5749 733d 5fb7 7f3d 79b3 58bd dcd8 80bd
00000270: 5681 7bbd 010b 90bd be4a 7bbd e6d0 15bd
00000280: 830f c1bd 0ee0 103c 8028 9cbc c95d 403c
00000290: 9949 4e3d 91d6 28bd 7ad6 a73d 8b04 76bd
000002a0: 0924 7bbd 9e13 9bbd 070b 0bbd 3270 753d
000002b0: 4040 b6bd aa43 733d 7626 85bd 71c6 a53c
000002c0: b3f5 643d 799d 8cbd 30cf a13b 0378 c33c
000002d0: 6caf a1bd 9013 86bd 3df3 643d d155 91bd
000002e0: c855 753d 21ed 5e3d 14f4 73bd e571 623d
000002f0: 0a3b 89bd 5150 aabd ba6c 69bd 646c 913c
00000300: aff5 fcbc 5aa1 b4bd 8187 73bd 04f7 603d
00000310: 989b 84bd abeb 51bd c756 293d b395 7e3d
00000320: 68f6 8c3d ddf3 63bd 0edf 87bd 1d5d 87bd
00000330: 1562 20bd 0bdc 34bd 8937 a83d 1c9f 26bd
00000340: 3561 acbc 559a 86bd 0cdc 77bd 66b9 6f3d
00000350: 4c3f 423d 6b66 fa3c 178d 893c 8080 78bd
00000360: a028 8e3d 929f 3cbd 683e 3ebd f833 583d
00000370: c714 c4bd e284 88bd 3739 4cbd d216 80bd
00000380: 61a4 8a3c 209a 63bd 93b4 733d 1104 8abd
00000390: 6bba 88bd ba33 483d 5af8 653d 0358 92bd
000003a0: feaf 5e3d bd2b 88bd 35cd 44bc 6727 45bd
000003b0: f9ad 75bd a325 c239 d171 753d 23fd 71bd
000003c0: f197 64bd f7d3 42bd 822e 71bd b4a3 c5bd
000003d0: 335e 92bd 5ae0 8ebd deb4 b0bc 8713 c53c
000003e0: 743c 9ebd 554b 533d 86b9 89b9 cbae 6dbd
000003f0: 5112 71bd df6a 933d c5ed a7bd 6330 73bd

cls.2.weight f4 [256]
0.8144281 0.7289741 0.94070864 0.9365612 0.9283222 0.9299519 0.80140316 0.9256996
0.837573 1.0708436 0.9356634 1.0573953 0.97572637 0.9793922 0.80257493 0.8354146
0.9643103 1.1328713 0.9578632 0.9634288 0.85046476 0.9443355 0.7743335 1.2499743
0.88979584 0.91632354 0.8906058 0.8669204 0.98150176 0.96032155 0.9676272 0.9224729
0.87943935 0.9183318 0.9354782 0.9548614 0.84927845 0.9519204 0.96463567 0.93102914
0.9267646 0.74767536 0.9871809 0.8730168 0.9545913 0.94451517 0.78120595 0.94653136
0.887164 1.2898053 0.8351683 0.90195876 0.7887544 0.9378987 0.92466784 0.9017883
1.3000604 0.85528815 0.62010956 1.0058252 0.9557522 0.9226344 0.9402298 0.83323765
0.8592067 0.8651131 0.89597666 0.82706946 0.8491612 0.76373464 0.95007193 0.92204404
0.8815038 0.79664475 0.8934122 1.0283073 0.9594181 1.2444164 0.92662334 0.7969323
0.90151507 0.9559581 0.882019 0.7459423 0.90736866 0.7331503 0.92218626 0.93003756
0.77791035 0.7063619 0.937916 0.9339403 0.86453134 0.96715695 0.979548 0.75307435
0.8834702 0.95646703 0.8203404 0.81365895 0.95445246 0.9264322 0.8985651 0.9422941
0.95419115 0.89723384 0.99292344 0.8415962 0.8788492 0.91673326 0.9483111 0.947019
0.88220614 0.8315623 0.9315909 0.7964097 0.9647206 0.97294414 1.3509867 0.97887796
0.8890237 0.92184186 0.9065003 0.9035061 0.9566468 0.8587505 0.93173736 0.89508605
0.97185796 0.9629736 0.7947279 0.78067386 1.0441675 0.87235934 0.95998424 0.87084126
0.9510106 0.92865944 0.8959292 0.8965001 0.9592374 0.9258553 1.0060118 0.8285978
0.35088938 0.87875956 0.9086031 0.94230545 0.9504745 0.8885629 0.6317654 0.8914234
0.95280075 0.9742589 0.9792148 0.9804136 0.37617046 0.8405806 0.79999965 0.94277906
0.9367351 0.9187224 0.8929141 0.9303486 0.81067735 0.9259277 0.9039949 0.798994
0.7781803 0.9554223 0.9044682 0.94633806 0.6381743 0.889892 0.8363234 0.85430294
0.81101906 0.8021719 0.915356 0.9064478 0.9437574 0.91079164 0.8428966 0.95945853
0.9352124 0.77422225 0.96909845 0.8795047 0.90753996 0.9236788 0.9698959 0.95575076
0.8837228 0.92057574 0.7881087 0.9506515 0.9147889 0.9370928 0.9080431 0.90584743
0.9486646 0.9442484 0.8337669 0.98365474 0.9114093 0.9385943 0.9641077 0.88403934
0.94912493 0.9853631 0.70389235 0.73582953 0.9632836 0.8977729 0.9579436 0.91128206
0.9480117 0.81272227 0.8966904 0.92075956 0.8003629 0.9069832 0.84225947 0.9038498
0.8907007 0.9300778 0.90288764 0.9037664 0.79090947 0.9401958 0.8324508 0.88595074
0.7971972 0.8465098 0.90135235 0.9476829 0.6796299 0.8458916 0.9288867 0.95064425
0.936864 0.89341027 0.92886806 0.74429536 0.7811849 0.8961569 0.98412234 0.888592
0.9220005 0.8667042 0.797018 0.86791646 0.94790506 0.9806694 0.8964521 0.82588834
00000000: 5c7e 503f 0c9e 3a3f 48d2 703f 7ac2 6f3f
00000010: 86a6 6d3f 5411 6e3f c228 4d3f a6fa 6c3f
00000020: 2f6b 563f 6711 893f a387 6f3f bb58 873f
00000030: 34c9 793f 72b9 7a3f 8d75 4d3f bbdd 553f
00000040: 0add 763f ed01 913f 8636 753f 45a3 763f
00000050: 0fb8 593f f9bf 713f b83a 463f 28ff 9f3f
00000060: a9c9 633f 2e94 6a3f befe 633f 7fee 5d3f
00000070: b343 7b3f a2d7 753f 6bb6 773f 2f27 6c3f
00000080: f022 613f cb17 6b3f 807b 6f3f cc71 743f
00000090: 506a 593f 0eb1 733f 5df2 763f ed57 6e3f
000000a0: 7240 6d3f a767 3f3f e3b7 7c3f 077e 5f3f
000000b0: 1860 743f bfcb 713f 1dfd 473f e14f 723f
000000c0: 2e1d 633f 5718 a53f 97cd 553f c5e6 663f
000000d0: cfeb 493f 211a 703f 08b7 6c3f 99db 663f
000000e0: 6168 a63f 2af4 5a3f 80bf 1e3f e1be 803f
000000f0: 2dac 743f c531 6c3f e6b2 703f 104f 553f
00000100: f8f4 5b3f 0d78 5d3f ba5e 653f d3ba 533f
00000110: a162 593f 1d84 433f ea37 733f 140b 6c3f
00000120: 3caa 613f e9f0 4b3f a9b6 643f 939f 833f
00000130: 6d9c 753f 0949 9f3f 3037 6d3f c103 4c3f
00000140: b1c9 663f acb9 743f ffcb 613f 13f6 3e3f
00000150: 5049 683f bdaf 3b3f 6614 6c3f f116 6e3f
00000160: 2225 473f 22d4 343f 431b 703f b616 6f3f
00000170: ed51 5d3f 9997 773f a8c3 7a3f 7bc9 403f
00000180: 1a2b 623f 06db 743f d401 523f f44b 503f
00000190: ff56 743f a92a 6d3f 5d08 663f 303a 713f
000001a0: df45 743f 1eb1 653f 3b30 7e3f d972 573f
000001b0: 43fc 603f 08af 6a3f 84c4 723f d66f 723f
000001c0: 43d8 613f 44e1 543f be7c 6e3f 82e1 4b3f
000001d0: eef7 763f de12 793f 22ed ac3f bf97 7a3f
000001e0: 0f97 633f d4fd 6b3f 6710 683f 2d4c 673f
000001f0: cee6 743f 13d7 5b3f 5786 6e3f 5c24 653f
00000200: afcb 783f 7085 763f 4a73 4b3f 3eda 473f
00000210: 48a7 853f f152 5f3f 87c1 753f 74ef 5e3f
00000220: 6e75 733f a0bc 6d3f 9e5b 653f 0881 653f
00000230: 9590 753f da04 6d3f ffc4 803f fc1e 543f
00000240: c6a7 b33e 63f6 603f 369a 683f ee3a 713f
00000250: 4c52 733f dc78 633f 61bb 213f 5334 643f
00000260: c0ea 733f 0869 793f d2ad 7a3f 63fc 7a3f
00000270: 6a99 c03e 4a30 573f c7cc 4c3f f859 713f
00000280: dfcd 6f3f 6431 6b3f 0596 643f 532b 6e3f
00000290: 8d88 4f3f 9909 6d3f 366c 673f df8a 4c3f
000002a0: d336 473f 8e96 743f 3a8b 673f 3643 723f
000002b0: 645f 233f f6cf 633f 4a19 563f 99b3 5a3f
000002c0: f29e 4f3f 235b 4d3f c554 6a3f f70c 683f
000002d0: 169a 713f a429 693f 12c8 573f 139f 753f
000002e0: 146a 6f3f 6e33 463f d616 783f 3827 613f
000002f0: 8a54 683f 3776 6c3f 194b 783f 15ac 743f
00000300: a83b 623f daaa 6b3f 7ec1 493f e65d 733f
00000310: 9b2f 6a3f 50e5 6f3f 8375 683f 9ee5 673f
00000320: afdb 723f 43ba 713f bf71 553f ccd0 7b3f
00000330: 1f52 693f b747 703f c3cf 763f 6750 623f
00000340: daf9 723f c240 7c3f 4a32 343f 535f 3c3f
00000350: c199 763f 72d4 653f cb3b 753f c849 693f
00000360: e5b0 723f 910e 503f 818d 653f e6b6 6b3f
00000370: 95e4 4c3f 0d30 683f 519e 573f b362 673f
00000380: f604 643f 9419 6e3f a523 673f 3c5d 673f
00000390: 0b79 4a3f acb0 703f 7f1b 553f abcd 623f
000003a0: 1e15 4c3f deb4 583f 07bf 663f 599b 723f
000003b0: 3afc 2d3f 5a8c 583f 85cb 6d3f 6c5d 733f
000003c0: 52d6 6f3f 89b6 643f 4cca 6d3f 248a 3e3f
000003d0: bcfb 473f 8a6a 653f 71ef 7b3f c47a 633f
000003e0: 3a08 6c3f 54e0 5d3f 5f09 4c3f c62f 5e3f
000003f0: e8a9 723f 260d 7b3f e37d 653f 6b6d 533f

cls.2.bias f4 [256]
-0.0023396492 0.014685262 0.0074614333 0.01786259 -0.006375412 0.0066757174 0.047296863 0.0074811797
0.02081578 0.011598266 0.007380068 0.0016865022 0.0045351386 0.0019959894 0.01129861 0.0368964
0.010590199 0.05011556 0.004893381 0.0054954095 0.010515002 0.008890897 -0.014172222 -0.012232369
-0.008800961 0.00012868879 0.00403869 0.023025665 0.0027323905 0.011097309 0.0054201996 0.001366678
0.020834062 0.020656565 -0.008166395 0.007505148 0.009111544 0.0017381057 0.0088824695 0.009098365
0.009862685 0.033755157 0.002547922 0.013473767 0.0026758611 0.0063664136 0.010776585 0.006261437
0.061372265 0.006407014 0.026069568 0.0021045797 0.05703766 0.0016348001 0.002421349 0.037243616
-0.01226857 0.027525973 0.03480765 0.005329346 0.003698612 0.010564209 0.0071802437 -0.0023814538
0.023810223 0.04878815 0.01243777 0.029120537 0.017922321 0.06063672 0.009083409 0.008214256
0.020129703 -0.013550013 -0.023441603 0.004725987 0.001060211 0.007853889 0.0052225227 0.02766279
0.017044367 0.0025789775 0.009547225 0.075427674 0.0014413296 -0.052327614 0.006836099 0.017980613
0.027894234 0.057621107 0.0036540008 0.0064488617 0.018544493 0.0866888 0.015711479 -0.0008246618
0.008220801 0.0041827327 0.029057207 -0.0042361394 0.012635901 0.016513553 0.005874639 0.002871328
0.0076494524 0.007935061 0.002058898 -0.0185937 0.018156026 0.02089632 0.0038732742 0.0056754947
0.04684615 0.016506676 0.015476682 0.042663757 0.006512364 0.0030131503 0.017350424 0.003082005
0.018395685 0.011250716 0.025140947 0.038146526 0.0037094739 -0.007734253 0.0027380604 0.023677722
-0.0046230396 0.0022799335 0.01788297 0.04100319 0.03669923 0.0135004 0.005023258 -0.0031764682
0.0021867815 0.016333664 -0.004949527 -0.0053047123 0.002779653 0.01067039 0.046313252 -0.006489377
0.006412037 0.046203364 0.008330756 0.0010770834 0.005544036 0.01654365 -0.017369403 0.0322141
0.006832649 0.006619067 0.003987983 0.0052335686 -0.005498121 0.02494007 0.03475966 0.009692862
0.005199431 0.009295421 -0.0033205482 -0.014734438 0.02241096 -0.00055088225 -0.0043515703 0.0067576296
0.05020353 0.0025809344 0.023868103 0.0053181425 0.0031455401 0.024310034 0.025210068 0.018408952
0.0363921 0.013257058 0.010200488 0.015176316 0.004406471 0.0110096065 0.004697389 0.004084738
0.0052389475 0.07179171 0.01167767 0.0265663 0.013801787 0.01004311 0.0059448737 0.0036793505
0.027415814 0.01434308 0.013426049 0.007215157 0.00013097104 0.0052669914 0.012903958 0.03582391
0.024007592 0.0050429613 -0.024370335 0.0038533786 0.0020048027 0.009654887 0.003315683 0.013339875
-0.00060089125 0.0073802215 0.010272666 0.04268686 0.0033116662 0.0023162956 0.0037690578 0.012310265
0.0021178597 0.007690855 0.016901523 0.010774217 -0.0036421723 0.018448718 0.031162078 -0.008490687
-0.0058130706 0.012252447 0.0327571 0.009701848 0.02315927 0.0060038483 0.035210088 0.000764452
0.04967009 0.01389652 0.010662556 0.0030995936 0.008285164 0.006942426 0.005938194 0.007953798
0.009418556 -0.020952601 0.008491999 -0.029916925 0.04682464 0.015224595 0.012170409 -0.004068025
-0.004345928 0.018624514 0.021408783 -0.00090170256 0.009556262 0.00088147784 0.0043045506 0.00026979507
00000000: cd54 19bb 749a 703c 0a7f f43b 9154 923c
00000010: d5e8 d0bb fabf da3b 5bba 413d af24 f53b
00000020: db85 aa3c a706 3e3c 7fd4 f13b a00d dd3a
00000030: 809b 943b 25cf 023b ce1d 393c ae20 173d
00000040: 8482 2d3c f945 4d3d a858 a03b d612 b43b
00000050: 1d47 2c3c 20ab 113c 9c32 68bc 466a 48bc
00000060: e831 10bc a2f0 0639 fd56 843b 52a0 bc3c
00000070: e811 333b 7dd1 353c ee9b b13b 1b22 b33a
00000080: 32ac aa3c f537 a93c 58cc 05bc bfed f53b
00000090: 9648 153c 26d1 e33a c787 113c 4f11 153c
000000a0: 1997 213c d942 0a3d 0afb 263b 13c1 5c3c
000000b0: 805d 2f3b 599d d03b 4690 303c be2c cd3b
000000c0: 7c61 7b3d eef1 d13b d98f d53c fdec 093b
000000d0: 52a0 693d ca46 d63a 7faf 1e3b c38c 183d
000000e0: 1d02 49bc 267e e13c 7792 0e3d cba1 ae3b
000000f0: 6a64 723b 8115 2d3c 4048 eb3b 2a12 1cbb
00000100: a80d c33c 15d6 473d cac7 4b3c 318e ee3c
00000110: d5d1 923c 365e 783d 94d2 143c 1695 063c
00000120: 0ce7 a43c e000 5ebc 9b08 c0bc 74dc 9a3b
00000130: c7f6 8a3a 99ad 003c b221 ab3b 139d e23c
00000140: a1a0 8b3c 1004 293b f76b 1c3c d379 9a3d
00000150: ffea bc3a 7b55 56bd 5b01 e03b 144c 933c
00000160: 7382 e43c 1c04 6c3d f677 6f3b f950 d33b
00000170: 9fea 973c e689 b13d 5cb5 803c 1e2e 58ba
00000180: 8ab0 063c 4e0f 893b 6109 ee3c 50cf 8abb
00000190: cf06 4f3c 6e47 873c 0b80 c03b e42c 3c3b
000001a0: 42a8 fa3b 0f02 023c 94ee 063b d151 98bc
000001b0: f2bb 943c c22e ab3c c2d6 7d3b 80f9 b93b
000001c0: c0e1 3f3d 0239 873c e991 7d3c 31c0 2e3d
000001d0: ab65 d53b 4678 453b 7a22 8e3c 77fb 493b
000001e0: 8cb2 963c ec54 383c 63f4 cd3c 883f 1c3d
000001f0: a51a 733b 9e6f fdbb 0871 333b c8f7 c13c
00000200: de7c 97bb f06a 153b 4e7f 923c f6f2 273d
00000210: ef51 163d c830 5d3c 249a a43b 4b2c 50bb
00000220: 1b50 0f3b 2dce 853c a42f a2bb 27d3 adbb
00000230: d72a 363b dcd2 2e3c f7b2 3d3d d7a4 d4bb
00000240: 111c d23b bd3f 3d3d b97d 083c ec2c 8d3a
00000250: bfaa b53b 8c86 873c 474a 8ebc eff2 033d
00000260: 6ae4 df3b c2e4 d83b a0ad 823b 5b7e ab3b
00000270: 9529 b4bb 1e4f cc3c 2560 0e3d cfce 1e3c
00000280: fd5f aa3b d24b 183c 8e9d 59bb b668 71bc
00000290: 3197 b73c 1569 10ba 9e97 8ebb 1b6f dd3b
000002a0: 37a2 4d3d e524 293b 0a87 c33c d043 ae3b
000002b0: 6825 4e3b d625 c73c 5885 ce3c 5fce 963c
000002c0: e20f 153d 2234 593c f31f 273c 15a6 783c
000002d0: 2864 903b a361 343c 8eec 993b 44d9 853b
000002e0: 7aab ab3b 8807 933d b353 3f3c 92a1 d93c
000002f0: e420 623c db8b 243c 37cd c23b 4221 713b
00000300: 2197 e03c 3dff 6a3c eef8 5b3c 206d ec3b
00000310: 4555 0939 ba96 ac3b 1f6b 533c 18bc 123d
00000320: 92ab c43c 6d3f a53b 4ca4 c7bc f788 7c3b
00000330: 0263 033b 882f 1e3c ee4b 593b 7e8f 5a3c
00000340: 2185 1dba c9d5 f13b af4e 283c 6bd8 2e3d
00000350: 8a08 593b fecc 173b 4c02 773b feb0 493c
00000360: cacb 0a3b 9103 fc3b 1075 8a3c 5786 303c
00000370: 83b1 6ebb c421 973c 9d47 ff3c 861c 0bbc
00000380: 927b bebb 7dbe 483c 4f2c 063d 80f4 1e3c
00000390: 82b8 bd3c eebb c43b 7438 103d 8165 483a
000003a0: dd72 4b3d 3bae 633c 00b2 2e3c 8d22 4b3b
000003b0: 7fbe 073c 4a7d e33b 2f95 c23b a650 023c
000003c0: 4950 1a3c caa4 abbc 0622 0b3c 5714 f5bc
000003d0: 32cb 3f3d 9470 793c 6566 473c 114d 85bb
000003e0: 4968 8ebb 7092 983c 7961 af3c 3c60 6cba
000003f0: de91 1c3c fa12 673a 300d 8d3b 4873 8d39
